# HLO Graph containing the computations for MLPerf(TM)'s training v0.7's Dlrm benchmark after XLA optimizations running on a 4x4x4 TPU v3 system. 
# Please, follow MLPerf(TM)'s publication guidelines when citing this data (https://github.com/mlcommons/policies/blob/master/RESULTS_GUIDELINES.md).
HloModule cluster_7035002757448359829_f15n_1__.3522, is_scheduled=true, input_output_alias={ {0}: (0, {0}, may-alias), {1}: (0, {1}, may-alias), {2}: (0, {2}, may-alias), {3}: (0, {3}, may-alias), {4}: (0, {4}, may-alias), {5}: (0, {5}, may-alias), {6}: (0, {6}, may-alias), {7}: (0, {7}, may-alias), {8}: (0, {8}, may-alias), {9}: (0, {9}, may-alias), {10}: (0, {10}, may-alias), {11}: (0, {11}, may-alias), {12}: (0, {12}, may-alias), {13}: (0, {13}, may-alias), {14}: (0, {14}, may-alias), {15}: (0, {15}, may-alias), {16}: (0, {16}, may-alias), {17}: (0, {17}, may-alias), {18}: (0, {18}, may-alias), {19}: (0, {19}, may-alias), {20}: (0, {20}, may-alias), {21}: (0, {21}, may-alias), {22}: (0, {22}, may-alias), {23}: (0, {23}, may-alias), {24}: (0, {24}, may-alias), {25}: (0, {25}, may-alias), {26}: (0, {26}, may-alias), {27}: (0, {27}, may-alias), {28}: (0, {28}, may-alias), {29}: (0, {29}, may-alias), {30}: (0, {30}, may-alias) }

%or_with_unsigned_bitcast (x: f32[], y: f32[]) -> f32[] {
  %y = f32[] parameter(1)
  %bitcast-convert.41 = u32[]{:S(5)} bitcast-convert(f32[] %y)
  %x = f32[] parameter(0)
  %bitcast-convert.40 = u32[]{:S(5)} bitcast-convert(f32[] %x)
  %or.18 = u32[]{:S(5)} or(u32[]{:S(5)} %bitcast-convert.40, u32[]{:S(5)} %bitcast-convert.41)
  ROOT %bitcast-convert.42 = f32[] bitcast-convert(u32[]{:S(5)} %or.18)
}

%get-tuple-element.798.reduce_sub_computation (lhs: f32[], rhs: f32[]) -> f32[] {
  %rhs = f32[] parameter(1)
  %lhs = f32[] parameter(0)
  ROOT %add.292 = f32[] add(f32[] %lhs, f32[] %rhs)
}

%fused_computation.294.clone (param_0.2088: s32[1664]) -> s32[2048] {
  %constant.2249 = s32[] constant(0), metadata={op_type="ResourceGather" op_name="while/Gather"}
  %broadcast.2587 = s32[2048]{0} broadcast(s32[] %constant.2249), dimensions={}, metadata={op_type="ResourceGather" op_name="while/Gather"}
  %param_0.2088 = s32[1664]{0:T(1024)} parameter(0)
  %pad.142 = s32[2048]{0} pad(s32[1664]{0:T(1024)} %param_0.2088, s32[] %constant.2249), padding=0_384, metadata={op_type="ResourceGather" op_name="while/Gather"}
  %constant.2248 = s32[] constant(19655), metadata={op_type="ResourceGather" op_name="while/Gather"}
  %broadcast.2586 = s32[2048]{0} broadcast(s32[] %constant.2248), dimensions={}, metadata={op_type="ResourceGather" op_name="while/Gather"}
  ROOT %clamp.4 = s32[2048]{0} clamp(s32[2048]{0} %broadcast.2587, s32[2048]{0} %pad.142, s32[2048]{0} %broadcast.2586), metadata={op_type="ResourceGather" op_name="while/Gather"}
}

%fused_computation.clone (param_0.2089: f32[19656,128], param_1.1504: s32[2048]) -> bf16[1664,128] {
  %param_0.2089 = f32[19656,128]{1,0:T(8,128)} parameter(0)
  %param_1.1504 = s32[2048]{0} parameter(1)
  %custom-call.7 = s32[2048]{0} custom-call(s32[2048]{0} %param_1.1504), custom_call_target="AssumeGatherIndicesInBound", operand_layout_constraints={s32[2048]{0}}, metadata={op_type="ResourceGather" op_name="while/Gather"}
  %slice.779 = s32[1664]{0:T(1024)} slice(s32[2048]{0} %custom-call.7), slice={[0:1664]}, metadata={op_type="ResourceGather" op_name="while/Gather"}
  %reshape.401 = s32[128,13]{1,0:T(8,128)} reshape(s32[1664]{0:T(1024)} %slice.779)
  %transpose.170 = s32[128,13]{1,0:T(8,128)} transpose(s32[128,13]{1,0:T(8,128)} %reshape.401), dimensions={0,1}
  %gather.10 = bf16[128,13,128]{2,1,0:T(8,128)(2,1)} gather(f32[19656,128]{1,0:T(8,128)} %param_0.2089, s32[128,13]{1,0:T(8,128)} %transpose.170), offset_dims={2}, collapsed_slice_dims={0}, start_index_map={0}, index_vector_dim=2, slice_sizes={1,128}, metadata={op_type="ResourceGather" op_name="while/Gather"}
  %transpose.171 = bf16[128,13,128]{2,1,0:T(8,128)(2,1)} transpose(bf16[128,13,128]{2,1,0:T(8,128)(2,1)} %gather.10), dimensions={0,1,2}
  ROOT %reshape.402 = bf16[1664,128]{1,0:T(8,128)(2,1)} reshape(bf16[128,13,128]{2,1,0:T(8,128)(2,1)} %transpose.171)
}

%fused_computation.34.clone (param_0.2090: f32[128,13], param_1.1505: f32[13,512], param_2.1389: f32[512]) -> f32[128,512] {
  %param_0.2090 = f32[128,13]{0,1:T(8,128)} parameter(0)
  %param_1.1505 = f32[13,512]{1,0:T(8,128)} parameter(1)
  %convolution.336 = f32[128,512]{1,0:T(8,128)} convolution(f32[128,13]{0,1:T(8,128)} %param_0.2090, f32[13,512]{1,0:T(8,128)} %param_1.1505), dim_labels=bf_io->bf, metadata={op_type="MatMul" op_name="while/bottom_mlp_layer_0/MatMul"}
  %param_2.1389 = f32[512]{0:T(512)} parameter(2)
  %broadcast.2589 = f32[128,512]{1,0:T(8,128)} broadcast(f32[512]{0:T(512)} %param_2.1389), dimensions={1}, metadata={op_type="BiasAdd" op_name="while/bottom_mlp_layer_0/BiasAdd"}
  %add.435 = f32[128,512]{1,0:T(8,128)} add(f32[128,512]{1,0:T(8,128)} %convolution.336, f32[128,512]{1,0:T(8,128)} %broadcast.2589), metadata={op_type="BiasAdd" op_name="while/bottom_mlp_layer_0/BiasAdd"}
  %constant.2250 = f32[]{:T(256)} constant(0), metadata={op_type="Select" op_name="while/training/gradients/while/Select_grad/Select_1"}
  %broadcast.2588 = f32[128,512]{1,0:T(8,128)} broadcast(f32[]{:T(256)} %constant.2250), dimensions={}, metadata={op_name="while/bottom_mlp_layer_0/Relu"}
  ROOT %maximum.142 = f32[128,512]{1,0:T(8,128)} maximum(f32[128,512]{1,0:T(8,128)} %add.435, f32[128,512]{1,0:T(8,128)} %broadcast.2588), metadata={op_name="while/bottom_mlp_layer_0/Relu"}
}

%fused_computation.54.clone (param_0.2091: f32[128,512], param_1.1506: f32[512,256], param_2.1390: f32[256]) -> f32[128,256] {
  %param_0.2091 = f32[128,512]{1,0:T(8,128)} parameter(0)
  %param_1.1506 = f32[512,256]{1,0:T(8,128)} parameter(1)
  %convolution.337 = f32[128,256]{1,0:T(8,128)} convolution(f32[128,512]{1,0:T(8,128)} %param_0.2091, f32[512,256]{1,0:T(8,128)} %param_1.1506), dim_labels=bf_io->bf, metadata={op_type="MatMul" op_name="while/bottom_mlp_layer_1/MatMul"}
  %param_2.1390 = f32[256]{0:T(256)} parameter(2)
  %broadcast.2591 = f32[128,256]{1,0:T(8,128)} broadcast(f32[256]{0:T(256)} %param_2.1390), dimensions={1}, metadata={op_type="BiasAdd" op_name="while/bottom_mlp_layer_1/BiasAdd"}
  %add.436 = f32[128,256]{1,0:T(8,128)} add(f32[128,256]{1,0:T(8,128)} %convolution.337, f32[128,256]{1,0:T(8,128)} %broadcast.2591), metadata={op_type="BiasAdd" op_name="while/bottom_mlp_layer_1/BiasAdd"}
  %constant.2251 = f32[]{:T(256)} constant(0), metadata={op_type="Select" op_name="while/training/gradients/while/Select_grad/Select_1"}
  %broadcast.2590 = f32[128,256]{1,0:T(8,128)} broadcast(f32[]{:T(256)} %constant.2251), dimensions={}, metadata={op_name="while/bottom_mlp_layer_1/Relu"}
  ROOT %maximum.143 = f32[128,256]{1,0:T(8,128)} maximum(f32[128,256]{1,0:T(8,128)} %add.436, f32[128,256]{1,0:T(8,128)} %broadcast.2590), metadata={op_name="while/bottom_mlp_layer_1/Relu"}
}

%fused_computation.136.clone (param_0.2092: f32[128,256], param_1.1507: f32[256,128], param_2.1391: f32[128]) -> f32[128,128] {
  %param_0.2092 = f32[128,256]{1,0:T(8,128)} parameter(0)
  %param_1.1507 = f32[256,128]{1,0:T(8,128)} parameter(1)
  %convolution.338 = f32[128,128]{1,0:T(8,128)} convolution(f32[128,256]{1,0:T(8,128)} %param_0.2092, f32[256,128]{1,0:T(8,128)} %param_1.1507), dim_labels=bf_io->bf, metadata={op_type="MatMul" op_name="while/bottom_mlp_layer_2/MatMul"}
  %param_2.1391 = f32[128]{0:T(256)} parameter(2)
  %broadcast.2593 = f32[128,128]{1,0:T(8,128)} broadcast(f32[128]{0:T(256)} %param_2.1391), dimensions={1}, metadata={op_type="BiasAdd" op_name="while/bottom_mlp_layer_2/BiasAdd"}
  %add.437 = f32[128,128]{1,0:T(8,128)} add(f32[128,128]{1,0:T(8,128)} %convolution.338, f32[128,128]{1,0:T(8,128)} %broadcast.2593), metadata={op_type="BiasAdd" op_name="while/bottom_mlp_layer_2/BiasAdd"}
  %constant.2252 = f32[]{:T(256)} constant(0), metadata={op_type="Select" op_name="while/training/gradients/while/Select_grad/Select_1"}
  %broadcast.2592 = f32[128,128]{1,0:T(8,128)} broadcast(f32[]{:T(256)} %constant.2252), dimensions={}, metadata={op_name="while/bottom_mlp_layer_2/Relu"}
  ROOT %maximum.144 = f32[128,128]{1,0:T(8,128)} maximum(f32[128,128]{1,0:T(8,128)} %add.437, f32[128,128]{1,0:T(8,128)} %broadcast.2592), metadata={op_name="while/bottom_mlp_layer_2/Relu"}
}

%fused_computation.311.clone.clone (param_0.2093: f32[136,768]) -> f32[8,128] {
  %param_0.2093 = f32[136,768]{1,0:T(8,128)} parameter(0)
  ROOT %slice.780 = f32[8,128]{1,0:T(8,128)} slice(f32[136,768]{1,0:T(8,128)} %param_0.2093), slice={[128:136], [0:128]}, sharding={maximal device=0}, metadata={op_type="_RecvTPUEmbeddingActivations" op_name="while/RecvTPUEmbeddingActivations"}
}

%fused_computation.364.clone.clone (param_0.2094: u32[128]) -> f32[128,8] {
  %param_0.2094 = u32[128]{0:T(256)} parameter(0)
  %broadcast.2596 = u32[128,8]{0,1:T(8,128)} broadcast(u32[128]{0:T(256)} %param_0.2094), dimensions={0}, sharding={maximal device=0}, metadata={op_type="_RecvTPUEmbeddingActivations" op_name="while/RecvTPUEmbeddingActivations"}
  %iota.611 = u32[128,8]{0,1:T(8,128)} iota(), iota_dimension=1, sharding={maximal device=0}, metadata={op_type="_RecvTPUEmbeddingActivations" op_name="while/RecvTPUEmbeddingActivations"}
  %compare.709 = pred[128,8]{0,1:T(8,128)(4,1)} compare(u32[128,8]{0,1:T(8,128)} %broadcast.2596, u32[128,8]{0,1:T(8,128)} %iota.611), direction=EQ, sharding={maximal device=0}, metadata={op_type="_RecvTPUEmbeddingActivations" op_name="while/RecvTPUEmbeddingActivations"}
  %constant.2254 = f32[]{:T(256)} constant(1), sharding={maximal device=0}, metadata={op_type="_RecvTPUEmbeddingActivations" op_name="while/RecvTPUEmbeddingActivations"}
  %broadcast.2595 = f32[128,8]{0,1:T(8,128)} broadcast(f32[]{:T(256)} %constant.2254), dimensions={}, sharding={maximal device=0}, metadata={op_type="_RecvTPUEmbeddingActivations" op_name="while/RecvTPUEmbeddingActivations"}
  %constant.2253 = f32[]{:T(256)} constant(0), metadata={op_type="Select" op_name="while/training/gradients/while/Select_grad/Select_1"}
  %broadcast.2594 = f32[128,8]{0,1:T(8,128)} broadcast(f32[]{:T(256)} %constant.2253), dimensions={}, sharding={maximal device=0}, metadata={op_type="_RecvTPUEmbeddingActivations" op_name="while/RecvTPUEmbeddingActivations"}
  ROOT %select.592 = f32[128,8]{0,1:T(8,128)} select(pred[128,8]{0,1:T(8,128)(4,1)} %compare.709, f32[128,8]{0,1:T(8,128)} %broadcast.2595, f32[128,8]{0,1:T(8,128)} %broadcast.2594), sharding={maximal device=0}, metadata={op_type="_RecvTPUEmbeddingActivations" op_name="while/RecvTPUEmbeddingActivations"}
}

%fused_computation.134.clone.clone.clone (param_0.2095: f32[128], param_1.1508: f32[136,768], param_2.1392: u32[128]) -> f32[128,128] {
  %param_2.1392 = u32[128]{0:T(256)} parameter(2)
  %fusion.1207 = f32[128,8]{0,1:T(8,128)} fusion(u32[128]{0:T(256)} %param_2.1392), kind=kLoop, calls=%fused_computation.364.clone.clone, metadata={op_type="_RecvTPUEmbeddingActivations" op_name="while/RecvTPUEmbeddingActivations"}
  %param_1.1508 = f32[136,768]{1,0:T(8,128)} parameter(1)
  %fusion.1206 = f32[8,128]{1,0:T(8,128)} fusion(f32[136,768]{1,0:T(8,128)} %param_1.1508), kind=kLoop, calls=%fused_computation.311.clone.clone, metadata={op_type="_RecvTPUEmbeddingActivations" op_name="while/RecvTPUEmbeddingActivations"}
  %convolution.339 = f32[128,128]{1,0:T(8,128)} convolution(f32[128,8]{0,1:T(8,128)} %fusion.1207, f32[8,128]{1,0:T(8,128)} %fusion.1206), dim_labels=bf_io->bf, sharding={maximal device=0}, metadata={op_type="_RecvTPUEmbeddingActivations" op_name="while/RecvTPUEmbeddingActivations"}
  %param_0.2095 = f32[128]{0:T(256)} parameter(0)
  %broadcast.2597 = f32[128,128]{1,0:T(8,128)} broadcast(f32[128]{0:T(256)} %param_0.2095), dimensions={0}, sharding={maximal device=0}, metadata={op_type="_RecvTPUEmbeddingActivations" op_name="while/RecvTPUEmbeddingActivations"}
  ROOT %multiply.407 = f32[128,128]{1,0:T(8,128)} multiply(f32[128,128]{1,0:T(8,128)} %convolution.339, f32[128,128]{1,0:T(8,128)} %broadcast.2597), sharding={maximal device=0}, metadata={op_type="_RecvTPUEmbeddingActivations" op_name="while/RecvTPUEmbeddingActivations"}
}

%fused_computation.187.clone (param_0.2096: u32[128]) -> f32[128,128] {
  %param_0.2096 = u32[128]{0:T(256)} parameter(0)
  %broadcast.2600 = u32[128,128]{1,0:T(8,128)} broadcast(u32[128]{0:T(256)} %param_0.2096), dimensions={0}, sharding={maximal device=0}, metadata={op_type="_RecvTPUEmbeddingActivations" op_name="while/RecvTPUEmbeddingActivations"}
  %iota.612 = u32[128,128]{1,0:T(8,128)} iota(), iota_dimension=1, sharding={maximal device=0}, metadata={op_type="_RecvTPUEmbeddingActivations" op_name="while/RecvTPUEmbeddingActivations"}
  %compare.710 = pred[128,128]{1,0:T(8,128)(4,1)} compare(u32[128,128]{1,0:T(8,128)} %broadcast.2600, u32[128,128]{1,0:T(8,128)} %iota.612), direction=EQ, sharding={maximal device=0}, metadata={op_type="_RecvTPUEmbeddingActivations" op_name="while/RecvTPUEmbeddingActivations"}
  %constant.2256 = f32[]{:T(256)} constant(1), sharding={maximal device=0}, metadata={op_type="_RecvTPUEmbeddingActivations" op_name="while/RecvTPUEmbeddingActivations"}
  %broadcast.2599 = f32[128,128]{1,0:T(8,128)} broadcast(f32[]{:T(256)} %constant.2256), dimensions={}, sharding={maximal device=0}, metadata={op_type="_RecvTPUEmbeddingActivations" op_name="while/RecvTPUEmbeddingActivations"}
  %constant.2255 = f32[]{:T(256)} constant(0), metadata={op_type="Select" op_name="while/training/gradients/while/Select_grad/Select_1"}
  %broadcast.2598 = f32[128,128]{1,0:T(8,128)} broadcast(f32[]{:T(256)} %constant.2255), dimensions={}, metadata={op_name="while/bottom_mlp_layer_2/Relu"}
  ROOT %select.593 = f32[128,128]{1,0:T(8,128)} select(pred[128,128]{1,0:T(8,128)(4,1)} %compare.710, f32[128,128]{1,0:T(8,128)} %broadcast.2599, f32[128,128]{1,0:T(8,128)} %broadcast.2598), sharding={maximal device=0}, metadata={op_type="_RecvTPUEmbeddingActivations" op_name="while/RecvTPUEmbeddingActivations"}
}

%fused_computation.95.clone (param_0.2097: f32[136,768], param_1.1509: f32[128], param_2.1393: u32[128], param_3.850: u32[128]) -> bf16[128,1,128] {
  %param_0.2097 = f32[136,768]{1,0:T(8,128)} parameter(0)
  %slice.781 = f32[128,128]{1,0:T(8,128)} slice(f32[136,768]{1,0:T(8,128)} %param_0.2097), slice={[0:128], [0:128]}, sharding={maximal device=0}, metadata={op_type="_RecvTPUEmbeddingActivations" op_name="while/RecvTPUEmbeddingActivations"}
  %param_2.1393 = u32[128]{0:T(256)} parameter(2)
  %fusion.1209 = f32[128,128]{1,0:T(8,128)} fusion(u32[128]{0:T(256)} %param_2.1393), kind=kLoop, calls=%fused_computation.187.clone, metadata={op_type="_RecvTPUEmbeddingActivations" op_name="while/RecvTPUEmbeddingActivations"}
  %param_1.1509 = f32[128]{0:T(256)} parameter(1)
  %param_3.850 = u32[128]{0:T(256)} parameter(3)
  %fusion.1208 = f32[128,128]{1,0:T(8,128)} fusion(f32[128]{0:T(256)} %param_1.1509, f32[136,768]{1,0:T(8,128)} %param_0.2097, u32[128]{0:T(256)} %param_3.850), kind=kOutput, calls=%fused_computation.134.clone.clone.clone, sharding={maximal device=0}, metadata={op_type="_RecvTPUEmbeddingActivations" op_name="while/RecvTPUEmbeddingActivations"}
  %convolution.340 = f32[128,128]{1,0:T(8,128)} convolution(f32[128,128]{1,0:T(8,128)} %fusion.1209, f32[128,128]{1,0:T(8,128)} %fusion.1208), dim_labels=fb_io->bf, sharding={maximal device=0}, metadata={op_type="_RecvTPUEmbeddingActivations" op_name="while/RecvTPUEmbeddingActivations"}
  %add.438 = bf16[128,128]{1,0:T(8,128)(2,1)} add(f32[128,128]{1,0:T(8,128)} %slice.781, f32[128,128]{1,0:T(8,128)} %convolution.340), sharding={maximal device=0}, metadata={op_type="_RecvTPUEmbeddingActivations" op_name="while/RecvTPUEmbeddingActivations"}
  ROOT %bitcast.91 = bf16[128,1,128]{2,0,1:T(8,128)(2,1)} bitcast(bf16[128,128]{1,0:T(8,128)(2,1)} %add.438), metadata={op_type="ConcatV2" op_name="while/concat"}
}

%fused_computation.310.clone.clone (param_0.2098: f32[136,896]) -> f32[8,128] {
  %param_0.2098 = f32[136,896]{1,0:T(8,128)} parameter(0)
  ROOT %slice.782 = f32[8,128]{1,0:T(8,128)} slice(f32[136,896]{1,0:T(8,128)} %param_0.2098), slice={[128:136], [0:128]}, sharding={maximal device=0}, metadata={op_type="_RecvTPUEmbeddingActivations" op_name="while/RecvTPUEmbeddingActivations"}
}

%fused_computation.362.clone.clone (param_0.2099: u32[128]) -> f32[128,8] {
  %param_0.2099 = u32[128]{0:T(256)} parameter(0)
  %broadcast.2603 = u32[128,8]{0,1:T(8,128)} broadcast(u32[128]{0:T(256)} %param_0.2099), dimensions={0}, sharding={maximal device=0}, metadata={op_type="_RecvTPUEmbeddingActivations" op_name="while/RecvTPUEmbeddingActivations"}
  %iota.613 = u32[128,8]{0,1:T(8,128)} iota(), iota_dimension=1, sharding={maximal device=0}, metadata={op_type="_RecvTPUEmbeddingActivations" op_name="while/RecvTPUEmbeddingActivations"}
  %compare.711 = pred[128,8]{0,1:T(8,128)(4,1)} compare(u32[128,8]{0,1:T(8,128)} %broadcast.2603, u32[128,8]{0,1:T(8,128)} %iota.613), direction=EQ, sharding={maximal device=0}, metadata={op_type="_RecvTPUEmbeddingActivations" op_name="while/RecvTPUEmbeddingActivations"}
  %constant.2258 = f32[]{:T(256)} constant(1), sharding={maximal device=0}, metadata={op_type="_RecvTPUEmbeddingActivations" op_name="while/RecvTPUEmbeddingActivations"}
  %broadcast.2602 = f32[128,8]{0,1:T(8,128)} broadcast(f32[]{:T(256)} %constant.2258), dimensions={}, sharding={maximal device=0}, metadata={op_type="_RecvTPUEmbeddingActivations" op_name="while/RecvTPUEmbeddingActivations"}
  %constant.2257 = f32[]{:T(256)} constant(0), metadata={op_type="Select" op_name="while/training/gradients/while/Select_grad/Select_1"}
  %broadcast.2601 = f32[128,8]{0,1:T(8,128)} broadcast(f32[]{:T(256)} %constant.2257), dimensions={}, sharding={maximal device=0}, metadata={op_type="_RecvTPUEmbeddingActivations" op_name="while/RecvTPUEmbeddingActivations"}
  ROOT %select.594 = f32[128,8]{0,1:T(8,128)} select(pred[128,8]{0,1:T(8,128)(4,1)} %compare.711, f32[128,8]{0,1:T(8,128)} %broadcast.2602, f32[128,8]{0,1:T(8,128)} %broadcast.2601), sharding={maximal device=0}, metadata={op_type="_RecvTPUEmbeddingActivations" op_name="while/RecvTPUEmbeddingActivations"}
}

%fused_computation.133.clone.clone.clone (param_0.2100: f32[128], param_1.1510: f32[136,896], param_2.1394: u32[128]) -> f32[128,128] {
  %param_2.1394 = u32[128]{0:T(256)} parameter(2)
  %fusion.1212 = f32[128,8]{0,1:T(8,128)} fusion(u32[128]{0:T(256)} %param_2.1394), kind=kLoop, calls=%fused_computation.362.clone.clone, metadata={op_type="_RecvTPUEmbeddingActivations" op_name="while/RecvTPUEmbeddingActivations"}
  %param_1.1510 = f32[136,896]{1,0:T(8,128)} parameter(1)
  %fusion.1211 = f32[8,128]{1,0:T(8,128)} fusion(f32[136,896]{1,0:T(8,128)} %param_1.1510), kind=kLoop, calls=%fused_computation.310.clone.clone, metadata={op_type="_RecvTPUEmbeddingActivations" op_name="while/RecvTPUEmbeddingActivations"}
  %convolution.341 = f32[128,128]{1,0:T(8,128)} convolution(f32[128,8]{0,1:T(8,128)} %fusion.1212, f32[8,128]{1,0:T(8,128)} %fusion.1211), dim_labels=bf_io->bf, sharding={maximal device=0}, metadata={op_type="_RecvTPUEmbeddingActivations" op_name="while/RecvTPUEmbeddingActivations"}
  %param_0.2100 = f32[128]{0:T(256)} parameter(0)
  %broadcast.2604 = f32[128,128]{1,0:T(8,128)} broadcast(f32[128]{0:T(256)} %param_0.2100), dimensions={0}, sharding={maximal device=0}, metadata={op_type="_RecvTPUEmbeddingActivations" op_name="while/RecvTPUEmbeddingActivations"}
  ROOT %multiply.408 = f32[128,128]{1,0:T(8,128)} multiply(f32[128,128]{1,0:T(8,128)} %convolution.341, f32[128,128]{1,0:T(8,128)} %broadcast.2604), sharding={maximal device=0}, metadata={op_type="_RecvTPUEmbeddingActivations" op_name="while/RecvTPUEmbeddingActivations"}
}

%fused_computation.185.clone (param_0.2101: u32[128]) -> f32[128,128] {
  %param_0.2101 = u32[128]{0:T(256)} parameter(0)
  %broadcast.2607 = u32[128,128]{1,0:T(8,128)} broadcast(u32[128]{0:T(256)} %param_0.2101), dimensions={0}, sharding={maximal device=0}, metadata={op_type="_RecvTPUEmbeddingActivations" op_name="while/RecvTPUEmbeddingActivations"}
  %iota.614 = u32[128,128]{1,0:T(8,128)} iota(), iota_dimension=1, sharding={maximal device=0}, metadata={op_type="_RecvTPUEmbeddingActivations" op_name="while/RecvTPUEmbeddingActivations"}
  %compare.712 = pred[128,128]{1,0:T(8,128)(4,1)} compare(u32[128,128]{1,0:T(8,128)} %broadcast.2607, u32[128,128]{1,0:T(8,128)} %iota.614), direction=EQ, sharding={maximal device=0}, metadata={op_type="_RecvTPUEmbeddingActivations" op_name="while/RecvTPUEmbeddingActivations"}
  %constant.2260 = f32[]{:T(256)} constant(1), sharding={maximal device=0}, metadata={op_type="_RecvTPUEmbeddingActivations" op_name="while/RecvTPUEmbeddingActivations"}
  %broadcast.2606 = f32[128,128]{1,0:T(8,128)} broadcast(f32[]{:T(256)} %constant.2260), dimensions={}, sharding={maximal device=0}, metadata={op_type="_RecvTPUEmbeddingActivations" op_name="while/RecvTPUEmbeddingActivations"}
  %constant.2259 = f32[]{:T(256)} constant(0), metadata={op_type="Select" op_name="while/training/gradients/while/Select_grad/Select_1"}
  %broadcast.2605 = f32[128,128]{1,0:T(8,128)} broadcast(f32[]{:T(256)} %constant.2259), dimensions={}, metadata={op_name="while/bottom_mlp_layer_2/Relu"}
  ROOT %select.595 = f32[128,128]{1,0:T(8,128)} select(pred[128,128]{1,0:T(8,128)(4,1)} %compare.712, f32[128,128]{1,0:T(8,128)} %broadcast.2606, f32[128,128]{1,0:T(8,128)} %broadcast.2605), sharding={maximal device=0}, metadata={op_type="_RecvTPUEmbeddingActivations" op_name="while/RecvTPUEmbeddingActivations"}
}

%fused_computation.93.clone (param_0.2102: f32[136,896], param_1.1511: f32[128], param_2.1395: u32[128], param_3.851: u32[128]) -> bf16[128,1,128] {
  %param_0.2102 = f32[136,896]{1,0:T(8,128)} parameter(0)
  %slice.783 = f32[128,128]{1,0:T(8,128)} slice(f32[136,896]{1,0:T(8,128)} %param_0.2102), slice={[0:128], [0:128]}, sharding={maximal device=0}, metadata={op_type="_RecvTPUEmbeddingActivations" op_name="while/RecvTPUEmbeddingActivations"}
  %param_2.1395 = u32[128]{0:T(256)} parameter(2)
  %fusion.1214 = f32[128,128]{1,0:T(8,128)} fusion(u32[128]{0:T(256)} %param_2.1395), kind=kLoop, calls=%fused_computation.185.clone, metadata={op_type="_RecvTPUEmbeddingActivations" op_name="while/RecvTPUEmbeddingActivations"}
  %param_1.1511 = f32[128]{0:T(256)} parameter(1)
  %param_3.851 = u32[128]{0:T(256)} parameter(3)
  %fusion.1213 = f32[128,128]{1,0:T(8,128)} fusion(f32[128]{0:T(256)} %param_1.1511, f32[136,896]{1,0:T(8,128)} %param_0.2102, u32[128]{0:T(256)} %param_3.851), kind=kOutput, calls=%fused_computation.133.clone.clone.clone, sharding={maximal device=0}, metadata={op_type="_RecvTPUEmbeddingActivations" op_name="while/RecvTPUEmbeddingActivations"}
  %convolution.342 = f32[128,128]{1,0:T(8,128)} convolution(f32[128,128]{1,0:T(8,128)} %fusion.1214, f32[128,128]{1,0:T(8,128)} %fusion.1213), dim_labels=fb_io->bf, sharding={maximal device=0}, metadata={op_type="_RecvTPUEmbeddingActivations" op_name="while/RecvTPUEmbeddingActivations"}
  %add.439 = bf16[128,128]{1,0:T(8,128)(2,1)} add(f32[128,128]{1,0:T(8,128)} %slice.783, f32[128,128]{1,0:T(8,128)} %convolution.342), sharding={maximal device=0}, metadata={op_type="_RecvTPUEmbeddingActivations" op_name="while/RecvTPUEmbeddingActivations"}
  ROOT %bitcast.92 = bf16[128,1,128]{2,0,1:T(8,128)(2,1)} bitcast(bf16[128,128]{1,0:T(8,128)(2,1)} %add.439), metadata={op_type="ConcatV2" op_name="while/concat"}
}

%fused_computation.309.clone.clone (param_0.2103: f32[136,896]) -> f32[8,128] {
  %param_0.2103 = f32[136,896]{1,0:T(8,128)} parameter(0)
  ROOT %slice.784 = f32[8,128]{1,0:T(8,128)} slice(f32[136,896]{1,0:T(8,128)} %param_0.2103), slice={[128:136], [128:256]}, sharding={maximal device=0}, metadata={op_type="_RecvTPUEmbeddingActivations" op_name="while/RecvTPUEmbeddingActivations"}
}

%fused_computation.360.clone.clone (param_0.2104: u32[128]) -> f32[128,8] {
  %param_0.2104 = u32[128]{0:T(256)} parameter(0)
  %broadcast.2610 = u32[128,8]{0,1:T(8,128)} broadcast(u32[128]{0:T(256)} %param_0.2104), dimensions={0}, sharding={maximal device=0}, metadata={op_type="_RecvTPUEmbeddingActivations" op_name="while/RecvTPUEmbeddingActivations"}
  %iota.615 = u32[128,8]{0,1:T(8,128)} iota(), iota_dimension=1, sharding={maximal device=0}, metadata={op_type="_RecvTPUEmbeddingActivations" op_name="while/RecvTPUEmbeddingActivations"}
  %compare.713 = pred[128,8]{0,1:T(8,128)(4,1)} compare(u32[128,8]{0,1:T(8,128)} %broadcast.2610, u32[128,8]{0,1:T(8,128)} %iota.615), direction=EQ, sharding={maximal device=0}, metadata={op_type="_RecvTPUEmbeddingActivations" op_name="while/RecvTPUEmbeddingActivations"}
  %constant.2262 = f32[]{:T(256)} constant(1), sharding={maximal device=0}, metadata={op_type="_RecvTPUEmbeddingActivations" op_name="while/RecvTPUEmbeddingActivations"}
  %broadcast.2609 = f32[128,8]{0,1:T(8,128)} broadcast(f32[]{:T(256)} %constant.2262), dimensions={}, sharding={maximal device=0}, metadata={op_type="_RecvTPUEmbeddingActivations" op_name="while/RecvTPUEmbeddingActivations"}
  %constant.2261 = f32[]{:T(256)} constant(0), metadata={op_type="Select" op_name="while/training/gradients/while/Select_grad/Select_1"}
  %broadcast.2608 = f32[128,8]{0,1:T(8,128)} broadcast(f32[]{:T(256)} %constant.2261), dimensions={}, sharding={maximal device=0}, metadata={op_type="_RecvTPUEmbeddingActivations" op_name="while/RecvTPUEmbeddingActivations"}
  ROOT %select.596 = f32[128,8]{0,1:T(8,128)} select(pred[128,8]{0,1:T(8,128)(4,1)} %compare.713, f32[128,8]{0,1:T(8,128)} %broadcast.2609, f32[128,8]{0,1:T(8,128)} %broadcast.2608), sharding={maximal device=0}, metadata={op_type="_RecvTPUEmbeddingActivations" op_name="while/RecvTPUEmbeddingActivations"}
}

%fused_computation.132.clone.clone.clone (param_0.2105: f32[128], param_1.1512: f32[136,896], param_2.1396: u32[128]) -> f32[128,128] {
  %param_2.1396 = u32[128]{0:T(256)} parameter(2)
  %fusion.1217 = f32[128,8]{0,1:T(8,128)} fusion(u32[128]{0:T(256)} %param_2.1396), kind=kLoop, calls=%fused_computation.360.clone.clone, metadata={op_type="_RecvTPUEmbeddingActivations" op_name="while/RecvTPUEmbeddingActivations"}
  %param_1.1512 = f32[136,896]{1,0:T(8,128)} parameter(1)
  %fusion.1216 = f32[8,128]{1,0:T(8,128)} fusion(f32[136,896]{1,0:T(8,128)} %param_1.1512), kind=kLoop, calls=%fused_computation.309.clone.clone, metadata={op_type="_RecvTPUEmbeddingActivations" op_name="while/RecvTPUEmbeddingActivations"}
  %convolution.343 = f32[128,128]{1,0:T(8,128)} convolution(f32[128,8]{0,1:T(8,128)} %fusion.1217, f32[8,128]{1,0:T(8,128)} %fusion.1216), dim_labels=bf_io->bf, sharding={maximal device=0}, metadata={op_type="_RecvTPUEmbeddingActivations" op_name="while/RecvTPUEmbeddingActivations"}
  %param_0.2105 = f32[128]{0:T(256)} parameter(0)
  %broadcast.2611 = f32[128,128]{1,0:T(8,128)} broadcast(f32[128]{0:T(256)} %param_0.2105), dimensions={0}, sharding={maximal device=0}, metadata={op_type="_RecvTPUEmbeddingActivations" op_name="while/RecvTPUEmbeddingActivations"}
  ROOT %multiply.409 = f32[128,128]{1,0:T(8,128)} multiply(f32[128,128]{1,0:T(8,128)} %convolution.343, f32[128,128]{1,0:T(8,128)} %broadcast.2611), sharding={maximal device=0}, metadata={op_type="_RecvTPUEmbeddingActivations" op_name="while/RecvTPUEmbeddingActivations"}
}

%fused_computation.183.clone (param_0.2106: u32[128]) -> f32[128,128] {
  %param_0.2106 = u32[128]{0:T(256)} parameter(0)
  %broadcast.2614 = u32[128,128]{1,0:T(8,128)} broadcast(u32[128]{0:T(256)} %param_0.2106), dimensions={0}, sharding={maximal device=0}, metadata={op_type="_RecvTPUEmbeddingActivations" op_name="while/RecvTPUEmbeddingActivations"}
  %iota.616 = u32[128,128]{1,0:T(8,128)} iota(), iota_dimension=1, sharding={maximal device=0}, metadata={op_type="_RecvTPUEmbeddingActivations" op_name="while/RecvTPUEmbeddingActivations"}
  %compare.714 = pred[128,128]{1,0:T(8,128)(4,1)} compare(u32[128,128]{1,0:T(8,128)} %broadcast.2614, u32[128,128]{1,0:T(8,128)} %iota.616), direction=EQ, sharding={maximal device=0}, metadata={op_type="_RecvTPUEmbeddingActivations" op_name="while/RecvTPUEmbeddingActivations"}
  %constant.2264 = f32[]{:T(256)} constant(1), sharding={maximal device=0}, metadata={op_type="_RecvTPUEmbeddingActivations" op_name="while/RecvTPUEmbeddingActivations"}
  %broadcast.2613 = f32[128,128]{1,0:T(8,128)} broadcast(f32[]{:T(256)} %constant.2264), dimensions={}, sharding={maximal device=0}, metadata={op_type="_RecvTPUEmbeddingActivations" op_name="while/RecvTPUEmbeddingActivations"}
  %constant.2263 = f32[]{:T(256)} constant(0), metadata={op_type="Select" op_name="while/training/gradients/while/Select_grad/Select_1"}
  %broadcast.2612 = f32[128,128]{1,0:T(8,128)} broadcast(f32[]{:T(256)} %constant.2263), dimensions={}, metadata={op_name="while/bottom_mlp_layer_2/Relu"}
  ROOT %select.597 = f32[128,128]{1,0:T(8,128)} select(pred[128,128]{1,0:T(8,128)(4,1)} %compare.714, f32[128,128]{1,0:T(8,128)} %broadcast.2613, f32[128,128]{1,0:T(8,128)} %broadcast.2612), sharding={maximal device=0}, metadata={op_type="_RecvTPUEmbeddingActivations" op_name="while/RecvTPUEmbeddingActivations"}
}

%fused_computation.91.clone (param_0.2107: f32[136,896], param_1.1513: f32[128], param_2.1397: u32[128], param_3.852: u32[128]) -> bf16[128,1,128] {
  %param_0.2107 = f32[136,896]{1,0:T(8,128)} parameter(0)
  %slice.785 = f32[128,128]{1,0:T(8,128)} slice(f32[136,896]{1,0:T(8,128)} %param_0.2107), slice={[0:128], [128:256]}, sharding={maximal device=0}, metadata={op_type="_RecvTPUEmbeddingActivations" op_name="while/RecvTPUEmbeddingActivations"}
  %param_2.1397 = u32[128]{0:T(256)} parameter(2)
  %fusion.1219 = f32[128,128]{1,0:T(8,128)} fusion(u32[128]{0:T(256)} %param_2.1397), kind=kLoop, calls=%fused_computation.183.clone, metadata={op_type="_RecvTPUEmbeddingActivations" op_name="while/RecvTPUEmbeddingActivations"}
  %param_1.1513 = f32[128]{0:T(256)} parameter(1)
  %param_3.852 = u32[128]{0:T(256)} parameter(3)
  %fusion.1218 = f32[128,128]{1,0:T(8,128)} fusion(f32[128]{0:T(256)} %param_1.1513, f32[136,896]{1,0:T(8,128)} %param_0.2107, u32[128]{0:T(256)} %param_3.852), kind=kOutput, calls=%fused_computation.132.clone.clone.clone, sharding={maximal device=0}, metadata={op_type="_RecvTPUEmbeddingActivations" op_name="while/RecvTPUEmbeddingActivations"}
  %convolution.344 = f32[128,128]{1,0:T(8,128)} convolution(f32[128,128]{1,0:T(8,128)} %fusion.1219, f32[128,128]{1,0:T(8,128)} %fusion.1218), dim_labels=fb_io->bf, sharding={maximal device=0}, metadata={op_type="_RecvTPUEmbeddingActivations" op_name="while/RecvTPUEmbeddingActivations"}
  %add.440 = bf16[128,128]{1,0:T(8,128)(2,1)} add(f32[128,128]{1,0:T(8,128)} %slice.785, f32[128,128]{1,0:T(8,128)} %convolution.344), sharding={maximal device=0}, metadata={op_type="_RecvTPUEmbeddingActivations" op_name="while/RecvTPUEmbeddingActivations"}
  ROOT %bitcast.93 = bf16[128,1,128]{2,0,1:T(8,128)(2,1)} bitcast(bf16[128,128]{1,0:T(8,128)(2,1)} %add.440), metadata={op_type="ConcatV2" op_name="while/concat"}
}

%fused_computation.308.clone.clone (param_0.2108: f32[136,768]) -> f32[8,128] {
  %param_0.2108 = f32[136,768]{1,0:T(8,128)} parameter(0)
  ROOT %slice.786 = f32[8,128]{1,0:T(8,128)} slice(f32[136,768]{1,0:T(8,128)} %param_0.2108), slice={[128:136], [128:256]}, sharding={maximal device=0}, metadata={op_type="_RecvTPUEmbeddingActivations" op_name="while/RecvTPUEmbeddingActivations"}
}

%fused_computation.358.clone.clone (param_0.2109: u32[128]) -> f32[128,8] {
  %param_0.2109 = u32[128]{0:T(256)} parameter(0)
  %broadcast.2617 = u32[128,8]{0,1:T(8,128)} broadcast(u32[128]{0:T(256)} %param_0.2109), dimensions={0}, sharding={maximal device=0}, metadata={op_type="_RecvTPUEmbeddingActivations" op_name="while/RecvTPUEmbeddingActivations"}
  %iota.617 = u32[128,8]{0,1:T(8,128)} iota(), iota_dimension=1, sharding={maximal device=0}, metadata={op_type="_RecvTPUEmbeddingActivations" op_name="while/RecvTPUEmbeddingActivations"}
  %compare.715 = pred[128,8]{0,1:T(8,128)(4,1)} compare(u32[128,8]{0,1:T(8,128)} %broadcast.2617, u32[128,8]{0,1:T(8,128)} %iota.617), direction=EQ, sharding={maximal device=0}, metadata={op_type="_RecvTPUEmbeddingActivations" op_name="while/RecvTPUEmbeddingActivations"}
  %constant.2266 = f32[]{:T(256)} constant(1), sharding={maximal device=0}, metadata={op_type="_RecvTPUEmbeddingActivations" op_name="while/RecvTPUEmbeddingActivations"}
  %broadcast.2616 = f32[128,8]{0,1:T(8,128)} broadcast(f32[]{:T(256)} %constant.2266), dimensions={}, sharding={maximal device=0}, metadata={op_type="_RecvTPUEmbeddingActivations" op_name="while/RecvTPUEmbeddingActivations"}
  %constant.2265 = f32[]{:T(256)} constant(0), metadata={op_type="Select" op_name="while/training/gradients/while/Select_grad/Select_1"}
  %broadcast.2615 = f32[128,8]{0,1:T(8,128)} broadcast(f32[]{:T(256)} %constant.2265), dimensions={}, sharding={maximal device=0}, metadata={op_type="_RecvTPUEmbeddingActivations" op_name="while/RecvTPUEmbeddingActivations"}
  ROOT %select.598 = f32[128,8]{0,1:T(8,128)} select(pred[128,8]{0,1:T(8,128)(4,1)} %compare.715, f32[128,8]{0,1:T(8,128)} %broadcast.2616, f32[128,8]{0,1:T(8,128)} %broadcast.2615), sharding={maximal device=0}, metadata={op_type="_RecvTPUEmbeddingActivations" op_name="while/RecvTPUEmbeddingActivations"}
}

%fused_computation.131.clone.clone.clone (param_0.2110: f32[128], param_1.1514: f32[136,768], param_2.1398: u32[128]) -> f32[128,128] {
  %param_2.1398 = u32[128]{0:T(256)} parameter(2)
  %fusion.1222 = f32[128,8]{0,1:T(8,128)} fusion(u32[128]{0:T(256)} %param_2.1398), kind=kLoop, calls=%fused_computation.358.clone.clone, metadata={op_type="_RecvTPUEmbeddingActivations" op_name="while/RecvTPUEmbeddingActivations"}
  %param_1.1514 = f32[136,768]{1,0:T(8,128)} parameter(1)
  %fusion.1221 = f32[8,128]{1,0:T(8,128)} fusion(f32[136,768]{1,0:T(8,128)} %param_1.1514), kind=kLoop, calls=%fused_computation.308.clone.clone, metadata={op_type="_RecvTPUEmbeddingActivations" op_name="while/RecvTPUEmbeddingActivations"}
  %convolution.345 = f32[128,128]{1,0:T(8,128)} convolution(f32[128,8]{0,1:T(8,128)} %fusion.1222, f32[8,128]{1,0:T(8,128)} %fusion.1221), dim_labels=bf_io->bf, sharding={maximal device=0}, metadata={op_type="_RecvTPUEmbeddingActivations" op_name="while/RecvTPUEmbeddingActivations"}
  %param_0.2110 = f32[128]{0:T(256)} parameter(0)
  %broadcast.2618 = f32[128,128]{1,0:T(8,128)} broadcast(f32[128]{0:T(256)} %param_0.2110), dimensions={0}, sharding={maximal device=0}, metadata={op_type="_RecvTPUEmbeddingActivations" op_name="while/RecvTPUEmbeddingActivations"}
  ROOT %multiply.410 = f32[128,128]{1,0:T(8,128)} multiply(f32[128,128]{1,0:T(8,128)} %convolution.345, f32[128,128]{1,0:T(8,128)} %broadcast.2618), sharding={maximal device=0}, metadata={op_type="_RecvTPUEmbeddingActivations" op_name="while/RecvTPUEmbeddingActivations"}
}

%fused_computation.181.clone (param_0.2111: u32[128]) -> f32[128,128] {
  %param_0.2111 = u32[128]{0:T(256)} parameter(0)
  %broadcast.2621 = u32[128,128]{1,0:T(8,128)} broadcast(u32[128]{0:T(256)} %param_0.2111), dimensions={0}, sharding={maximal device=0}, metadata={op_type="_RecvTPUEmbeddingActivations" op_name="while/RecvTPUEmbeddingActivations"}
  %iota.618 = u32[128,128]{1,0:T(8,128)} iota(), iota_dimension=1, sharding={maximal device=0}, metadata={op_type="_RecvTPUEmbeddingActivations" op_name="while/RecvTPUEmbeddingActivations"}
  %compare.716 = pred[128,128]{1,0:T(8,128)(4,1)} compare(u32[128,128]{1,0:T(8,128)} %broadcast.2621, u32[128,128]{1,0:T(8,128)} %iota.618), direction=EQ, sharding={maximal device=0}, metadata={op_type="_RecvTPUEmbeddingActivations" op_name="while/RecvTPUEmbeddingActivations"}
  %constant.2268 = f32[]{:T(256)} constant(1), sharding={maximal device=0}, metadata={op_type="_RecvTPUEmbeddingActivations" op_name="while/RecvTPUEmbeddingActivations"}
  %broadcast.2620 = f32[128,128]{1,0:T(8,128)} broadcast(f32[]{:T(256)} %constant.2268), dimensions={}, sharding={maximal device=0}, metadata={op_type="_RecvTPUEmbeddingActivations" op_name="while/RecvTPUEmbeddingActivations"}
  %constant.2267 = f32[]{:T(256)} constant(0), metadata={op_type="Select" op_name="while/training/gradients/while/Select_grad/Select_1"}
  %broadcast.2619 = f32[128,128]{1,0:T(8,128)} broadcast(f32[]{:T(256)} %constant.2267), dimensions={}, metadata={op_name="while/bottom_mlp_layer_2/Relu"}
  ROOT %select.599 = f32[128,128]{1,0:T(8,128)} select(pred[128,128]{1,0:T(8,128)(4,1)} %compare.716, f32[128,128]{1,0:T(8,128)} %broadcast.2620, f32[128,128]{1,0:T(8,128)} %broadcast.2619), sharding={maximal device=0}, metadata={op_type="_RecvTPUEmbeddingActivations" op_name="while/RecvTPUEmbeddingActivations"}
}

%fused_computation.89.clone (param_0.2112: f32[136,768], param_1.1515: f32[128], param_2.1399: u32[128], param_3.853: u32[128]) -> bf16[128,1,128] {
  %param_0.2112 = f32[136,768]{1,0:T(8,128)} parameter(0)
  %slice.787 = f32[128,128]{1,0:T(8,128)} slice(f32[136,768]{1,0:T(8,128)} %param_0.2112), slice={[0:128], [128:256]}, sharding={maximal device=0}, metadata={op_type="_RecvTPUEmbeddingActivations" op_name="while/RecvTPUEmbeddingActivations"}
  %param_2.1399 = u32[128]{0:T(256)} parameter(2)
  %fusion.1224 = f32[128,128]{1,0:T(8,128)} fusion(u32[128]{0:T(256)} %param_2.1399), kind=kLoop, calls=%fused_computation.181.clone, metadata={op_type="_RecvTPUEmbeddingActivations" op_name="while/RecvTPUEmbeddingActivations"}
  %param_1.1515 = f32[128]{0:T(256)} parameter(1)
  %param_3.853 = u32[128]{0:T(256)} parameter(3)
  %fusion.1223 = f32[128,128]{1,0:T(8,128)} fusion(f32[128]{0:T(256)} %param_1.1515, f32[136,768]{1,0:T(8,128)} %param_0.2112, u32[128]{0:T(256)} %param_3.853), kind=kOutput, calls=%fused_computation.131.clone.clone.clone, sharding={maximal device=0}, metadata={op_type="_RecvTPUEmbeddingActivations" op_name="while/RecvTPUEmbeddingActivations"}
  %convolution.346 = f32[128,128]{1,0:T(8,128)} convolution(f32[128,128]{1,0:T(8,128)} %fusion.1224, f32[128,128]{1,0:T(8,128)} %fusion.1223), dim_labels=fb_io->bf, sharding={maximal device=0}, metadata={op_type="_RecvTPUEmbeddingActivations" op_name="while/RecvTPUEmbeddingActivations"}
  %add.441 = bf16[128,128]{1,0:T(8,128)(2,1)} add(f32[128,128]{1,0:T(8,128)} %slice.787, f32[128,128]{1,0:T(8,128)} %convolution.346), sharding={maximal device=0}, metadata={op_type="_RecvTPUEmbeddingActivations" op_name="while/RecvTPUEmbeddingActivations"}
  ROOT %bitcast.94 = bf16[128,1,128]{2,0,1:T(8,128)(2,1)} bitcast(bf16[128,128]{1,0:T(8,128)(2,1)} %add.441), metadata={op_type="ConcatV2" op_name="while/concat"}
}

%fused_computation.307.clone.clone (param_0.2113: f32[136,896]) -> f32[8,128] {
  %param_0.2113 = f32[136,896]{1,0:T(8,128)} parameter(0)
  ROOT %slice.788 = f32[8,128]{1,0:T(8,128)} slice(f32[136,896]{1,0:T(8,128)} %param_0.2113), slice={[128:136], [256:384]}, sharding={maximal device=0}, metadata={op_type="_RecvTPUEmbeddingActivations" op_name="while/RecvTPUEmbeddingActivations"}
}

%fused_computation.356.clone.clone (param_0.2114: u32[128]) -> f32[128,8] {
  %param_0.2114 = u32[128]{0:T(256)} parameter(0)
  %broadcast.2624 = u32[128,8]{0,1:T(8,128)} broadcast(u32[128]{0:T(256)} %param_0.2114), dimensions={0}, sharding={maximal device=0}, metadata={op_type="_RecvTPUEmbeddingActivations" op_name="while/RecvTPUEmbeddingActivations"}
  %iota.619 = u32[128,8]{0,1:T(8,128)} iota(), iota_dimension=1, sharding={maximal device=0}, metadata={op_type="_RecvTPUEmbeddingActivations" op_name="while/RecvTPUEmbeddingActivations"}
  %compare.717 = pred[128,8]{0,1:T(8,128)(4,1)} compare(u32[128,8]{0,1:T(8,128)} %broadcast.2624, u32[128,8]{0,1:T(8,128)} %iota.619), direction=EQ, sharding={maximal device=0}, metadata={op_type="_RecvTPUEmbeddingActivations" op_name="while/RecvTPUEmbeddingActivations"}
  %constant.2270 = f32[]{:T(256)} constant(1), sharding={maximal device=0}, metadata={op_type="_RecvTPUEmbeddingActivations" op_name="while/RecvTPUEmbeddingActivations"}
  %broadcast.2623 = f32[128,8]{0,1:T(8,128)} broadcast(f32[]{:T(256)} %constant.2270), dimensions={}, sharding={maximal device=0}, metadata={op_type="_RecvTPUEmbeddingActivations" op_name="while/RecvTPUEmbeddingActivations"}
  %constant.2269 = f32[]{:T(256)} constant(0), metadata={op_type="Select" op_name="while/training/gradients/while/Select_grad/Select_1"}
  %broadcast.2622 = f32[128,8]{0,1:T(8,128)} broadcast(f32[]{:T(256)} %constant.2269), dimensions={}, sharding={maximal device=0}, metadata={op_type="_RecvTPUEmbeddingActivations" op_name="while/RecvTPUEmbeddingActivations"}
  ROOT %select.600 = f32[128,8]{0,1:T(8,128)} select(pred[128,8]{0,1:T(8,128)(4,1)} %compare.717, f32[128,8]{0,1:T(8,128)} %broadcast.2623, f32[128,8]{0,1:T(8,128)} %broadcast.2622), sharding={maximal device=0}, metadata={op_type="_RecvTPUEmbeddingActivations" op_name="while/RecvTPUEmbeddingActivations"}
}

%fused_computation.130.clone.clone.clone (param_0.2115: f32[128], param_1.1516: f32[136,896], param_2.1400: u32[128]) -> f32[128,128] {
  %param_2.1400 = u32[128]{0:T(256)} parameter(2)
  %fusion.1227 = f32[128,8]{0,1:T(8,128)} fusion(u32[128]{0:T(256)} %param_2.1400), kind=kLoop, calls=%fused_computation.356.clone.clone, metadata={op_type="_RecvTPUEmbeddingActivations" op_name="while/RecvTPUEmbeddingActivations"}
  %param_1.1516 = f32[136,896]{1,0:T(8,128)} parameter(1)
  %fusion.1226 = f32[8,128]{1,0:T(8,128)} fusion(f32[136,896]{1,0:T(8,128)} %param_1.1516), kind=kLoop, calls=%fused_computation.307.clone.clone, metadata={op_type="_RecvTPUEmbeddingActivations" op_name="while/RecvTPUEmbeddingActivations"}
  %convolution.347 = f32[128,128]{1,0:T(8,128)} convolution(f32[128,8]{0,1:T(8,128)} %fusion.1227, f32[8,128]{1,0:T(8,128)} %fusion.1226), dim_labels=bf_io->bf, sharding={maximal device=0}, metadata={op_type="_RecvTPUEmbeddingActivations" op_name="while/RecvTPUEmbeddingActivations"}
  %param_0.2115 = f32[128]{0:T(256)} parameter(0)
  %broadcast.2625 = f32[128,128]{1,0:T(8,128)} broadcast(f32[128]{0:T(256)} %param_0.2115), dimensions={0}, sharding={maximal device=0}, metadata={op_type="_RecvTPUEmbeddingActivations" op_name="while/RecvTPUEmbeddingActivations"}
  ROOT %multiply.411 = f32[128,128]{1,0:T(8,128)} multiply(f32[128,128]{1,0:T(8,128)} %convolution.347, f32[128,128]{1,0:T(8,128)} %broadcast.2625), sharding={maximal device=0}, metadata={op_type="_RecvTPUEmbeddingActivations" op_name="while/RecvTPUEmbeddingActivations"}
}

%fused_computation.179.clone (param_0.2116: u32[128]) -> f32[128,128] {
  %param_0.2116 = u32[128]{0:T(256)} parameter(0)
  %broadcast.2628 = u32[128,128]{1,0:T(8,128)} broadcast(u32[128]{0:T(256)} %param_0.2116), dimensions={0}, sharding={maximal device=0}, metadata={op_type="_RecvTPUEmbeddingActivations" op_name="while/RecvTPUEmbeddingActivations"}
  %iota.620 = u32[128,128]{1,0:T(8,128)} iota(), iota_dimension=1, sharding={maximal device=0}, metadata={op_type="_RecvTPUEmbeddingActivations" op_name="while/RecvTPUEmbeddingActivations"}
  %compare.718 = pred[128,128]{1,0:T(8,128)(4,1)} compare(u32[128,128]{1,0:T(8,128)} %broadcast.2628, u32[128,128]{1,0:T(8,128)} %iota.620), direction=EQ, sharding={maximal device=0}, metadata={op_type="_RecvTPUEmbeddingActivations" op_name="while/RecvTPUEmbeddingActivations"}
  %constant.2272 = f32[]{:T(256)} constant(1), sharding={maximal device=0}, metadata={op_type="_RecvTPUEmbeddingActivations" op_name="while/RecvTPUEmbeddingActivations"}
  %broadcast.2627 = f32[128,128]{1,0:T(8,128)} broadcast(f32[]{:T(256)} %constant.2272), dimensions={}, sharding={maximal device=0}, metadata={op_type="_RecvTPUEmbeddingActivations" op_name="while/RecvTPUEmbeddingActivations"}
  %constant.2271 = f32[]{:T(256)} constant(0), metadata={op_type="Select" op_name="while/training/gradients/while/Select_grad/Select_1"}
  %broadcast.2626 = f32[128,128]{1,0:T(8,128)} broadcast(f32[]{:T(256)} %constant.2271), dimensions={}, metadata={op_name="while/bottom_mlp_layer_2/Relu"}
  ROOT %select.601 = f32[128,128]{1,0:T(8,128)} select(pred[128,128]{1,0:T(8,128)(4,1)} %compare.718, f32[128,128]{1,0:T(8,128)} %broadcast.2627, f32[128,128]{1,0:T(8,128)} %broadcast.2626), sharding={maximal device=0}, metadata={op_type="_RecvTPUEmbeddingActivations" op_name="while/RecvTPUEmbeddingActivations"}
}

%fused_computation.87.clone (param_0.2117: f32[136,896], param_1.1517: f32[128], param_2.1401: u32[128], param_3.854: u32[128]) -> bf16[128,1,128] {
  %param_0.2117 = f32[136,896]{1,0:T(8,128)} parameter(0)
  %slice.789 = f32[128,128]{1,0:T(8,128)} slice(f32[136,896]{1,0:T(8,128)} %param_0.2117), slice={[0:128], [256:384]}, sharding={maximal device=0}, metadata={op_type="_RecvTPUEmbeddingActivations" op_name="while/RecvTPUEmbeddingActivations"}
  %param_2.1401 = u32[128]{0:T(256)} parameter(2)
  %fusion.1229 = f32[128,128]{1,0:T(8,128)} fusion(u32[128]{0:T(256)} %param_2.1401), kind=kLoop, calls=%fused_computation.179.clone, metadata={op_type="_RecvTPUEmbeddingActivations" op_name="while/RecvTPUEmbeddingActivations"}
  %param_1.1517 = f32[128]{0:T(256)} parameter(1)
  %param_3.854 = u32[128]{0:T(256)} parameter(3)
  %fusion.1228 = f32[128,128]{1,0:T(8,128)} fusion(f32[128]{0:T(256)} %param_1.1517, f32[136,896]{1,0:T(8,128)} %param_0.2117, u32[128]{0:T(256)} %param_3.854), kind=kOutput, calls=%fused_computation.130.clone.clone.clone, sharding={maximal device=0}, metadata={op_type="_RecvTPUEmbeddingActivations" op_name="while/RecvTPUEmbeddingActivations"}
  %convolution.348 = f32[128,128]{1,0:T(8,128)} convolution(f32[128,128]{1,0:T(8,128)} %fusion.1229, f32[128,128]{1,0:T(8,128)} %fusion.1228), dim_labels=fb_io->bf, sharding={maximal device=0}, metadata={op_type="_RecvTPUEmbeddingActivations" op_name="while/RecvTPUEmbeddingActivations"}
  %add.442 = bf16[128,128]{1,0:T(8,128)(2,1)} add(f32[128,128]{1,0:T(8,128)} %slice.789, f32[128,128]{1,0:T(8,128)} %convolution.348), sharding={maximal device=0}, metadata={op_type="_RecvTPUEmbeddingActivations" op_name="while/RecvTPUEmbeddingActivations"}
  ROOT %bitcast.95 = bf16[128,1,128]{2,0,1:T(8,128)(2,1)} bitcast(bf16[128,128]{1,0:T(8,128)(2,1)} %add.442), metadata={op_type="ConcatV2" op_name="while/concat"}
}

%fused_computation.306.clone.clone (param_0.2118: f32[136,768]) -> f32[8,128] {
  %param_0.2118 = f32[136,768]{1,0:T(8,128)} parameter(0)
  ROOT %slice.790 = f32[8,128]{1,0:T(8,128)} slice(f32[136,768]{1,0:T(8,128)} %param_0.2118), slice={[128:136], [256:384]}, sharding={maximal device=0}, metadata={op_type="_RecvTPUEmbeddingActivations" op_name="while/RecvTPUEmbeddingActivations"}
}

%fused_computation.354.clone.clone (param_0.2119: u32[128]) -> f32[128,8] {
  %param_0.2119 = u32[128]{0:T(256)} parameter(0)
  %broadcast.2631 = u32[128,8]{0,1:T(8,128)} broadcast(u32[128]{0:T(256)} %param_0.2119), dimensions={0}, sharding={maximal device=0}, metadata={op_type="_RecvTPUEmbeddingActivations" op_name="while/RecvTPUEmbeddingActivations"}
  %iota.621 = u32[128,8]{0,1:T(8,128)} iota(), iota_dimension=1, sharding={maximal device=0}, metadata={op_type="_RecvTPUEmbeddingActivations" op_name="while/RecvTPUEmbeddingActivations"}
  %compare.719 = pred[128,8]{0,1:T(8,128)(4,1)} compare(u32[128,8]{0,1:T(8,128)} %broadcast.2631, u32[128,8]{0,1:T(8,128)} %iota.621), direction=EQ, sharding={maximal device=0}, metadata={op_type="_RecvTPUEmbeddingActivations" op_name="while/RecvTPUEmbeddingActivations"}
  %constant.2274 = f32[]{:T(256)} constant(1), sharding={maximal device=0}, metadata={op_type="_RecvTPUEmbeddingActivations" op_name="while/RecvTPUEmbeddingActivations"}
  %broadcast.2630 = f32[128,8]{0,1:T(8,128)} broadcast(f32[]{:T(256)} %constant.2274), dimensions={}, sharding={maximal device=0}, metadata={op_type="_RecvTPUEmbeddingActivations" op_name="while/RecvTPUEmbeddingActivations"}
  %constant.2273 = f32[]{:T(256)} constant(0), metadata={op_type="Select" op_name="while/training/gradients/while/Select_grad/Select_1"}
  %broadcast.2629 = f32[128,8]{0,1:T(8,128)} broadcast(f32[]{:T(256)} %constant.2273), dimensions={}, sharding={maximal device=0}, metadata={op_type="_RecvTPUEmbeddingActivations" op_name="while/RecvTPUEmbeddingActivations"}
  ROOT %select.602 = f32[128,8]{0,1:T(8,128)} select(pred[128,8]{0,1:T(8,128)(4,1)} %compare.719, f32[128,8]{0,1:T(8,128)} %broadcast.2630, f32[128,8]{0,1:T(8,128)} %broadcast.2629), sharding={maximal device=0}, metadata={op_type="_RecvTPUEmbeddingActivations" op_name="while/RecvTPUEmbeddingActivations"}
}

%fused_computation.129.clone.clone.clone (param_0.2120: f32[128], param_1.1518: f32[136,768], param_2.1402: u32[128]) -> f32[128,128] {
  %param_2.1402 = u32[128]{0:T(256)} parameter(2)
  %fusion.1232 = f32[128,8]{0,1:T(8,128)} fusion(u32[128]{0:T(256)} %param_2.1402), kind=kLoop, calls=%fused_computation.354.clone.clone, metadata={op_type="_RecvTPUEmbeddingActivations" op_name="while/RecvTPUEmbeddingActivations"}
  %param_1.1518 = f32[136,768]{1,0:T(8,128)} parameter(1)
  %fusion.1231 = f32[8,128]{1,0:T(8,128)} fusion(f32[136,768]{1,0:T(8,128)} %param_1.1518), kind=kLoop, calls=%fused_computation.306.clone.clone, metadata={op_type="_RecvTPUEmbeddingActivations" op_name="while/RecvTPUEmbeddingActivations"}
  %convolution.349 = f32[128,128]{1,0:T(8,128)} convolution(f32[128,8]{0,1:T(8,128)} %fusion.1232, f32[8,128]{1,0:T(8,128)} %fusion.1231), dim_labels=bf_io->bf, sharding={maximal device=0}, metadata={op_type="_RecvTPUEmbeddingActivations" op_name="while/RecvTPUEmbeddingActivations"}
  %param_0.2120 = f32[128]{0:T(256)} parameter(0)
  %broadcast.2632 = f32[128,128]{1,0:T(8,128)} broadcast(f32[128]{0:T(256)} %param_0.2120), dimensions={0}, sharding={maximal device=0}, metadata={op_type="_RecvTPUEmbeddingActivations" op_name="while/RecvTPUEmbeddingActivations"}
  ROOT %multiply.412 = f32[128,128]{1,0:T(8,128)} multiply(f32[128,128]{1,0:T(8,128)} %convolution.349, f32[128,128]{1,0:T(8,128)} %broadcast.2632), sharding={maximal device=0}, metadata={op_type="_RecvTPUEmbeddingActivations" op_name="while/RecvTPUEmbeddingActivations"}
}

%fused_computation.177.clone (param_0.2121: u32[128]) -> f32[128,128] {
  %param_0.2121 = u32[128]{0:T(256)} parameter(0)
  %broadcast.2635 = u32[128,128]{1,0:T(8,128)} broadcast(u32[128]{0:T(256)} %param_0.2121), dimensions={0}, sharding={maximal device=0}, metadata={op_type="_RecvTPUEmbeddingActivations" op_name="while/RecvTPUEmbeddingActivations"}
  %iota.622 = u32[128,128]{1,0:T(8,128)} iota(), iota_dimension=1, sharding={maximal device=0}, metadata={op_type="_RecvTPUEmbeddingActivations" op_name="while/RecvTPUEmbeddingActivations"}
  %compare.720 = pred[128,128]{1,0:T(8,128)(4,1)} compare(u32[128,128]{1,0:T(8,128)} %broadcast.2635, u32[128,128]{1,0:T(8,128)} %iota.622), direction=EQ, sharding={maximal device=0}, metadata={op_type="_RecvTPUEmbeddingActivations" op_name="while/RecvTPUEmbeddingActivations"}
  %constant.2276 = f32[]{:T(256)} constant(1), sharding={maximal device=0}, metadata={op_type="_RecvTPUEmbeddingActivations" op_name="while/RecvTPUEmbeddingActivations"}
  %broadcast.2634 = f32[128,128]{1,0:T(8,128)} broadcast(f32[]{:T(256)} %constant.2276), dimensions={}, sharding={maximal device=0}, metadata={op_type="_RecvTPUEmbeddingActivations" op_name="while/RecvTPUEmbeddingActivations"}
  %constant.2275 = f32[]{:T(256)} constant(0), metadata={op_type="Select" op_name="while/training/gradients/while/Select_grad/Select_1"}
  %broadcast.2633 = f32[128,128]{1,0:T(8,128)} broadcast(f32[]{:T(256)} %constant.2275), dimensions={}, metadata={op_name="while/bottom_mlp_layer_2/Relu"}
  ROOT %select.603 = f32[128,128]{1,0:T(8,128)} select(pred[128,128]{1,0:T(8,128)(4,1)} %compare.720, f32[128,128]{1,0:T(8,128)} %broadcast.2634, f32[128,128]{1,0:T(8,128)} %broadcast.2633), sharding={maximal device=0}, metadata={op_type="_RecvTPUEmbeddingActivations" op_name="while/RecvTPUEmbeddingActivations"}
}

%fused_computation.85.clone (param_0.2122: f32[136,768], param_1.1519: f32[128], param_2.1403: u32[128], param_3.855: u32[128]) -> bf16[128,1,128] {
  %param_0.2122 = f32[136,768]{1,0:T(8,128)} parameter(0)
  %slice.791 = f32[128,128]{1,0:T(8,128)} slice(f32[136,768]{1,0:T(8,128)} %param_0.2122), slice={[0:128], [256:384]}, sharding={maximal device=0}, metadata={op_type="_RecvTPUEmbeddingActivations" op_name="while/RecvTPUEmbeddingActivations"}
  %param_2.1403 = u32[128]{0:T(256)} parameter(2)
  %fusion.1234 = f32[128,128]{1,0:T(8,128)} fusion(u32[128]{0:T(256)} %param_2.1403), kind=kLoop, calls=%fused_computation.177.clone, metadata={op_type="_RecvTPUEmbeddingActivations" op_name="while/RecvTPUEmbeddingActivations"}
  %param_1.1519 = f32[128]{0:T(256)} parameter(1)
  %param_3.855 = u32[128]{0:T(256)} parameter(3)
  %fusion.1233 = f32[128,128]{1,0:T(8,128)} fusion(f32[128]{0:T(256)} %param_1.1519, f32[136,768]{1,0:T(8,128)} %param_0.2122, u32[128]{0:T(256)} %param_3.855), kind=kOutput, calls=%fused_computation.129.clone.clone.clone, sharding={maximal device=0}, metadata={op_type="_RecvTPUEmbeddingActivations" op_name="while/RecvTPUEmbeddingActivations"}
  %convolution.350 = f32[128,128]{1,0:T(8,128)} convolution(f32[128,128]{1,0:T(8,128)} %fusion.1234, f32[128,128]{1,0:T(8,128)} %fusion.1233), dim_labels=fb_io->bf, sharding={maximal device=0}, metadata={op_type="_RecvTPUEmbeddingActivations" op_name="while/RecvTPUEmbeddingActivations"}
  %add.443 = bf16[128,128]{1,0:T(8,128)(2,1)} add(f32[128,128]{1,0:T(8,128)} %slice.791, f32[128,128]{1,0:T(8,128)} %convolution.350), sharding={maximal device=0}, metadata={op_type="_RecvTPUEmbeddingActivations" op_name="while/RecvTPUEmbeddingActivations"}
  ROOT %bitcast.96 = bf16[128,1,128]{2,0,1:T(8,128)(2,1)} bitcast(bf16[128,128]{1,0:T(8,128)(2,1)} %add.443), metadata={op_type="ConcatV2" op_name="while/concat"}
}

%fused_computation.305.clone.clone (param_0.2123: f32[136,768]) -> f32[8,128] {
  %param_0.2123 = f32[136,768]{1,0:T(8,128)} parameter(0)
  ROOT %slice.792 = f32[8,128]{1,0:T(8,128)} slice(f32[136,768]{1,0:T(8,128)} %param_0.2123), slice={[128:136], [384:512]}, sharding={maximal device=0}, metadata={op_type="_RecvTPUEmbeddingActivations" op_name="while/RecvTPUEmbeddingActivations"}
}

%fused_computation.352.clone.clone (param_0.2124: u32[128]) -> f32[128,8] {
  %param_0.2124 = u32[128]{0:T(256)} parameter(0)
  %broadcast.2638 = u32[128,8]{0,1:T(8,128)} broadcast(u32[128]{0:T(256)} %param_0.2124), dimensions={0}, sharding={maximal device=0}, metadata={op_type="_RecvTPUEmbeddingActivations" op_name="while/RecvTPUEmbeddingActivations"}
  %iota.623 = u32[128,8]{0,1:T(8,128)} iota(), iota_dimension=1, sharding={maximal device=0}, metadata={op_type="_RecvTPUEmbeddingActivations" op_name="while/RecvTPUEmbeddingActivations"}
  %compare.721 = pred[128,8]{0,1:T(8,128)(4,1)} compare(u32[128,8]{0,1:T(8,128)} %broadcast.2638, u32[128,8]{0,1:T(8,128)} %iota.623), direction=EQ, sharding={maximal device=0}, metadata={op_type="_RecvTPUEmbeddingActivations" op_name="while/RecvTPUEmbeddingActivations"}
  %constant.2278 = f32[]{:T(256)} constant(1), sharding={maximal device=0}, metadata={op_type="_RecvTPUEmbeddingActivations" op_name="while/RecvTPUEmbeddingActivations"}
  %broadcast.2637 = f32[128,8]{0,1:T(8,128)} broadcast(f32[]{:T(256)} %constant.2278), dimensions={}, sharding={maximal device=0}, metadata={op_type="_RecvTPUEmbeddingActivations" op_name="while/RecvTPUEmbeddingActivations"}
  %constant.2277 = f32[]{:T(256)} constant(0), metadata={op_type="Select" op_name="while/training/gradients/while/Select_grad/Select_1"}
  %broadcast.2636 = f32[128,8]{0,1:T(8,128)} broadcast(f32[]{:T(256)} %constant.2277), dimensions={}, sharding={maximal device=0}, metadata={op_type="_RecvTPUEmbeddingActivations" op_name="while/RecvTPUEmbeddingActivations"}
  ROOT %select.604 = f32[128,8]{0,1:T(8,128)} select(pred[128,8]{0,1:T(8,128)(4,1)} %compare.721, f32[128,8]{0,1:T(8,128)} %broadcast.2637, f32[128,8]{0,1:T(8,128)} %broadcast.2636), sharding={maximal device=0}, metadata={op_type="_RecvTPUEmbeddingActivations" op_name="while/RecvTPUEmbeddingActivations"}
}

%fused_computation.128.clone.clone.clone (param_0.2125: f32[128], param_1.1520: f32[136,768], param_2.1404: u32[128]) -> f32[128,128] {
  %param_2.1404 = u32[128]{0:T(256)} parameter(2)
  %fusion.1237 = f32[128,8]{0,1:T(8,128)} fusion(u32[128]{0:T(256)} %param_2.1404), kind=kLoop, calls=%fused_computation.352.clone.clone, metadata={op_type="_RecvTPUEmbeddingActivations" op_name="while/RecvTPUEmbeddingActivations"}
  %param_1.1520 = f32[136,768]{1,0:T(8,128)} parameter(1)
  %fusion.1236 = f32[8,128]{1,0:T(8,128)} fusion(f32[136,768]{1,0:T(8,128)} %param_1.1520), kind=kLoop, calls=%fused_computation.305.clone.clone, metadata={op_type="_RecvTPUEmbeddingActivations" op_name="while/RecvTPUEmbeddingActivations"}
  %convolution.351 = f32[128,128]{1,0:T(8,128)} convolution(f32[128,8]{0,1:T(8,128)} %fusion.1237, f32[8,128]{1,0:T(8,128)} %fusion.1236), dim_labels=bf_io->bf, sharding={maximal device=0}, metadata={op_type="_RecvTPUEmbeddingActivations" op_name="while/RecvTPUEmbeddingActivations"}
  %param_0.2125 = f32[128]{0:T(256)} parameter(0)
  %broadcast.2639 = f32[128,128]{1,0:T(8,128)} broadcast(f32[128]{0:T(256)} %param_0.2125), dimensions={0}, sharding={maximal device=0}, metadata={op_type="_RecvTPUEmbeddingActivations" op_name="while/RecvTPUEmbeddingActivations"}
  ROOT %multiply.413 = f32[128,128]{1,0:T(8,128)} multiply(f32[128,128]{1,0:T(8,128)} %convolution.351, f32[128,128]{1,0:T(8,128)} %broadcast.2639), sharding={maximal device=0}, metadata={op_type="_RecvTPUEmbeddingActivations" op_name="while/RecvTPUEmbeddingActivations"}
}

%fused_computation.175.clone (param_0.2126: u32[128]) -> f32[128,128] {
  %param_0.2126 = u32[128]{0:T(256)} parameter(0)
  %broadcast.2642 = u32[128,128]{1,0:T(8,128)} broadcast(u32[128]{0:T(256)} %param_0.2126), dimensions={0}, sharding={maximal device=0}, metadata={op_type="_RecvTPUEmbeddingActivations" op_name="while/RecvTPUEmbeddingActivations"}
  %iota.624 = u32[128,128]{1,0:T(8,128)} iota(), iota_dimension=1, sharding={maximal device=0}, metadata={op_type="_RecvTPUEmbeddingActivations" op_name="while/RecvTPUEmbeddingActivations"}
  %compare.722 = pred[128,128]{1,0:T(8,128)(4,1)} compare(u32[128,128]{1,0:T(8,128)} %broadcast.2642, u32[128,128]{1,0:T(8,128)} %iota.624), direction=EQ, sharding={maximal device=0}, metadata={op_type="_RecvTPUEmbeddingActivations" op_name="while/RecvTPUEmbeddingActivations"}
  %constant.2280 = f32[]{:T(256)} constant(1), sharding={maximal device=0}, metadata={op_type="_RecvTPUEmbeddingActivations" op_name="while/RecvTPUEmbeddingActivations"}
  %broadcast.2641 = f32[128,128]{1,0:T(8,128)} broadcast(f32[]{:T(256)} %constant.2280), dimensions={}, sharding={maximal device=0}, metadata={op_type="_RecvTPUEmbeddingActivations" op_name="while/RecvTPUEmbeddingActivations"}
  %constant.2279 = f32[]{:T(256)} constant(0), metadata={op_type="Select" op_name="while/training/gradients/while/Select_grad/Select_1"}
  %broadcast.2640 = f32[128,128]{1,0:T(8,128)} broadcast(f32[]{:T(256)} %constant.2279), dimensions={}, metadata={op_name="while/bottom_mlp_layer_2/Relu"}
  ROOT %select.605 = f32[128,128]{1,0:T(8,128)} select(pred[128,128]{1,0:T(8,128)(4,1)} %compare.722, f32[128,128]{1,0:T(8,128)} %broadcast.2641, f32[128,128]{1,0:T(8,128)} %broadcast.2640), sharding={maximal device=0}, metadata={op_type="_RecvTPUEmbeddingActivations" op_name="while/RecvTPUEmbeddingActivations"}
}

%fused_computation.83.clone (param_0.2127: f32[136,768], param_1.1521: f32[128], param_2.1405: u32[128], param_3.856: u32[128]) -> bf16[128,1,128] {
  %param_0.2127 = f32[136,768]{1,0:T(8,128)} parameter(0)
  %slice.793 = f32[128,128]{1,0:T(8,128)} slice(f32[136,768]{1,0:T(8,128)} %param_0.2127), slice={[0:128], [384:512]}, sharding={maximal device=0}, metadata={op_type="_RecvTPUEmbeddingActivations" op_name="while/RecvTPUEmbeddingActivations"}
  %param_2.1405 = u32[128]{0:T(256)} parameter(2)
  %fusion.1239 = f32[128,128]{1,0:T(8,128)} fusion(u32[128]{0:T(256)} %param_2.1405), kind=kLoop, calls=%fused_computation.175.clone, metadata={op_type="_RecvTPUEmbeddingActivations" op_name="while/RecvTPUEmbeddingActivations"}
  %param_1.1521 = f32[128]{0:T(256)} parameter(1)
  %param_3.856 = u32[128]{0:T(256)} parameter(3)
  %fusion.1238 = f32[128,128]{1,0:T(8,128)} fusion(f32[128]{0:T(256)} %param_1.1521, f32[136,768]{1,0:T(8,128)} %param_0.2127, u32[128]{0:T(256)} %param_3.856), kind=kOutput, calls=%fused_computation.128.clone.clone.clone, sharding={maximal device=0}, metadata={op_type="_RecvTPUEmbeddingActivations" op_name="while/RecvTPUEmbeddingActivations"}
  %convolution.352 = f32[128,128]{1,0:T(8,128)} convolution(f32[128,128]{1,0:T(8,128)} %fusion.1239, f32[128,128]{1,0:T(8,128)} %fusion.1238), dim_labels=fb_io->bf, sharding={maximal device=0}, metadata={op_type="_RecvTPUEmbeddingActivations" op_name="while/RecvTPUEmbeddingActivations"}
  %add.444 = bf16[128,128]{1,0:T(8,128)(2,1)} add(f32[128,128]{1,0:T(8,128)} %slice.793, f32[128,128]{1,0:T(8,128)} %convolution.352), sharding={maximal device=0}, metadata={op_type="_RecvTPUEmbeddingActivations" op_name="while/RecvTPUEmbeddingActivations"}
  ROOT %bitcast.97 = bf16[128,1,128]{2,0,1:T(8,128)(2,1)} bitcast(bf16[128,128]{1,0:T(8,128)(2,1)} %add.444), metadata={op_type="ConcatV2" op_name="while/concat"}
}

%fused_computation.304.clone.clone (param_0.2128: f32[136,896]) -> f32[8,128] {
  %param_0.2128 = f32[136,896]{1,0:T(8,128)} parameter(0)
  ROOT %slice.794 = f32[8,128]{1,0:T(8,128)} slice(f32[136,896]{1,0:T(8,128)} %param_0.2128), slice={[128:136], [384:512]}, sharding={maximal device=0}, metadata={op_type="_RecvTPUEmbeddingActivations" op_name="while/RecvTPUEmbeddingActivations"}
}

%fused_computation.350.clone.clone (param_0.2129: u32[128]) -> f32[128,8] {
  %param_0.2129 = u32[128]{0:T(256)} parameter(0)
  %broadcast.2645 = u32[128,8]{0,1:T(8,128)} broadcast(u32[128]{0:T(256)} %param_0.2129), dimensions={0}, sharding={maximal device=0}, metadata={op_type="_RecvTPUEmbeddingActivations" op_name="while/RecvTPUEmbeddingActivations"}
  %iota.625 = u32[128,8]{0,1:T(8,128)} iota(), iota_dimension=1, sharding={maximal device=0}, metadata={op_type="_RecvTPUEmbeddingActivations" op_name="while/RecvTPUEmbeddingActivations"}
  %compare.723 = pred[128,8]{0,1:T(8,128)(4,1)} compare(u32[128,8]{0,1:T(8,128)} %broadcast.2645, u32[128,8]{0,1:T(8,128)} %iota.625), direction=EQ, sharding={maximal device=0}, metadata={op_type="_RecvTPUEmbeddingActivations" op_name="while/RecvTPUEmbeddingActivations"}
  %constant.2282 = f32[]{:T(256)} constant(1), sharding={maximal device=0}, metadata={op_type="_RecvTPUEmbeddingActivations" op_name="while/RecvTPUEmbeddingActivations"}
  %broadcast.2644 = f32[128,8]{0,1:T(8,128)} broadcast(f32[]{:T(256)} %constant.2282), dimensions={}, sharding={maximal device=0}, metadata={op_type="_RecvTPUEmbeddingActivations" op_name="while/RecvTPUEmbeddingActivations"}
  %constant.2281 = f32[]{:T(256)} constant(0), metadata={op_type="Select" op_name="while/training/gradients/while/Select_grad/Select_1"}
  %broadcast.2643 = f32[128,8]{0,1:T(8,128)} broadcast(f32[]{:T(256)} %constant.2281), dimensions={}, sharding={maximal device=0}, metadata={op_type="_RecvTPUEmbeddingActivations" op_name="while/RecvTPUEmbeddingActivations"}
  ROOT %select.606 = f32[128,8]{0,1:T(8,128)} select(pred[128,8]{0,1:T(8,128)(4,1)} %compare.723, f32[128,8]{0,1:T(8,128)} %broadcast.2644, f32[128,8]{0,1:T(8,128)} %broadcast.2643), sharding={maximal device=0}, metadata={op_type="_RecvTPUEmbeddingActivations" op_name="while/RecvTPUEmbeddingActivations"}
}

%fused_computation.127.clone.clone.clone (param_0.2130: f32[128], param_1.1522: f32[136,896], param_2.1406: u32[128]) -> f32[128,128] {
  %param_2.1406 = u32[128]{0:T(256)} parameter(2)
  %fusion.1242 = f32[128,8]{0,1:T(8,128)} fusion(u32[128]{0:T(256)} %param_2.1406), kind=kLoop, calls=%fused_computation.350.clone.clone, metadata={op_type="_RecvTPUEmbeddingActivations" op_name="while/RecvTPUEmbeddingActivations"}
  %param_1.1522 = f32[136,896]{1,0:T(8,128)} parameter(1)
  %fusion.1241 = f32[8,128]{1,0:T(8,128)} fusion(f32[136,896]{1,0:T(8,128)} %param_1.1522), kind=kLoop, calls=%fused_computation.304.clone.clone, metadata={op_type="_RecvTPUEmbeddingActivations" op_name="while/RecvTPUEmbeddingActivations"}
  %convolution.353 = f32[128,128]{1,0:T(8,128)} convolution(f32[128,8]{0,1:T(8,128)} %fusion.1242, f32[8,128]{1,0:T(8,128)} %fusion.1241), dim_labels=bf_io->bf, sharding={maximal device=0}, metadata={op_type="_RecvTPUEmbeddingActivations" op_name="while/RecvTPUEmbeddingActivations"}
  %param_0.2130 = f32[128]{0:T(256)} parameter(0)
  %broadcast.2646 = f32[128,128]{1,0:T(8,128)} broadcast(f32[128]{0:T(256)} %param_0.2130), dimensions={0}, sharding={maximal device=0}, metadata={op_type="_RecvTPUEmbeddingActivations" op_name="while/RecvTPUEmbeddingActivations"}
  ROOT %multiply.414 = f32[128,128]{1,0:T(8,128)} multiply(f32[128,128]{1,0:T(8,128)} %convolution.353, f32[128,128]{1,0:T(8,128)} %broadcast.2646), sharding={maximal device=0}, metadata={op_type="_RecvTPUEmbeddingActivations" op_name="while/RecvTPUEmbeddingActivations"}
}

%fused_computation.173.clone (param_0.2131: u32[128]) -> f32[128,128] {
  %param_0.2131 = u32[128]{0:T(256)} parameter(0)
  %broadcast.2649 = u32[128,128]{1,0:T(8,128)} broadcast(u32[128]{0:T(256)} %param_0.2131), dimensions={0}, sharding={maximal device=0}, metadata={op_type="_RecvTPUEmbeddingActivations" op_name="while/RecvTPUEmbeddingActivations"}
  %iota.626 = u32[128,128]{1,0:T(8,128)} iota(), iota_dimension=1, sharding={maximal device=0}, metadata={op_type="_RecvTPUEmbeddingActivations" op_name="while/RecvTPUEmbeddingActivations"}
  %compare.724 = pred[128,128]{1,0:T(8,128)(4,1)} compare(u32[128,128]{1,0:T(8,128)} %broadcast.2649, u32[128,128]{1,0:T(8,128)} %iota.626), direction=EQ, sharding={maximal device=0}, metadata={op_type="_RecvTPUEmbeddingActivations" op_name="while/RecvTPUEmbeddingActivations"}
  %constant.2284 = f32[]{:T(256)} constant(1), sharding={maximal device=0}, metadata={op_type="_RecvTPUEmbeddingActivations" op_name="while/RecvTPUEmbeddingActivations"}
  %broadcast.2648 = f32[128,128]{1,0:T(8,128)} broadcast(f32[]{:T(256)} %constant.2284), dimensions={}, sharding={maximal device=0}, metadata={op_type="_RecvTPUEmbeddingActivations" op_name="while/RecvTPUEmbeddingActivations"}
  %constant.2283 = f32[]{:T(256)} constant(0), metadata={op_type="Select" op_name="while/training/gradients/while/Select_grad/Select_1"}
  %broadcast.2647 = f32[128,128]{1,0:T(8,128)} broadcast(f32[]{:T(256)} %constant.2283), dimensions={}, metadata={op_name="while/bottom_mlp_layer_2/Relu"}
  ROOT %select.607 = f32[128,128]{1,0:T(8,128)} select(pred[128,128]{1,0:T(8,128)(4,1)} %compare.724, f32[128,128]{1,0:T(8,128)} %broadcast.2648, f32[128,128]{1,0:T(8,128)} %broadcast.2647), sharding={maximal device=0}, metadata={op_type="_RecvTPUEmbeddingActivations" op_name="while/RecvTPUEmbeddingActivations"}
}

%fused_computation.81.clone (param_0.2132: f32[136,896], param_1.1523: f32[128], param_2.1407: u32[128], param_3.857: u32[128]) -> bf16[128,1,128] {
  %param_0.2132 = f32[136,896]{1,0:T(8,128)} parameter(0)
  %slice.795 = f32[128,128]{1,0:T(8,128)} slice(f32[136,896]{1,0:T(8,128)} %param_0.2132), slice={[0:128], [384:512]}, sharding={maximal device=0}, metadata={op_type="_RecvTPUEmbeddingActivations" op_name="while/RecvTPUEmbeddingActivations"}
  %param_2.1407 = u32[128]{0:T(256)} parameter(2)
  %fusion.1244 = f32[128,128]{1,0:T(8,128)} fusion(u32[128]{0:T(256)} %param_2.1407), kind=kLoop, calls=%fused_computation.173.clone, metadata={op_type="_RecvTPUEmbeddingActivations" op_name="while/RecvTPUEmbeddingActivations"}
  %param_1.1523 = f32[128]{0:T(256)} parameter(1)
  %param_3.857 = u32[128]{0:T(256)} parameter(3)
  %fusion.1243 = f32[128,128]{1,0:T(8,128)} fusion(f32[128]{0:T(256)} %param_1.1523, f32[136,896]{1,0:T(8,128)} %param_0.2132, u32[128]{0:T(256)} %param_3.857), kind=kOutput, calls=%fused_computation.127.clone.clone.clone, sharding={maximal device=0}, metadata={op_type="_RecvTPUEmbeddingActivations" op_name="while/RecvTPUEmbeddingActivations"}
  %convolution.354 = f32[128,128]{1,0:T(8,128)} convolution(f32[128,128]{1,0:T(8,128)} %fusion.1244, f32[128,128]{1,0:T(8,128)} %fusion.1243), dim_labels=fb_io->bf, sharding={maximal device=0}, metadata={op_type="_RecvTPUEmbeddingActivations" op_name="while/RecvTPUEmbeddingActivations"}
  %add.445 = bf16[128,128]{1,0:T(8,128)(2,1)} add(f32[128,128]{1,0:T(8,128)} %slice.795, f32[128,128]{1,0:T(8,128)} %convolution.354), sharding={maximal device=0}, metadata={op_type="_RecvTPUEmbeddingActivations" op_name="while/RecvTPUEmbeddingActivations"}
  ROOT %bitcast.98 = bf16[128,1,128]{2,0,1:T(8,128)(2,1)} bitcast(bf16[128,128]{1,0:T(8,128)(2,1)} %add.445), metadata={op_type="ConcatV2" op_name="while/concat"}
}

%fused_computation.303.clone.clone (param_0.2133: f32[136,768]) -> f32[8,128] {
  %param_0.2133 = f32[136,768]{1,0:T(8,128)} parameter(0)
  ROOT %slice.796 = f32[8,128]{1,0:T(8,128)} slice(f32[136,768]{1,0:T(8,128)} %param_0.2133), slice={[128:136], [512:640]}, sharding={maximal device=0}, metadata={op_type="_RecvTPUEmbeddingActivations" op_name="while/RecvTPUEmbeddingActivations"}
}

%fused_computation.348.clone.clone (param_0.2134: u32[128]) -> f32[128,8] {
  %param_0.2134 = u32[128]{0:T(256)} parameter(0)
  %broadcast.2652 = u32[128,8]{0,1:T(8,128)} broadcast(u32[128]{0:T(256)} %param_0.2134), dimensions={0}, sharding={maximal device=0}, metadata={op_type="_RecvTPUEmbeddingActivations" op_name="while/RecvTPUEmbeddingActivations"}
  %iota.627 = u32[128,8]{0,1:T(8,128)} iota(), iota_dimension=1, sharding={maximal device=0}, metadata={op_type="_RecvTPUEmbeddingActivations" op_name="while/RecvTPUEmbeddingActivations"}
  %compare.725 = pred[128,8]{0,1:T(8,128)(4,1)} compare(u32[128,8]{0,1:T(8,128)} %broadcast.2652, u32[128,8]{0,1:T(8,128)} %iota.627), direction=EQ, sharding={maximal device=0}, metadata={op_type="_RecvTPUEmbeddingActivations" op_name="while/RecvTPUEmbeddingActivations"}
  %constant.2286 = f32[]{:T(256)} constant(1), sharding={maximal device=0}, metadata={op_type="_RecvTPUEmbeddingActivations" op_name="while/RecvTPUEmbeddingActivations"}
  %broadcast.2651 = f32[128,8]{0,1:T(8,128)} broadcast(f32[]{:T(256)} %constant.2286), dimensions={}, sharding={maximal device=0}, metadata={op_type="_RecvTPUEmbeddingActivations" op_name="while/RecvTPUEmbeddingActivations"}
  %constant.2285 = f32[]{:T(256)} constant(0), metadata={op_type="Select" op_name="while/training/gradients/while/Select_grad/Select_1"}
  %broadcast.2650 = f32[128,8]{0,1:T(8,128)} broadcast(f32[]{:T(256)} %constant.2285), dimensions={}, sharding={maximal device=0}, metadata={op_type="_RecvTPUEmbeddingActivations" op_name="while/RecvTPUEmbeddingActivations"}
  ROOT %select.608 = f32[128,8]{0,1:T(8,128)} select(pred[128,8]{0,1:T(8,128)(4,1)} %compare.725, f32[128,8]{0,1:T(8,128)} %broadcast.2651, f32[128,8]{0,1:T(8,128)} %broadcast.2650), sharding={maximal device=0}, metadata={op_type="_RecvTPUEmbeddingActivations" op_name="while/RecvTPUEmbeddingActivations"}
}

%fused_computation.126.clone.clone.clone (param_0.2135: f32[128], param_1.1524: f32[136,768], param_2.1408: u32[128]) -> f32[128,128] {
  %param_2.1408 = u32[128]{0:T(256)} parameter(2)
  %fusion.1247 = f32[128,8]{0,1:T(8,128)} fusion(u32[128]{0:T(256)} %param_2.1408), kind=kLoop, calls=%fused_computation.348.clone.clone, metadata={op_type="_RecvTPUEmbeddingActivations" op_name="while/RecvTPUEmbeddingActivations"}
  %param_1.1524 = f32[136,768]{1,0:T(8,128)} parameter(1)
  %fusion.1246 = f32[8,128]{1,0:T(8,128)} fusion(f32[136,768]{1,0:T(8,128)} %param_1.1524), kind=kLoop, calls=%fused_computation.303.clone.clone, metadata={op_type="_RecvTPUEmbeddingActivations" op_name="while/RecvTPUEmbeddingActivations"}
  %convolution.355 = f32[128,128]{1,0:T(8,128)} convolution(f32[128,8]{0,1:T(8,128)} %fusion.1247, f32[8,128]{1,0:T(8,128)} %fusion.1246), dim_labels=bf_io->bf, sharding={maximal device=0}, metadata={op_type="_RecvTPUEmbeddingActivations" op_name="while/RecvTPUEmbeddingActivations"}
  %param_0.2135 = f32[128]{0:T(256)} parameter(0)
  %broadcast.2653 = f32[128,128]{1,0:T(8,128)} broadcast(f32[128]{0:T(256)} %param_0.2135), dimensions={0}, sharding={maximal device=0}, metadata={op_type="_RecvTPUEmbeddingActivations" op_name="while/RecvTPUEmbeddingActivations"}
  ROOT %multiply.415 = f32[128,128]{1,0:T(8,128)} multiply(f32[128,128]{1,0:T(8,128)} %convolution.355, f32[128,128]{1,0:T(8,128)} %broadcast.2653), sharding={maximal device=0}, metadata={op_type="_RecvTPUEmbeddingActivations" op_name="while/RecvTPUEmbeddingActivations"}
}

%fused_computation.171.clone (param_0.2136: u32[128]) -> f32[128,128] {
  %param_0.2136 = u32[128]{0:T(256)} parameter(0)
  %broadcast.2656 = u32[128,128]{1,0:T(8,128)} broadcast(u32[128]{0:T(256)} %param_0.2136), dimensions={0}, sharding={maximal device=0}, metadata={op_type="_RecvTPUEmbeddingActivations" op_name="while/RecvTPUEmbeddingActivations"}
  %iota.628 = u32[128,128]{1,0:T(8,128)} iota(), iota_dimension=1, sharding={maximal device=0}, metadata={op_type="_RecvTPUEmbeddingActivations" op_name="while/RecvTPUEmbeddingActivations"}
  %compare.726 = pred[128,128]{1,0:T(8,128)(4,1)} compare(u32[128,128]{1,0:T(8,128)} %broadcast.2656, u32[128,128]{1,0:T(8,128)} %iota.628), direction=EQ, sharding={maximal device=0}, metadata={op_type="_RecvTPUEmbeddingActivations" op_name="while/RecvTPUEmbeddingActivations"}
  %constant.2288 = f32[]{:T(256)} constant(1), sharding={maximal device=0}, metadata={op_type="_RecvTPUEmbeddingActivations" op_name="while/RecvTPUEmbeddingActivations"}
  %broadcast.2655 = f32[128,128]{1,0:T(8,128)} broadcast(f32[]{:T(256)} %constant.2288), dimensions={}, sharding={maximal device=0}, metadata={op_type="_RecvTPUEmbeddingActivations" op_name="while/RecvTPUEmbeddingActivations"}
  %constant.2287 = f32[]{:T(256)} constant(0), metadata={op_type="Select" op_name="while/training/gradients/while/Select_grad/Select_1"}
  %broadcast.2654 = f32[128,128]{1,0:T(8,128)} broadcast(f32[]{:T(256)} %constant.2287), dimensions={}, metadata={op_name="while/bottom_mlp_layer_2/Relu"}
  ROOT %select.609 = f32[128,128]{1,0:T(8,128)} select(pred[128,128]{1,0:T(8,128)(4,1)} %compare.726, f32[128,128]{1,0:T(8,128)} %broadcast.2655, f32[128,128]{1,0:T(8,128)} %broadcast.2654), sharding={maximal device=0}, metadata={op_type="_RecvTPUEmbeddingActivations" op_name="while/RecvTPUEmbeddingActivations"}
}

%fused_computation.79.clone (param_0.2137: f32[136,768], param_1.1525: f32[128], param_2.1409: u32[128], param_3.858: u32[128]) -> bf16[128,1,128] {
  %param_0.2137 = f32[136,768]{1,0:T(8,128)} parameter(0)
  %slice.797 = f32[128,128]{1,0:T(8,128)} slice(f32[136,768]{1,0:T(8,128)} %param_0.2137), slice={[0:128], [512:640]}, sharding={maximal device=0}, metadata={op_type="_RecvTPUEmbeddingActivations" op_name="while/RecvTPUEmbeddingActivations"}
  %param_2.1409 = u32[128]{0:T(256)} parameter(2)
  %fusion.1249 = f32[128,128]{1,0:T(8,128)} fusion(u32[128]{0:T(256)} %param_2.1409), kind=kLoop, calls=%fused_computation.171.clone, metadata={op_type="_RecvTPUEmbeddingActivations" op_name="while/RecvTPUEmbeddingActivations"}
  %param_1.1525 = f32[128]{0:T(256)} parameter(1)
  %param_3.858 = u32[128]{0:T(256)} parameter(3)
  %fusion.1248 = f32[128,128]{1,0:T(8,128)} fusion(f32[128]{0:T(256)} %param_1.1525, f32[136,768]{1,0:T(8,128)} %param_0.2137, u32[128]{0:T(256)} %param_3.858), kind=kOutput, calls=%fused_computation.126.clone.clone.clone, sharding={maximal device=0}, metadata={op_type="_RecvTPUEmbeddingActivations" op_name="while/RecvTPUEmbeddingActivations"}
  %convolution.356 = f32[128,128]{1,0:T(8,128)} convolution(f32[128,128]{1,0:T(8,128)} %fusion.1249, f32[128,128]{1,0:T(8,128)} %fusion.1248), dim_labels=fb_io->bf, sharding={maximal device=0}, metadata={op_type="_RecvTPUEmbeddingActivations" op_name="while/RecvTPUEmbeddingActivations"}
  %add.446 = bf16[128,128]{1,0:T(8,128)(2,1)} add(f32[128,128]{1,0:T(8,128)} %slice.797, f32[128,128]{1,0:T(8,128)} %convolution.356), sharding={maximal device=0}, metadata={op_type="_RecvTPUEmbeddingActivations" op_name="while/RecvTPUEmbeddingActivations"}
  ROOT %bitcast.99 = bf16[128,1,128]{2,0,1:T(8,128)(2,1)} bitcast(bf16[128,128]{1,0:T(8,128)(2,1)} %add.446), metadata={op_type="ConcatV2" op_name="while/concat"}
}

%fused_computation.302.clone.clone (param_0.2138: f32[136,896]) -> f32[8,128] {
  %param_0.2138 = f32[136,896]{1,0:T(8,128)} parameter(0)
  ROOT %slice.798 = f32[8,128]{1,0:T(8,128)} slice(f32[136,896]{1,0:T(8,128)} %param_0.2138), slice={[128:136], [512:640]}, sharding={maximal device=0}, metadata={op_type="_RecvTPUEmbeddingActivations" op_name="while/RecvTPUEmbeddingActivations"}
}

%fused_computation.346.clone.clone (param_0.2139: u32[128]) -> f32[128,8] {
  %param_0.2139 = u32[128]{0:T(256)} parameter(0)
  %broadcast.2659 = u32[128,8]{0,1:T(8,128)} broadcast(u32[128]{0:T(256)} %param_0.2139), dimensions={0}, sharding={maximal device=0}, metadata={op_type="_RecvTPUEmbeddingActivations" op_name="while/RecvTPUEmbeddingActivations"}
  %iota.629 = u32[128,8]{0,1:T(8,128)} iota(), iota_dimension=1, sharding={maximal device=0}, metadata={op_type="_RecvTPUEmbeddingActivations" op_name="while/RecvTPUEmbeddingActivations"}
  %compare.727 = pred[128,8]{0,1:T(8,128)(4,1)} compare(u32[128,8]{0,1:T(8,128)} %broadcast.2659, u32[128,8]{0,1:T(8,128)} %iota.629), direction=EQ, sharding={maximal device=0}, metadata={op_type="_RecvTPUEmbeddingActivations" op_name="while/RecvTPUEmbeddingActivations"}
  %constant.2290 = f32[]{:T(256)} constant(1), sharding={maximal device=0}, metadata={op_type="_RecvTPUEmbeddingActivations" op_name="while/RecvTPUEmbeddingActivations"}
  %broadcast.2658 = f32[128,8]{0,1:T(8,128)} broadcast(f32[]{:T(256)} %constant.2290), dimensions={}, sharding={maximal device=0}, metadata={op_type="_RecvTPUEmbeddingActivations" op_name="while/RecvTPUEmbeddingActivations"}
  %constant.2289 = f32[]{:T(256)} constant(0), metadata={op_type="Select" op_name="while/training/gradients/while/Select_grad/Select_1"}
  %broadcast.2657 = f32[128,8]{0,1:T(8,128)} broadcast(f32[]{:T(256)} %constant.2289), dimensions={}, sharding={maximal device=0}, metadata={op_type="_RecvTPUEmbeddingActivations" op_name="while/RecvTPUEmbeddingActivations"}
  ROOT %select.610 = f32[128,8]{0,1:T(8,128)} select(pred[128,8]{0,1:T(8,128)(4,1)} %compare.727, f32[128,8]{0,1:T(8,128)} %broadcast.2658, f32[128,8]{0,1:T(8,128)} %broadcast.2657), sharding={maximal device=0}, metadata={op_type="_RecvTPUEmbeddingActivations" op_name="while/RecvTPUEmbeddingActivations"}
}

%fused_computation.125.clone.clone.clone (param_0.2140: f32[128], param_1.1526: f32[136,896], param_2.1410: u32[128]) -> f32[128,128] {
  %param_2.1410 = u32[128]{0:T(256)} parameter(2)
  %fusion.1252 = f32[128,8]{0,1:T(8,128)} fusion(u32[128]{0:T(256)} %param_2.1410), kind=kLoop, calls=%fused_computation.346.clone.clone, metadata={op_type="_RecvTPUEmbeddingActivations" op_name="while/RecvTPUEmbeddingActivations"}
  %param_1.1526 = f32[136,896]{1,0:T(8,128)} parameter(1)
  %fusion.1251 = f32[8,128]{1,0:T(8,128)} fusion(f32[136,896]{1,0:T(8,128)} %param_1.1526), kind=kLoop, calls=%fused_computation.302.clone.clone, metadata={op_type="_RecvTPUEmbeddingActivations" op_name="while/RecvTPUEmbeddingActivations"}
  %convolution.357 = f32[128,128]{1,0:T(8,128)} convolution(f32[128,8]{0,1:T(8,128)} %fusion.1252, f32[8,128]{1,0:T(8,128)} %fusion.1251), dim_labels=bf_io->bf, sharding={maximal device=0}, metadata={op_type="_RecvTPUEmbeddingActivations" op_name="while/RecvTPUEmbeddingActivations"}
  %param_0.2140 = f32[128]{0:T(256)} parameter(0)
  %broadcast.2660 = f32[128,128]{1,0:T(8,128)} broadcast(f32[128]{0:T(256)} %param_0.2140), dimensions={0}, sharding={maximal device=0}, metadata={op_type="_RecvTPUEmbeddingActivations" op_name="while/RecvTPUEmbeddingActivations"}
  ROOT %multiply.416 = f32[128,128]{1,0:T(8,128)} multiply(f32[128,128]{1,0:T(8,128)} %convolution.357, f32[128,128]{1,0:T(8,128)} %broadcast.2660), sharding={maximal device=0}, metadata={op_type="_RecvTPUEmbeddingActivations" op_name="while/RecvTPUEmbeddingActivations"}
}

%fused_computation.169.clone (param_0.2141: u32[128]) -> f32[128,128] {
  %param_0.2141 = u32[128]{0:T(256)} parameter(0)
  %broadcast.2663 = u32[128,128]{1,0:T(8,128)} broadcast(u32[128]{0:T(256)} %param_0.2141), dimensions={0}, sharding={maximal device=0}, metadata={op_type="_RecvTPUEmbeddingActivations" op_name="while/RecvTPUEmbeddingActivations"}
  %iota.630 = u32[128,128]{1,0:T(8,128)} iota(), iota_dimension=1, sharding={maximal device=0}, metadata={op_type="_RecvTPUEmbeddingActivations" op_name="while/RecvTPUEmbeddingActivations"}
  %compare.728 = pred[128,128]{1,0:T(8,128)(4,1)} compare(u32[128,128]{1,0:T(8,128)} %broadcast.2663, u32[128,128]{1,0:T(8,128)} %iota.630), direction=EQ, sharding={maximal device=0}, metadata={op_type="_RecvTPUEmbeddingActivations" op_name="while/RecvTPUEmbeddingActivations"}
  %constant.2292 = f32[]{:T(256)} constant(1), sharding={maximal device=0}, metadata={op_type="_RecvTPUEmbeddingActivations" op_name="while/RecvTPUEmbeddingActivations"}
  %broadcast.2662 = f32[128,128]{1,0:T(8,128)} broadcast(f32[]{:T(256)} %constant.2292), dimensions={}, sharding={maximal device=0}, metadata={op_type="_RecvTPUEmbeddingActivations" op_name="while/RecvTPUEmbeddingActivations"}
  %constant.2291 = f32[]{:T(256)} constant(0), metadata={op_type="Select" op_name="while/training/gradients/while/Select_grad/Select_1"}
  %broadcast.2661 = f32[128,128]{1,0:T(8,128)} broadcast(f32[]{:T(256)} %constant.2291), dimensions={}, metadata={op_name="while/bottom_mlp_layer_2/Relu"}
  ROOT %select.611 = f32[128,128]{1,0:T(8,128)} select(pred[128,128]{1,0:T(8,128)(4,1)} %compare.728, f32[128,128]{1,0:T(8,128)} %broadcast.2662, f32[128,128]{1,0:T(8,128)} %broadcast.2661), sharding={maximal device=0}, metadata={op_type="_RecvTPUEmbeddingActivations" op_name="while/RecvTPUEmbeddingActivations"}
}

%fused_computation.77.clone (param_0.2142: f32[136,896], param_1.1527: f32[128], param_2.1411: u32[128], param_3.859: u32[128]) -> bf16[128,1,128] {
  %param_0.2142 = f32[136,896]{1,0:T(8,128)} parameter(0)
  %slice.799 = f32[128,128]{1,0:T(8,128)} slice(f32[136,896]{1,0:T(8,128)} %param_0.2142), slice={[0:128], [512:640]}, sharding={maximal device=0}, metadata={op_type="_RecvTPUEmbeddingActivations" op_name="while/RecvTPUEmbeddingActivations"}
  %param_2.1411 = u32[128]{0:T(256)} parameter(2)
  %fusion.1254 = f32[128,128]{1,0:T(8,128)} fusion(u32[128]{0:T(256)} %param_2.1411), kind=kLoop, calls=%fused_computation.169.clone, metadata={op_type="_RecvTPUEmbeddingActivations" op_name="while/RecvTPUEmbeddingActivations"}
  %param_1.1527 = f32[128]{0:T(256)} parameter(1)
  %param_3.859 = u32[128]{0:T(256)} parameter(3)
  %fusion.1253 = f32[128,128]{1,0:T(8,128)} fusion(f32[128]{0:T(256)} %param_1.1527, f32[136,896]{1,0:T(8,128)} %param_0.2142, u32[128]{0:T(256)} %param_3.859), kind=kOutput, calls=%fused_computation.125.clone.clone.clone, sharding={maximal device=0}, metadata={op_type="_RecvTPUEmbeddingActivations" op_name="while/RecvTPUEmbeddingActivations"}
  %convolution.358 = f32[128,128]{1,0:T(8,128)} convolution(f32[128,128]{1,0:T(8,128)} %fusion.1254, f32[128,128]{1,0:T(8,128)} %fusion.1253), dim_labels=fb_io->bf, sharding={maximal device=0}, metadata={op_type="_RecvTPUEmbeddingActivations" op_name="while/RecvTPUEmbeddingActivations"}
  %add.447 = bf16[128,128]{1,0:T(8,128)(2,1)} add(f32[128,128]{1,0:T(8,128)} %slice.799, f32[128,128]{1,0:T(8,128)} %convolution.358), sharding={maximal device=0}, metadata={op_type="_RecvTPUEmbeddingActivations" op_name="while/RecvTPUEmbeddingActivations"}
  ROOT %bitcast.100 = bf16[128,1,128]{2,0,1:T(8,128)(2,1)} bitcast(bf16[128,128]{1,0:T(8,128)(2,1)} %add.447), metadata={op_type="ConcatV2" op_name="while/concat"}
}

%fused_computation.301.clone.clone (param_0.2143: f32[136,768]) -> f32[8,128] {
  %param_0.2143 = f32[136,768]{1,0:T(8,128)} parameter(0)
  ROOT %slice.800 = f32[8,128]{1,0:T(8,128)} slice(f32[136,768]{1,0:T(8,128)} %param_0.2143), slice={[128:136], [640:768]}, sharding={maximal device=0}, metadata={op_type="_RecvTPUEmbeddingActivations" op_name="while/RecvTPUEmbeddingActivations"}
}

%fused_computation.344.clone.clone (param_0.2144: u32[128]) -> f32[128,8] {
  %param_0.2144 = u32[128]{0:T(256)} parameter(0)
  %broadcast.2666 = u32[128,8]{0,1:T(8,128)} broadcast(u32[128]{0:T(256)} %param_0.2144), dimensions={0}, sharding={maximal device=0}, metadata={op_type="_RecvTPUEmbeddingActivations" op_name="while/RecvTPUEmbeddingActivations"}
  %iota.631 = u32[128,8]{0,1:T(8,128)} iota(), iota_dimension=1, sharding={maximal device=0}, metadata={op_type="_RecvTPUEmbeddingActivations" op_name="while/RecvTPUEmbeddingActivations"}
  %compare.729 = pred[128,8]{0,1:T(8,128)(4,1)} compare(u32[128,8]{0,1:T(8,128)} %broadcast.2666, u32[128,8]{0,1:T(8,128)} %iota.631), direction=EQ, sharding={maximal device=0}, metadata={op_type="_RecvTPUEmbeddingActivations" op_name="while/RecvTPUEmbeddingActivations"}
  %constant.2294 = f32[]{:T(256)} constant(1), sharding={maximal device=0}, metadata={op_type="_RecvTPUEmbeddingActivations" op_name="while/RecvTPUEmbeddingActivations"}
  %broadcast.2665 = f32[128,8]{0,1:T(8,128)} broadcast(f32[]{:T(256)} %constant.2294), dimensions={}, sharding={maximal device=0}, metadata={op_type="_RecvTPUEmbeddingActivations" op_name="while/RecvTPUEmbeddingActivations"}
  %constant.2293 = f32[]{:T(256)} constant(0), metadata={op_type="Select" op_name="while/training/gradients/while/Select_grad/Select_1"}
  %broadcast.2664 = f32[128,8]{0,1:T(8,128)} broadcast(f32[]{:T(256)} %constant.2293), dimensions={}, sharding={maximal device=0}, metadata={op_type="_RecvTPUEmbeddingActivations" op_name="while/RecvTPUEmbeddingActivations"}
  ROOT %select.612 = f32[128,8]{0,1:T(8,128)} select(pred[128,8]{0,1:T(8,128)(4,1)} %compare.729, f32[128,8]{0,1:T(8,128)} %broadcast.2665, f32[128,8]{0,1:T(8,128)} %broadcast.2664), sharding={maximal device=0}, metadata={op_type="_RecvTPUEmbeddingActivations" op_name="while/RecvTPUEmbeddingActivations"}
}

%fused_computation.124.clone.clone.clone (param_0.2145: f32[128], param_1.1528: f32[136,768], param_2.1412: u32[128]) -> f32[128,128] {
  %param_2.1412 = u32[128]{0:T(256)} parameter(2)
  %fusion.1257 = f32[128,8]{0,1:T(8,128)} fusion(u32[128]{0:T(256)} %param_2.1412), kind=kLoop, calls=%fused_computation.344.clone.clone, metadata={op_type="_RecvTPUEmbeddingActivations" op_name="while/RecvTPUEmbeddingActivations"}
  %param_1.1528 = f32[136,768]{1,0:T(8,128)} parameter(1)
  %fusion.1256 = f32[8,128]{1,0:T(8,128)} fusion(f32[136,768]{1,0:T(8,128)} %param_1.1528), kind=kLoop, calls=%fused_computation.301.clone.clone, metadata={op_type="_RecvTPUEmbeddingActivations" op_name="while/RecvTPUEmbeddingActivations"}
  %convolution.359 = f32[128,128]{1,0:T(8,128)} convolution(f32[128,8]{0,1:T(8,128)} %fusion.1257, f32[8,128]{1,0:T(8,128)} %fusion.1256), dim_labels=bf_io->bf, sharding={maximal device=0}, metadata={op_type="_RecvTPUEmbeddingActivations" op_name="while/RecvTPUEmbeddingActivations"}
  %param_0.2145 = f32[128]{0:T(256)} parameter(0)
  %broadcast.2667 = f32[128,128]{1,0:T(8,128)} broadcast(f32[128]{0:T(256)} %param_0.2145), dimensions={0}, sharding={maximal device=0}, metadata={op_type="_RecvTPUEmbeddingActivations" op_name="while/RecvTPUEmbeddingActivations"}
  ROOT %multiply.417 = f32[128,128]{1,0:T(8,128)} multiply(f32[128,128]{1,0:T(8,128)} %convolution.359, f32[128,128]{1,0:T(8,128)} %broadcast.2667), sharding={maximal device=0}, metadata={op_type="_RecvTPUEmbeddingActivations" op_name="while/RecvTPUEmbeddingActivations"}
}

%fused_computation.167.clone (param_0.2146: u32[128]) -> f32[128,128] {
  %param_0.2146 = u32[128]{0:T(256)} parameter(0)
  %broadcast.2670 = u32[128,128]{1,0:T(8,128)} broadcast(u32[128]{0:T(256)} %param_0.2146), dimensions={0}, sharding={maximal device=0}, metadata={op_type="_RecvTPUEmbeddingActivations" op_name="while/RecvTPUEmbeddingActivations"}
  %iota.632 = u32[128,128]{1,0:T(8,128)} iota(), iota_dimension=1, sharding={maximal device=0}, metadata={op_type="_RecvTPUEmbeddingActivations" op_name="while/RecvTPUEmbeddingActivations"}
  %compare.730 = pred[128,128]{1,0:T(8,128)(4,1)} compare(u32[128,128]{1,0:T(8,128)} %broadcast.2670, u32[128,128]{1,0:T(8,128)} %iota.632), direction=EQ, sharding={maximal device=0}, metadata={op_type="_RecvTPUEmbeddingActivations" op_name="while/RecvTPUEmbeddingActivations"}
  %constant.2296 = f32[]{:T(256)} constant(1), sharding={maximal device=0}, metadata={op_type="_RecvTPUEmbeddingActivations" op_name="while/RecvTPUEmbeddingActivations"}
  %broadcast.2669 = f32[128,128]{1,0:T(8,128)} broadcast(f32[]{:T(256)} %constant.2296), dimensions={}, sharding={maximal device=0}, metadata={op_type="_RecvTPUEmbeddingActivations" op_name="while/RecvTPUEmbeddingActivations"}
  %constant.2295 = f32[]{:T(256)} constant(0), metadata={op_type="Select" op_name="while/training/gradients/while/Select_grad/Select_1"}
  %broadcast.2668 = f32[128,128]{1,0:T(8,128)} broadcast(f32[]{:T(256)} %constant.2295), dimensions={}, metadata={op_name="while/bottom_mlp_layer_2/Relu"}
  ROOT %select.613 = f32[128,128]{1,0:T(8,128)} select(pred[128,128]{1,0:T(8,128)(4,1)} %compare.730, f32[128,128]{1,0:T(8,128)} %broadcast.2669, f32[128,128]{1,0:T(8,128)} %broadcast.2668), sharding={maximal device=0}, metadata={op_type="_RecvTPUEmbeddingActivations" op_name="while/RecvTPUEmbeddingActivations"}
}

%fused_computation.75.clone (param_0.2147: f32[136,768], param_1.1529: f32[128], param_2.1413: u32[128], param_3.860: u32[128]) -> bf16[128,1,128] {
  %param_0.2147 = f32[136,768]{1,0:T(8,128)} parameter(0)
  %slice.801 = f32[128,128]{1,0:T(8,128)} slice(f32[136,768]{1,0:T(8,128)} %param_0.2147), slice={[0:128], [640:768]}, sharding={maximal device=0}, metadata={op_type="_RecvTPUEmbeddingActivations" op_name="while/RecvTPUEmbeddingActivations"}
  %param_2.1413 = u32[128]{0:T(256)} parameter(2)
  %fusion.1259 = f32[128,128]{1,0:T(8,128)} fusion(u32[128]{0:T(256)} %param_2.1413), kind=kLoop, calls=%fused_computation.167.clone, metadata={op_type="_RecvTPUEmbeddingActivations" op_name="while/RecvTPUEmbeddingActivations"}
  %param_1.1529 = f32[128]{0:T(256)} parameter(1)
  %param_3.860 = u32[128]{0:T(256)} parameter(3)
  %fusion.1258 = f32[128,128]{1,0:T(8,128)} fusion(f32[128]{0:T(256)} %param_1.1529, f32[136,768]{1,0:T(8,128)} %param_0.2147, u32[128]{0:T(256)} %param_3.860), kind=kOutput, calls=%fused_computation.124.clone.clone.clone, sharding={maximal device=0}, metadata={op_type="_RecvTPUEmbeddingActivations" op_name="while/RecvTPUEmbeddingActivations"}
  %convolution.360 = f32[128,128]{1,0:T(8,128)} convolution(f32[128,128]{1,0:T(8,128)} %fusion.1259, f32[128,128]{1,0:T(8,128)} %fusion.1258), dim_labels=fb_io->bf, sharding={maximal device=0}, metadata={op_type="_RecvTPUEmbeddingActivations" op_name="while/RecvTPUEmbeddingActivations"}
  %add.448 = bf16[128,128]{1,0:T(8,128)(2,1)} add(f32[128,128]{1,0:T(8,128)} %slice.801, f32[128,128]{1,0:T(8,128)} %convolution.360), sharding={maximal device=0}, metadata={op_type="_RecvTPUEmbeddingActivations" op_name="while/RecvTPUEmbeddingActivations"}
  ROOT %bitcast.101 = bf16[128,1,128]{2,0,1:T(8,128)(2,1)} bitcast(bf16[128,128]{1,0:T(8,128)(2,1)} %add.448), metadata={op_type="ConcatV2" op_name="while/concat"}
}

%fused_computation.300.clone.clone (param_0.2148: f32[136,896]) -> f32[8,128] {
  %param_0.2148 = f32[136,896]{1,0:T(8,128)} parameter(0)
  ROOT %slice.802 = f32[8,128]{1,0:T(8,128)} slice(f32[136,896]{1,0:T(8,128)} %param_0.2148), slice={[128:136], [640:768]}, sharding={maximal device=0}, metadata={op_type="_RecvTPUEmbeddingActivations" op_name="while/RecvTPUEmbeddingActivations"}
}

%fused_computation.342.clone.clone (param_0.2149: u32[128]) -> f32[128,8] {
  %param_0.2149 = u32[128]{0:T(256)} parameter(0)
  %broadcast.2673 = u32[128,8]{0,1:T(8,128)} broadcast(u32[128]{0:T(256)} %param_0.2149), dimensions={0}, sharding={maximal device=0}, metadata={op_type="_RecvTPUEmbeddingActivations" op_name="while/RecvTPUEmbeddingActivations"}
  %iota.633 = u32[128,8]{0,1:T(8,128)} iota(), iota_dimension=1, sharding={maximal device=0}, metadata={op_type="_RecvTPUEmbeddingActivations" op_name="while/RecvTPUEmbeddingActivations"}
  %compare.731 = pred[128,8]{0,1:T(8,128)(4,1)} compare(u32[128,8]{0,1:T(8,128)} %broadcast.2673, u32[128,8]{0,1:T(8,128)} %iota.633), direction=EQ, sharding={maximal device=0}, metadata={op_type="_RecvTPUEmbeddingActivations" op_name="while/RecvTPUEmbeddingActivations"}
  %constant.2298 = f32[]{:T(256)} constant(1), sharding={maximal device=0}, metadata={op_type="_RecvTPUEmbeddingActivations" op_name="while/RecvTPUEmbeddingActivations"}
  %broadcast.2672 = f32[128,8]{0,1:T(8,128)} broadcast(f32[]{:T(256)} %constant.2298), dimensions={}, sharding={maximal device=0}, metadata={op_type="_RecvTPUEmbeddingActivations" op_name="while/RecvTPUEmbeddingActivations"}
  %constant.2297 = f32[]{:T(256)} constant(0), metadata={op_type="Select" op_name="while/training/gradients/while/Select_grad/Select_1"}
  %broadcast.2671 = f32[128,8]{0,1:T(8,128)} broadcast(f32[]{:T(256)} %constant.2297), dimensions={}, sharding={maximal device=0}, metadata={op_type="_RecvTPUEmbeddingActivations" op_name="while/RecvTPUEmbeddingActivations"}
  ROOT %select.614 = f32[128,8]{0,1:T(8,128)} select(pred[128,8]{0,1:T(8,128)(4,1)} %compare.731, f32[128,8]{0,1:T(8,128)} %broadcast.2672, f32[128,8]{0,1:T(8,128)} %broadcast.2671), sharding={maximal device=0}, metadata={op_type="_RecvTPUEmbeddingActivations" op_name="while/RecvTPUEmbeddingActivations"}
}

%fused_computation.123.clone.clone.clone (param_0.2150: f32[128], param_1.1530: f32[136,896], param_2.1414: u32[128]) -> f32[128,128] {
  %param_2.1414 = u32[128]{0:T(256)} parameter(2)
  %fusion.1262 = f32[128,8]{0,1:T(8,128)} fusion(u32[128]{0:T(256)} %param_2.1414), kind=kLoop, calls=%fused_computation.342.clone.clone, metadata={op_type="_RecvTPUEmbeddingActivations" op_name="while/RecvTPUEmbeddingActivations"}
  %param_1.1530 = f32[136,896]{1,0:T(8,128)} parameter(1)
  %fusion.1261 = f32[8,128]{1,0:T(8,128)} fusion(f32[136,896]{1,0:T(8,128)} %param_1.1530), kind=kLoop, calls=%fused_computation.300.clone.clone, metadata={op_type="_RecvTPUEmbeddingActivations" op_name="while/RecvTPUEmbeddingActivations"}
  %convolution.361 = f32[128,128]{1,0:T(8,128)} convolution(f32[128,8]{0,1:T(8,128)} %fusion.1262, f32[8,128]{1,0:T(8,128)} %fusion.1261), dim_labels=bf_io->bf, sharding={maximal device=0}, metadata={op_type="_RecvTPUEmbeddingActivations" op_name="while/RecvTPUEmbeddingActivations"}
  %param_0.2150 = f32[128]{0:T(256)} parameter(0)
  %broadcast.2674 = f32[128,128]{1,0:T(8,128)} broadcast(f32[128]{0:T(256)} %param_0.2150), dimensions={0}, sharding={maximal device=0}, metadata={op_type="_RecvTPUEmbeddingActivations" op_name="while/RecvTPUEmbeddingActivations"}
  ROOT %multiply.418 = f32[128,128]{1,0:T(8,128)} multiply(f32[128,128]{1,0:T(8,128)} %convolution.361, f32[128,128]{1,0:T(8,128)} %broadcast.2674), sharding={maximal device=0}, metadata={op_type="_RecvTPUEmbeddingActivations" op_name="while/RecvTPUEmbeddingActivations"}
}

%fused_computation.165.clone (param_0.2151: u32[128]) -> f32[128,128] {
  %param_0.2151 = u32[128]{0:T(256)} parameter(0)
  %broadcast.2677 = u32[128,128]{1,0:T(8,128)} broadcast(u32[128]{0:T(256)} %param_0.2151), dimensions={0}, sharding={maximal device=0}, metadata={op_type="_RecvTPUEmbeddingActivations" op_name="while/RecvTPUEmbeddingActivations"}
  %iota.634 = u32[128,128]{1,0:T(8,128)} iota(), iota_dimension=1, sharding={maximal device=0}, metadata={op_type="_RecvTPUEmbeddingActivations" op_name="while/RecvTPUEmbeddingActivations"}
  %compare.732 = pred[128,128]{1,0:T(8,128)(4,1)} compare(u32[128,128]{1,0:T(8,128)} %broadcast.2677, u32[128,128]{1,0:T(8,128)} %iota.634), direction=EQ, sharding={maximal device=0}, metadata={op_type="_RecvTPUEmbeddingActivations" op_name="while/RecvTPUEmbeddingActivations"}
  %constant.2300 = f32[]{:T(256)} constant(1), sharding={maximal device=0}, metadata={op_type="_RecvTPUEmbeddingActivations" op_name="while/RecvTPUEmbeddingActivations"}
  %broadcast.2676 = f32[128,128]{1,0:T(8,128)} broadcast(f32[]{:T(256)} %constant.2300), dimensions={}, sharding={maximal device=0}, metadata={op_type="_RecvTPUEmbeddingActivations" op_name="while/RecvTPUEmbeddingActivations"}
  %constant.2299 = f32[]{:T(256)} constant(0), metadata={op_type="Select" op_name="while/training/gradients/while/Select_grad/Select_1"}
  %broadcast.2675 = f32[128,128]{1,0:T(8,128)} broadcast(f32[]{:T(256)} %constant.2299), dimensions={}, metadata={op_name="while/bottom_mlp_layer_2/Relu"}
  ROOT %select.615 = f32[128,128]{1,0:T(8,128)} select(pred[128,128]{1,0:T(8,128)(4,1)} %compare.732, f32[128,128]{1,0:T(8,128)} %broadcast.2676, f32[128,128]{1,0:T(8,128)} %broadcast.2675), sharding={maximal device=0}, metadata={op_type="_RecvTPUEmbeddingActivations" op_name="while/RecvTPUEmbeddingActivations"}
}

%fused_computation.73.clone (param_0.2152: f32[136,896], param_1.1531: f32[128], param_2.1415: u32[128], param_3.861: u32[128]) -> bf16[128,1,128] {
  %param_0.2152 = f32[136,896]{1,0:T(8,128)} parameter(0)
  %slice.803 = f32[128,128]{1,0:T(8,128)} slice(f32[136,896]{1,0:T(8,128)} %param_0.2152), slice={[0:128], [640:768]}, sharding={maximal device=0}, metadata={op_type="_RecvTPUEmbeddingActivations" op_name="while/RecvTPUEmbeddingActivations"}
  %param_2.1415 = u32[128]{0:T(256)} parameter(2)
  %fusion.1264 = f32[128,128]{1,0:T(8,128)} fusion(u32[128]{0:T(256)} %param_2.1415), kind=kLoop, calls=%fused_computation.165.clone, metadata={op_type="_RecvTPUEmbeddingActivations" op_name="while/RecvTPUEmbeddingActivations"}
  %param_1.1531 = f32[128]{0:T(256)} parameter(1)
  %param_3.861 = u32[128]{0:T(256)} parameter(3)
  %fusion.1263 = f32[128,128]{1,0:T(8,128)} fusion(f32[128]{0:T(256)} %param_1.1531, f32[136,896]{1,0:T(8,128)} %param_0.2152, u32[128]{0:T(256)} %param_3.861), kind=kOutput, calls=%fused_computation.123.clone.clone.clone, sharding={maximal device=0}, metadata={op_type="_RecvTPUEmbeddingActivations" op_name="while/RecvTPUEmbeddingActivations"}
  %convolution.362 = f32[128,128]{1,0:T(8,128)} convolution(f32[128,128]{1,0:T(8,128)} %fusion.1264, f32[128,128]{1,0:T(8,128)} %fusion.1263), dim_labels=fb_io->bf, sharding={maximal device=0}, metadata={op_type="_RecvTPUEmbeddingActivations" op_name="while/RecvTPUEmbeddingActivations"}
  %add.449 = bf16[128,128]{1,0:T(8,128)(2,1)} add(f32[128,128]{1,0:T(8,128)} %slice.803, f32[128,128]{1,0:T(8,128)} %convolution.362), sharding={maximal device=0}, metadata={op_type="_RecvTPUEmbeddingActivations" op_name="while/RecvTPUEmbeddingActivations"}
  ROOT %bitcast.102 = bf16[128,1,128]{2,0,1:T(8,128)(2,1)} bitcast(bf16[128,128]{1,0:T(8,128)(2,1)} %add.449), metadata={op_type="ConcatV2" op_name="while/concat"}
}

%fused_computation.299.clone.clone (param_0.2153: f32[136,896]) -> f32[8,128] {
  %param_0.2153 = f32[136,896]{1,0:T(8,128)} parameter(0)
  ROOT %slice.804 = f32[8,128]{1,0:T(8,128)} slice(f32[136,896]{1,0:T(8,128)} %param_0.2153), slice={[128:136], [768:896]}, sharding={maximal device=0}, metadata={op_type="_RecvTPUEmbeddingActivations" op_name="while/RecvTPUEmbeddingActivations"}
}

%fused_computation.340.clone.clone (param_0.2154: u32[128]) -> f32[128,8] {
  %param_0.2154 = u32[128]{0:T(256)} parameter(0)
  %broadcast.2680 = u32[128,8]{0,1:T(8,128)} broadcast(u32[128]{0:T(256)} %param_0.2154), dimensions={0}, sharding={maximal device=0}, metadata={op_type="_RecvTPUEmbeddingActivations" op_name="while/RecvTPUEmbeddingActivations"}
  %iota.635 = u32[128,8]{0,1:T(8,128)} iota(), iota_dimension=1, sharding={maximal device=0}, metadata={op_type="_RecvTPUEmbeddingActivations" op_name="while/RecvTPUEmbeddingActivations"}
  %compare.733 = pred[128,8]{0,1:T(8,128)(4,1)} compare(u32[128,8]{0,1:T(8,128)} %broadcast.2680, u32[128,8]{0,1:T(8,128)} %iota.635), direction=EQ, sharding={maximal device=0}, metadata={op_type="_RecvTPUEmbeddingActivations" op_name="while/RecvTPUEmbeddingActivations"}
  %constant.2302 = f32[]{:T(256)} constant(1), sharding={maximal device=0}, metadata={op_type="_RecvTPUEmbeddingActivations" op_name="while/RecvTPUEmbeddingActivations"}
  %broadcast.2679 = f32[128,8]{0,1:T(8,128)} broadcast(f32[]{:T(256)} %constant.2302), dimensions={}, sharding={maximal device=0}, metadata={op_type="_RecvTPUEmbeddingActivations" op_name="while/RecvTPUEmbeddingActivations"}
  %constant.2301 = f32[]{:T(256)} constant(0), metadata={op_type="Select" op_name="while/training/gradients/while/Select_grad/Select_1"}
  %broadcast.2678 = f32[128,8]{0,1:T(8,128)} broadcast(f32[]{:T(256)} %constant.2301), dimensions={}, sharding={maximal device=0}, metadata={op_type="_RecvTPUEmbeddingActivations" op_name="while/RecvTPUEmbeddingActivations"}
  ROOT %select.616 = f32[128,8]{0,1:T(8,128)} select(pred[128,8]{0,1:T(8,128)(4,1)} %compare.733, f32[128,8]{0,1:T(8,128)} %broadcast.2679, f32[128,8]{0,1:T(8,128)} %broadcast.2678), sharding={maximal device=0}, metadata={op_type="_RecvTPUEmbeddingActivations" op_name="while/RecvTPUEmbeddingActivations"}
}

%fused_computation.122.clone.clone.clone (param_0.2155: f32[128], param_1.1532: f32[136,896], param_2.1416: u32[128]) -> f32[128,128] {
  %param_2.1416 = u32[128]{0:T(256)} parameter(2)
  %fusion.1267 = f32[128,8]{0,1:T(8,128)} fusion(u32[128]{0:T(256)} %param_2.1416), kind=kLoop, calls=%fused_computation.340.clone.clone, metadata={op_type="_RecvTPUEmbeddingActivations" op_name="while/RecvTPUEmbeddingActivations"}
  %param_1.1532 = f32[136,896]{1,0:T(8,128)} parameter(1)
  %fusion.1266 = f32[8,128]{1,0:T(8,128)} fusion(f32[136,896]{1,0:T(8,128)} %param_1.1532), kind=kLoop, calls=%fused_computation.299.clone.clone, metadata={op_type="_RecvTPUEmbeddingActivations" op_name="while/RecvTPUEmbeddingActivations"}
  %convolution.363 = f32[128,128]{1,0:T(8,128)} convolution(f32[128,8]{0,1:T(8,128)} %fusion.1267, f32[8,128]{1,0:T(8,128)} %fusion.1266), dim_labels=bf_io->bf, sharding={maximal device=0}, metadata={op_type="_RecvTPUEmbeddingActivations" op_name="while/RecvTPUEmbeddingActivations"}
  %param_0.2155 = f32[128]{0:T(256)} parameter(0)
  %broadcast.2681 = f32[128,128]{1,0:T(8,128)} broadcast(f32[128]{0:T(256)} %param_0.2155), dimensions={0}, sharding={maximal device=0}, metadata={op_type="_RecvTPUEmbeddingActivations" op_name="while/RecvTPUEmbeddingActivations"}
  ROOT %multiply.419 = f32[128,128]{1,0:T(8,128)} multiply(f32[128,128]{1,0:T(8,128)} %convolution.363, f32[128,128]{1,0:T(8,128)} %broadcast.2681), sharding={maximal device=0}, metadata={op_type="_RecvTPUEmbeddingActivations" op_name="while/RecvTPUEmbeddingActivations"}
}

%fused_computation.163.clone (param_0.2156: u32[128]) -> f32[128,128] {
  %param_0.2156 = u32[128]{0:T(256)} parameter(0)
  %broadcast.2684 = u32[128,128]{1,0:T(8,128)} broadcast(u32[128]{0:T(256)} %param_0.2156), dimensions={0}, sharding={maximal device=0}, metadata={op_type="_RecvTPUEmbeddingActivations" op_name="while/RecvTPUEmbeddingActivations"}
  %iota.636 = u32[128,128]{1,0:T(8,128)} iota(), iota_dimension=1, sharding={maximal device=0}, metadata={op_type="_RecvTPUEmbeddingActivations" op_name="while/RecvTPUEmbeddingActivations"}
  %compare.734 = pred[128,128]{1,0:T(8,128)(4,1)} compare(u32[128,128]{1,0:T(8,128)} %broadcast.2684, u32[128,128]{1,0:T(8,128)} %iota.636), direction=EQ, sharding={maximal device=0}, metadata={op_type="_RecvTPUEmbeddingActivations" op_name="while/RecvTPUEmbeddingActivations"}
  %constant.2304 = f32[]{:T(256)} constant(1), sharding={maximal device=0}, metadata={op_type="_RecvTPUEmbeddingActivations" op_name="while/RecvTPUEmbeddingActivations"}
  %broadcast.2683 = f32[128,128]{1,0:T(8,128)} broadcast(f32[]{:T(256)} %constant.2304), dimensions={}, sharding={maximal device=0}, metadata={op_type="_RecvTPUEmbeddingActivations" op_name="while/RecvTPUEmbeddingActivations"}
  %constant.2303 = f32[]{:T(256)} constant(0), metadata={op_type="Select" op_name="while/training/gradients/while/Select_grad/Select_1"}
  %broadcast.2682 = f32[128,128]{1,0:T(8,128)} broadcast(f32[]{:T(256)} %constant.2303), dimensions={}, metadata={op_name="while/bottom_mlp_layer_2/Relu"}
  ROOT %select.617 = f32[128,128]{1,0:T(8,128)} select(pred[128,128]{1,0:T(8,128)(4,1)} %compare.734, f32[128,128]{1,0:T(8,128)} %broadcast.2683, f32[128,128]{1,0:T(8,128)} %broadcast.2682), sharding={maximal device=0}, metadata={op_type="_RecvTPUEmbeddingActivations" op_name="while/RecvTPUEmbeddingActivations"}
}

%fused_computation.71.clone (param_0.2157: f32[136,896], param_1.1533: f32[128], param_2.1417: u32[128], param_3.862: u32[128]) -> bf16[128,1,128] {
  %param_0.2157 = f32[136,896]{1,0:T(8,128)} parameter(0)
  %slice.805 = f32[128,128]{1,0:T(8,128)} slice(f32[136,896]{1,0:T(8,128)} %param_0.2157), slice={[0:128], [768:896]}, sharding={maximal device=0}, metadata={op_type="_RecvTPUEmbeddingActivations" op_name="while/RecvTPUEmbeddingActivations"}
  %param_2.1417 = u32[128]{0:T(256)} parameter(2)
  %fusion.1269 = f32[128,128]{1,0:T(8,128)} fusion(u32[128]{0:T(256)} %param_2.1417), kind=kLoop, calls=%fused_computation.163.clone, metadata={op_type="_RecvTPUEmbeddingActivations" op_name="while/RecvTPUEmbeddingActivations"}
  %param_1.1533 = f32[128]{0:T(256)} parameter(1)
  %param_3.862 = u32[128]{0:T(256)} parameter(3)
  %fusion.1268 = f32[128,128]{1,0:T(8,128)} fusion(f32[128]{0:T(256)} %param_1.1533, f32[136,896]{1,0:T(8,128)} %param_0.2157, u32[128]{0:T(256)} %param_3.862), kind=kOutput, calls=%fused_computation.122.clone.clone.clone, sharding={maximal device=0}, metadata={op_type="_RecvTPUEmbeddingActivations" op_name="while/RecvTPUEmbeddingActivations"}
  %convolution.364 = f32[128,128]{1,0:T(8,128)} convolution(f32[128,128]{1,0:T(8,128)} %fusion.1269, f32[128,128]{1,0:T(8,128)} %fusion.1268), dim_labels=fb_io->bf, sharding={maximal device=0}, metadata={op_type="_RecvTPUEmbeddingActivations" op_name="while/RecvTPUEmbeddingActivations"}
  %add.450 = bf16[128,128]{1,0:T(8,128)(2,1)} add(f32[128,128]{1,0:T(8,128)} %slice.805, f32[128,128]{1,0:T(8,128)} %convolution.364), sharding={maximal device=0}, metadata={op_type="_RecvTPUEmbeddingActivations" op_name="while/RecvTPUEmbeddingActivations"}
  ROOT %bitcast.103 = bf16[128,1,128]{2,0,1:T(8,128)(2,1)} bitcast(bf16[128,128]{1,0:T(8,128)(2,1)} %add.450), metadata={op_type="ConcatV2" op_name="while/concat"}
}

%fused_computation.17.clone (param_0.2158: bf16[128,13,128], param_1.1534: bf16[128,14,128]) -> bf16[128,27,128] {
  %param_1.1534 = bf16[128,14,128]{2,0,1:T(8,128)(2,1)} parameter(1)
  %constant.2305 = f32[]{:T(256)} constant(-inf)
  %pad.144 = bf16[128,27,128]{2,0,1:T(8,128)(2,1)} pad(bf16[128,14,128]{2,0,1:T(8,128)(2,1)} %param_1.1534, f32[]{:T(256)} %constant.2305), padding=0_0x0_13x0_0, metadata={op_type="ConcatV2" op_name="while/concat_1"}
  %param_0.2158 = bf16[128,13,128]{2,0,1:T(8,128)(2,1)} parameter(0)
  %pad.143 = bf16[128,27,128]{2,0,1:T(8,128)(2,1)} pad(bf16[128,13,128]{2,0,1:T(8,128)(2,1)} %param_0.2158, f32[]{:T(256)} %constant.2305), padding=0_0x14_0x0_0, metadata={op_type="ConcatV2" op_name="while/concat_1"}
  ROOT %maximum.145 = bf16[128,27,128]{2,0,1:T(8,128)(2,1)} maximum(bf16[128,27,128]{2,0,1:T(8,128)(2,1)} %pad.144, bf16[128,27,128]{2,0,1:T(8,128)(2,1)} %pad.143), metadata={op_type="ConcatV2" op_name="while/concat_1"}
}

%fused_computation.13.clone.clone.clone (param_0.2159: bf16[128,27,128]) -> bf16[128,27,128] {
  %param_0.2159 = bf16[128,27,128]{2,0,1:T(8,128)(2,1)} parameter(0)
  ROOT %copy.150 = bf16[128,27,128]{2,1,0:T(8,128)(2,1)} copy(bf16[128,27,128]{2,0,1:T(8,128)(2,1)} %param_0.2159), metadata={op_type="ConcatV2" op_name="while/concat_1"}
}

%fused_computation.14.clone (param_0.2160: pred[128,27,27], param_1.1535: bf16[128,27,128]) -> bf16[128,27,27] {
  %param_0.2160 = pred[128,27,27]{2,1,0:T(8,128)(4,1)} parameter(0)
  %constant.2306 = f32[]{:T(256)} constant(0), metadata={op_type="Select" op_name="while/training/gradients/while/Select_grad/Select_1"}
  %broadcast.2685 = f32[128,27,27]{2,1,0:T(8,128)} broadcast(f32[]{:T(256)} %constant.2306), dimensions={}, metadata={op_type="Select" op_name="while/training/gradients/while/Select_grad/Select_1"}
  %param_1.1535 = bf16[128,27,128]{2,0,1:T(8,128)(2,1)} parameter(1)
  %fusion.1272 = bf16[128,27,128]{2,1,0:T(8,128)(2,1)} fusion(bf16[128,27,128]{2,0,1:T(8,128)(2,1)} %param_1.1535), kind=kLoop, calls=%fused_computation.13.clone.clone.clone, metadata={op_type="ConcatV2" op_name="while/concat_1"}
  %convolution-base-dilated.12 = bf16[128,27,27]{2,1,0:T(8,128)(2,1)} convolution(bf16[128,27,128]{2,1,0:T(8,128)(2,1)} %fusion.1272, bf16[128,27,128]{2,1,0:T(8,128)(2,1)} %fusion.1272), window={size=128 stride=127 lhs_dilate=128}, dim_labels=0bf_0oi->0bf, metadata={op_type="BatchMatMulV2" op_name="while/MatMul"}
  ROOT %select.618 = bf16[128,27,27]{2,1,0:T(8,128)(2,1)} select(pred[128,27,27]{2,1,0:T(8,128)(4,1)} %param_0.2160, f32[128,27,27]{2,1,0:T(8,128)} %broadcast.2685, bf16[128,27,27]{2,1,0:T(8,128)(2,1)} %convolution-base-dilated.12), metadata={op_name="while/Select"}
}

%fused_computation.26.clone.1.clone (param_0.2161: bf16[128,729], param_1.1536: bf16[128,128]) -> bf16[128,857] {
  %param_1.1536 = bf16[128,128]{0,1:T(8,128)(2,1)} parameter(1)
  %constant.2307 = f32[]{:T(256)} constant(-inf)
  %pad.146 = bf16[128,857]{0,1:T(8,128)(2,1)} pad(bf16[128,128]{0,1:T(8,128)(2,1)} %param_1.1536, f32[]{:T(256)} %constant.2307), padding=0_0x0_729, metadata={op_type="ConcatV2" op_name="while/concat_2"}
  %param_0.2161 = bf16[128,729]{0,1:T(8,128)(2,1)} parameter(0)
  %pad.145 = bf16[128,857]{0,1:T(8,128)(2,1)} pad(bf16[128,729]{0,1:T(8,128)(2,1)} %param_0.2161, f32[]{:T(256)} %constant.2307), padding=0_0x128_0, metadata={op_type="ConcatV2" op_name="while/concat_2"}
  ROOT %maximum.146 = bf16[128,857]{0,1:T(8,128)(2,1)} maximum(bf16[128,857]{0,1:T(8,128)(2,1)} %pad.146, bf16[128,857]{0,1:T(8,128)(2,1)} %pad.145), metadata={op_type="ConcatV2" op_name="while/concat_2"}
}

%fused_computation.23.clone (param_0.2162: f32[857,1024], param_1.1537: bf16[128,729], param_2.1418: bf16[128,128], param_3.863: f32[1024]) -> f32[128,1024] {
  %param_1.1537 = bf16[128,729]{0,1:T(8,128)(2,1)} parameter(1)
  %param_2.1418 = bf16[128,128]{0,1:T(8,128)(2,1)} parameter(2)
  %fusion.1274 = bf16[128,857]{0,1:T(8,128)(2,1)} fusion(bf16[128,729]{0,1:T(8,128)(2,1)} %param_1.1537, bf16[128,128]{0,1:T(8,128)(2,1)} %param_2.1418), kind=kLoop, calls=%fused_computation.26.clone.1.clone, metadata={op_type="ConcatV2" op_name="while/concat_2"}
  %param_0.2162 = f32[857,1024]{1,0:T(8,128)} parameter(0)
  %convolution.365 = f32[128,1024]{1,0:T(8,128)} convolution(bf16[128,857]{0,1:T(8,128)(2,1)} %fusion.1274, f32[857,1024]{1,0:T(8,128)} %param_0.2162), dim_labels=bf_io->bf, metadata={op_type="MatMul" op_name="while/top_mlp_layer_0/MatMul"}
  %param_3.863 = f32[1024]{0:T(1024)} parameter(3)
  %broadcast.2687 = f32[128,1024]{1,0:T(8,128)} broadcast(f32[1024]{0:T(1024)} %param_3.863), dimensions={1}, metadata={op_type="BiasAdd" op_name="while/top_mlp_layer_0/BiasAdd"}
  %add.451 = f32[128,1024]{1,0:T(8,128)} add(f32[128,1024]{1,0:T(8,128)} %convolution.365, f32[128,1024]{1,0:T(8,128)} %broadcast.2687), metadata={op_type="BiasAdd" op_name="while/top_mlp_layer_0/BiasAdd"}
  %constant.2308 = f32[]{:T(256)} constant(0), metadata={op_type="Select" op_name="while/training/gradients/while/Select_grad/Select_1"}
  %broadcast.2686 = f32[128,1024]{1,0:T(8,128)} broadcast(f32[]{:T(256)} %constant.2308), dimensions={}, metadata={op_name="while/top_mlp_layer_0/Relu"}
  ROOT %maximum.147 = f32[128,1024]{1,0:T(8,128)} maximum(f32[128,1024]{1,0:T(8,128)} %add.451, f32[128,1024]{1,0:T(8,128)} %broadcast.2686), metadata={op_name="while/top_mlp_layer_0/Relu"}
}

%fused_computation.21.clone (param_0.2163: f32[128,1024], param_1.1538: f32[1024,1024], param_2.1419: f32[1024]) -> f32[128,1024] {
  %param_0.2163 = f32[128,1024]{1,0:T(8,128)} parameter(0)
  %param_1.1538 = f32[1024,1024]{1,0:T(8,128)} parameter(1)
  %convolution.366 = f32[128,1024]{1,0:T(8,128)} convolution(f32[128,1024]{1,0:T(8,128)} %param_0.2163, f32[1024,1024]{1,0:T(8,128)} %param_1.1538), dim_labels=bf_io->bf, metadata={op_type="MatMul" op_name="while/top_mlp_layer_1/MatMul"}
  %param_2.1419 = f32[1024]{0:T(1024)} parameter(2)
  %broadcast.2689 = f32[128,1024]{1,0:T(8,128)} broadcast(f32[1024]{0:T(1024)} %param_2.1419), dimensions={1}, metadata={op_type="BiasAdd" op_name="while/top_mlp_layer_1/BiasAdd"}
  %add.452 = f32[128,1024]{1,0:T(8,128)} add(f32[128,1024]{1,0:T(8,128)} %convolution.366, f32[128,1024]{1,0:T(8,128)} %broadcast.2689), metadata={op_type="BiasAdd" op_name="while/top_mlp_layer_1/BiasAdd"}
  %constant.2309 = f32[]{:T(256)} constant(0), metadata={op_type="Select" op_name="while/training/gradients/while/Select_grad/Select_1"}
  %broadcast.2688 = f32[128,1024]{1,0:T(8,128)} broadcast(f32[]{:T(256)} %constant.2309), dimensions={}, metadata={op_name="while/top_mlp_layer_0/Relu"}
  ROOT %maximum.148 = f32[128,1024]{1,0:T(8,128)} maximum(f32[128,1024]{1,0:T(8,128)} %add.452, f32[128,1024]{1,0:T(8,128)} %broadcast.2688), metadata={op_name="while/top_mlp_layer_1/Relu"}
}

%fused_computation.32.clone (param_0.2164: f32[128,1024], param_1.1539: f32[1024,512], param_2.1420: f32[512]) -> f32[128,512] {
  %param_0.2164 = f32[128,1024]{1,0:T(8,128)} parameter(0)
  %param_1.1539 = f32[1024,512]{1,0:T(8,128)} parameter(1)
  %convolution.367 = f32[128,512]{1,0:T(8,128)} convolution(f32[128,1024]{1,0:T(8,128)} %param_0.2164, f32[1024,512]{1,0:T(8,128)} %param_1.1539), dim_labels=bf_io->bf, metadata={op_type="MatMul" op_name="while/top_mlp_layer_2/MatMul"}
  %param_2.1420 = f32[512]{0:T(512)} parameter(2)
  %broadcast.2691 = f32[128,512]{1,0:T(8,128)} broadcast(f32[512]{0:T(512)} %param_2.1420), dimensions={1}, metadata={op_type="BiasAdd" op_name="while/top_mlp_layer_2/BiasAdd"}
  %add.453 = f32[128,512]{1,0:T(8,128)} add(f32[128,512]{1,0:T(8,128)} %convolution.367, f32[128,512]{1,0:T(8,128)} %broadcast.2691), metadata={op_type="BiasAdd" op_name="while/top_mlp_layer_2/BiasAdd"}
  %constant.2310 = f32[]{:T(256)} constant(0), metadata={op_type="Select" op_name="while/training/gradients/while/Select_grad/Select_1"}
  %broadcast.2690 = f32[128,512]{1,0:T(8,128)} broadcast(f32[]{:T(256)} %constant.2310), dimensions={}, metadata={op_name="while/bottom_mlp_layer_0/Relu"}
  ROOT %maximum.149 = f32[128,512]{1,0:T(8,128)} maximum(f32[128,512]{1,0:T(8,128)} %add.453, f32[128,512]{1,0:T(8,128)} %broadcast.2690), metadata={op_name="while/top_mlp_layer_2/Relu"}
}

%scalar_add_computation (scalar_lhs: f32[], scalar_rhs: f32[]) -> f32[] {
  %scalar_rhs = f32[]{:T(256)} parameter(1)
  %scalar_lhs = f32[]{:T(256)} parameter(0)
  ROOT %add.181 = f32[]{:T(256)} add(f32[]{:T(256)} %scalar_lhs, f32[]{:T(256)} %scalar_rhs)
}

%fused_computation.58.clone (param_0.2165: f32[256], param_1.1540: f32[256], param_2.1421: f32[128,512], param_3.864: f32[512,256]) -> (f32[128], f32[128,256]) {
  %param_2.1421 = f32[128,512]{1,0:T(8,128)} parameter(2)
  %param_3.864 = f32[512,256]{1,0:T(8,128)} parameter(3)
  %convolution.368 = f32[128,256]{1,0:T(8,128)} convolution(f32[128,512]{1,0:T(8,128)} %param_2.1421, f32[512,256]{1,0:T(8,128)} %param_3.864), dim_labels=bf_io->bf, metadata={op_type="MatMul" op_name="while/top_mlp_layer_3/MatMul"}
  %param_1.1540 = f32[256]{0:T(256)} parameter(1)
  %broadcast.2694 = f32[128,256]{1,0:T(8,128)} broadcast(f32[256]{0:T(256)} %param_1.1540), dimensions={1}, metadata={op_type="BiasAdd" op_name="while/top_mlp_layer_3/BiasAdd"}
  %add.454 = f32[128,256]{1,0:T(8,128)} add(f32[128,256]{1,0:T(8,128)} %convolution.368, f32[128,256]{1,0:T(8,128)} %broadcast.2694), metadata={op_type="BiasAdd" op_name="while/top_mlp_layer_3/BiasAdd"}
  %constant.2311 = f32[]{:T(256)} constant(0), metadata={op_type="Select" op_name="while/training/gradients/while/Select_grad/Select_1"}
  %broadcast.2693 = f32[128,256]{1,0:T(8,128)} broadcast(f32[]{:T(256)} %constant.2311), dimensions={}, metadata={op_name="while/bottom_mlp_layer_1/Relu"}
  %maximum.150 = f32[128,256]{1,0:T(8,128)} maximum(f32[128,256]{1,0:T(8,128)} %add.454, f32[128,256]{1,0:T(8,128)} %broadcast.2693), metadata={op_name="while/top_mlp_layer_3/Relu"}
  %param_0.2165 = f32[256]{0:T(256)} parameter(0)
  %broadcast.2692 = f32[128,256]{1,0:T(8,128)} broadcast(f32[256]{0:T(256)} %param_0.2165), dimensions={1}
  %multiply.420 = f32[128,256]{1,0:T(8,128)} multiply(f32[128,256]{1,0:T(8,128)} %maximum.150, f32[128,256]{1,0:T(8,128)} %broadcast.2692)
  %reduce.38 = f32[128]{0:T(256)} reduce(f32[128,256]{1,0:T(8,128)} %multiply.420, f32[]{:T(256)} %constant.2311), dimensions={1}, to_apply=%scalar_add_computation
  ROOT %tuple.346 = (f32[128]{0:T(256)}, f32[128,256]{1,0:T(8,128)}) tuple(f32[128]{0:T(256)} %reduce.38, f32[128,256]{1,0:T(8,128)} %convolution.368)
}

%region_0.100 (Arg_0.101: f32[], Arg_1.102: f32[]) -> f32[] {
  %Arg_1.102 = f32[]{:T(256)} parameter(1)
  %Arg_0.101 = f32[]{:T(256)} parameter(0)
  ROOT %add.13 = f32[]{:T(256)} add(f32[]{:T(256)} %Arg_0.101, f32[]{:T(256)} %Arg_1.102), metadata={op_name="while/training/gradients/while/top_mlp_layer_4/BiasAdd_grad/BiasAddGrad"}
}

%fused_computation.765.clone (param_0.2166: f32[128], param_1.1541: f32[128], param_2.1422: f32[]) -> (f32[], f32[128,1]) {
  %param_1.1541 = f32[128]{0:T(256)} parameter(1)
  %param_2.1422 = f32[]{:T(256)} parameter(2)
  %broadcast.2696 = f32[128]{0:T(256)} broadcast(f32[]{:T(256)} %param_2.1422), dimensions={}, metadata={op_type="BiasAdd" op_name="while/top_mlp_layer_4/BiasAdd"}
  %add.455 = f32[128]{0:T(256)} add(f32[128]{0:T(256)} %param_1.1541, f32[128]{0:T(256)} %broadcast.2696), metadata={op_type="BiasAdd" op_name="while/top_mlp_layer_4/BiasAdd"}
  %bitcast.105 = f32[128,1]{0,1:T(2,128)} bitcast(f32[128]{0:T(256)} %add.455), metadata={op_type="BiasAdd" op_name="while/top_mlp_layer_4/BiasAdd"}
  %constant.2312 = f32[]{:T(256)} constant(0), metadata={op_type="Select" op_name="while/training/gradients/while/Select_grad/Select_1"}
  %broadcast.2695 = f32[128,1]{0,1:T(2,128)} broadcast(f32[]{:T(256)} %constant.2312), dimensions={}, metadata={op_type="Const" op_name="while/binary_crossentropy/logistic_loss/zeros_like"}
  %compare.735 = pred[128,1]{0,1:T(8,128)(4,1)} compare(f32[128,1]{0,1:T(2,128)} %bitcast.105, f32[128,1]{0,1:T(2,128)} %broadcast.2695), direction=GE, metadata={op_type="GreaterEqual" op_name="while/binary_crossentropy/logistic_loss/GreaterEqual"}
  %constant.2314 = f32[]{:T(256)} constant(0.000122070312), metadata={op_type="Select" op_name="while/training/gradients/while/binary_crossentropy/logistic_loss/Select_grad/Select"}
  %broadcast.2698 = f32[128,1]{0,1:T(2,128)} broadcast(f32[]{:T(256)} %constant.2314), dimensions={}, metadata={op_type="Select" op_name="while/training/gradients/while/binary_crossentropy/logistic_loss/Select_grad/Select"}
  %select.622 = f32[128,1]{0,1:T(2,128)} select(pred[128,1]{0,1:T(8,128)(4,1)} %compare.735, f32[128,1]{0,1:T(2,128)} %broadcast.2698, f32[128,1]{0,1:T(2,128)} %broadcast.2695), metadata={op_name="while/training/gradients/while/binary_crossentropy/logistic_loss/Select_grad/Select"}
  %constant.2315 = f32[]{:T(256)} constant(-0.000122070312), metadata={op_type="Mul" op_name="while/training/gradients/while/binary_crossentropy/logistic_loss/mul_grad/Mul"}
  %broadcast.2699 = f32[128,1]{0,1:T(2,128)} broadcast(f32[]{:T(256)} %constant.2315), dimensions={}, metadata={op_type="Mul" op_name="while/training/gradients/while/binary_crossentropy/logistic_loss/mul_grad/Mul"}
  %param_0.2166 = f32[128]{0:T(256)} parameter(0)
  %bitcast.106 = f32[128,1]{0,1:T(2,128)} bitcast(f32[128]{0:T(256)} %param_0.2166), metadata={op_type="InfeedDequeueTuple" op_name="while/InfeedQueue/dequeue"}
  %multiply.423 = f32[128,1]{0,1:T(2,128)} multiply(f32[128,1]{0,1:T(2,128)} %broadcast.2699, f32[128,1]{0,1:T(2,128)} %bitcast.106), metadata={op_type="Mul" op_name="while/training/gradients/while/binary_crossentropy/logistic_loss/mul_grad/Mul"}
  %add.457 = f32[128,1]{0,1:T(2,128)} add(f32[128,1]{0,1:T(2,128)} %select.622, f32[128,1]{0,1:T(2,128)} %multiply.423), metadata={op_type="AddN" op_name="while/training/gradients/AddN"}
  %constant.2313 = f32[]{:T(256)} constant(1), sharding={maximal device=0}, metadata={op_type="_RecvTPUEmbeddingActivations" op_name="while/RecvTPUEmbeddingActivations"}
  %broadcast.2697 = f32[128,1]{0,1:T(2,128)} broadcast(f32[]{:T(256)} %constant.2313), dimensions={}, metadata={op_name="while/training/gradients/while/binary_crossentropy/logistic_loss/Log1p_grad/Reciprocal"}
  %negate.25 = f32[128,1]{0,1:T(2,128)} negate(f32[128,1]{0,1:T(2,128)} %bitcast.105), metadata={op_type="Neg" op_name="while/binary_crossentropy/logistic_loss/Neg"}
  %select.619 = f32[128,1]{0,1:T(2,128)} select(pred[128,1]{0,1:T(8,128)(4,1)} %compare.735, f32[128,1]{0,1:T(2,128)} %negate.25, f32[128,1]{0,1:T(2,128)} %bitcast.105), metadata={op_name="while/binary_crossentropy/logistic_loss/Select_1"}
  %exponential.6 = f32[128,1]{0,1:T(2,128)} exponential(f32[128,1]{0,1:T(2,128)} %select.619), metadata={op_name="while/binary_crossentropy/logistic_loss/Exp"}
  %add.456 = f32[128,1]{0,1:T(2,128)} add(f32[128,1]{0,1:T(2,128)} %broadcast.2697, f32[128,1]{0,1:T(2,128)} %exponential.6), metadata={op_type="AddV2" op_name="while/training/gradients/while/binary_crossentropy/logistic_loss/Log1p_grad/add"}
  %divide.10 = f32[128,1]{0,1:T(2,128)} divide(f32[128,1]{0,1:T(2,128)} %broadcast.2697, f32[128,1]{0,1:T(2,128)} %add.456), metadata={op_name="while/training/gradients/while/binary_crossentropy/logistic_loss/Log1p_grad/Reciprocal"}
  %multiply.421 = f32[128,1]{0,1:T(2,128)} multiply(f32[128,1]{0,1:T(2,128)} %broadcast.2698, f32[128,1]{0,1:T(2,128)} %divide.10), metadata={op_type="Mul" op_name="while/training/gradients/while/binary_crossentropy/logistic_loss/Log1p_grad/mul"}
  %multiply.422 = f32[128,1]{0,1:T(2,128)} multiply(f32[128,1]{0,1:T(2,128)} %multiply.421, f32[128,1]{0,1:T(2,128)} %exponential.6), metadata={op_type="Mul" op_name="while/training/gradients/while/binary_crossentropy/logistic_loss/Exp_grad/mul"}
  %select.621 = f32[128,1]{0,1:T(2,128)} select(pred[128,1]{0,1:T(8,128)(4,1)} %compare.735, f32[128,1]{0,1:T(2,128)} %broadcast.2695, f32[128,1]{0,1:T(2,128)} %multiply.422), metadata={op_name="while/training/gradients/while/binary_crossentropy/logistic_loss/Select_1_grad/Select_1"}
  %add.458 = f32[128,1]{0,1:T(2,128)} add(f32[128,1]{0,1:T(2,128)} %add.457, f32[128,1]{0,1:T(2,128)} %select.621), metadata={op_type="AddN" op_name="while/training/gradients/AddN"}
  %select.620 = f32[128,1]{0,1:T(2,128)} select(pred[128,1]{0,1:T(8,128)(4,1)} %compare.735, f32[128,1]{0,1:T(2,128)} %multiply.422, f32[128,1]{0,1:T(2,128)} %broadcast.2695), metadata={op_name="while/training/gradients/while/binary_crossentropy/logistic_loss/Select_1_grad/Select"}
  %negate.26 = f32[128,1]{0,1:T(2,128)} negate(f32[128,1]{0,1:T(2,128)} %select.620), metadata={op_type="Neg" op_name="while/training/gradients/while/binary_crossentropy/logistic_loss/Neg_grad/Neg"}
  %add.459 = f32[128,1]{0,1:T(2,128)} add(f32[128,1]{0,1:T(2,128)} %add.458, f32[128,1]{0,1:T(2,128)} %negate.26), metadata={op_type="AddN" op_name="while/training/gradients/AddN"}
  %reduce.39 = f32[]{:T(256)} reduce(f32[128,1]{0,1:T(2,128)} %add.459, f32[]{:T(256)} %constant.2312), dimensions={0,1}, to_apply=%region_0.100
  ROOT %tuple.347 = (f32[]{:T(256)}, f32[128,1]{0,1:T(2,128)}) tuple(f32[]{:T(256)} %reduce.39, f32[128,1]{0,1:T(2,128)} %add.459)
}

%region_0.108 (Arg_0.109: f32[], Arg_1.110: f32[]) -> f32[] {
  %Arg_1.110 = f32[]{:T(256)} parameter(1)
  %Arg_0.109 = f32[]{:T(256)} parameter(0)
  ROOT %add.15 = f32[]{:T(256)} add(f32[]{:T(256)} %Arg_0.109, f32[]{:T(256)} %Arg_1.110), metadata={op_name="while/training/gradients/while/top_mlp_layer_3/BiasAdd_grad/BiasAddGrad"}
}

%fused_computation.57.clone (param_0.2167: f32[128], param_1.1542: f32[256], param_2.1423: f32[128,256], param_3.865: f32[256]) -> (f32[256], pred[128,256]) {
  %param_2.1423 = f32[128,256]{1,0:T(8,128)} parameter(2)
  %param_3.865 = f32[256]{0:T(256)} parameter(3)
  %broadcast.2703 = f32[128,256]{1,0:T(8,128)} broadcast(f32[256]{0:T(256)} %param_3.865), dimensions={1}, metadata={op_type="BiasAdd" op_name="while/top_mlp_layer_3/BiasAdd"}
  %add.460 = f32[128,256]{1,0:T(8,128)} add(f32[128,256]{1,0:T(8,128)} %param_2.1423, f32[128,256]{1,0:T(8,128)} %broadcast.2703), metadata={op_type="BiasAdd" op_name="while/top_mlp_layer_3/BiasAdd"}
  %constant.2316 = f32[]{:T(256)} constant(0), metadata={op_type="Select" op_name="while/training/gradients/while/Select_grad/Select_1"}
  %broadcast.2700 = f32[128,256]{1,0:T(8,128)} broadcast(f32[]{:T(256)} %constant.2316), dimensions={}, metadata={op_name="while/bottom_mlp_layer_1/Relu"}
  %maximum.151 = f32[128,256]{1,0:T(8,128)} maximum(f32[128,256]{1,0:T(8,128)} %add.460, f32[128,256]{1,0:T(8,128)} %broadcast.2700), metadata={op_name="while/top_mlp_layer_3/Relu"}
  %compare.736 = pred[128,256]{1,0:T(8,128)(4,1)} compare(f32[128,256]{1,0:T(8,128)} %maximum.151, f32[128,256]{1,0:T(8,128)} %broadcast.2700), direction=GT, metadata={op_name="while/training/gradients/while/top_mlp_layer_3/Relu_grad/ReluGrad"}
  %param_0.2167 = f32[128]{0:T(256)} parameter(0)
  %broadcast.2702 = f32[128,256]{1,0:T(8,128)} broadcast(f32[128]{0:T(256)} %param_0.2167), dimensions={0}
  %param_1.1542 = f32[256]{0:T(256)} parameter(1)
  %broadcast.2701 = f32[128,256]{1,0:T(8,128)} broadcast(f32[256]{0:T(256)} %param_1.1542), dimensions={1}
  %multiply.424 = f32[128,256]{1,0:T(8,128)} multiply(f32[128,256]{1,0:T(8,128)} %broadcast.2702, f32[128,256]{1,0:T(8,128)} %broadcast.2701), metadata={op_type="MatMul" op_name="while/training/gradients/while/top_mlp_layer_4/MatMul_grad/MatMul"}
  %select.623 = f32[128,256]{1,0:T(8,128)} select(pred[128,256]{1,0:T(8,128)(4,1)} %compare.736, f32[128,256]{1,0:T(8,128)} %multiply.424, f32[128,256]{1,0:T(8,128)} %broadcast.2700), metadata={op_name="while/training/gradients/while/top_mlp_layer_3/Relu_grad/ReluGrad"}
  %reduce.40 = f32[256]{0:T(256)} reduce(f32[128,256]{1,0:T(8,128)} %select.623, f32[]{:T(256)} %constant.2316), dimensions={0}, to_apply=%region_0.108, metadata={op_name="while/training/gradients/while/top_mlp_layer_3/BiasAdd_grad/BiasAddGrad"}
  ROOT %tuple.348 = (f32[256]{0:T(256)}, pred[128,256]{1,0:T(8,128)(4,1)}) tuple(f32[256]{0:T(256)} %reduce.40, pred[128,256]{1,0:T(8,128)(4,1)} %compare.736)
}

%fused_computation.55.clone.2.clone.clone.clone (param_0.2168: pred[128,256], param_1.1543: f32[128], param_2.1424: f32[256]) -> f32[128,256] {
  %param_0.2168 = pred[128,256]{1,0:T(8,128)(4,1)} parameter(0)
  %param_1.1543 = f32[128]{0:T(256)} parameter(1)
  %broadcast.2705 = f32[128,256]{1,0:T(8,128)} broadcast(f32[128]{0:T(256)} %param_1.1543), dimensions={0}
  %param_2.1424 = f32[256]{0:T(256)} parameter(2)
  %broadcast.2704 = f32[128,256]{1,0:T(8,128)} broadcast(f32[256]{0:T(256)} %param_2.1424), dimensions={1}
  %multiply.425 = f32[128,256]{1,0:T(8,128)} multiply(f32[128,256]{1,0:T(8,128)} %broadcast.2705, f32[128,256]{1,0:T(8,128)} %broadcast.2704), metadata={op_type="MatMul" op_name="while/training/gradients/while/top_mlp_layer_4/MatMul_grad/MatMul"}
  %constant.2317 = f32[]{:T(256)} constant(0), metadata={op_type="Select" op_name="while/training/gradients/while/Select_grad/Select_1"}
  %broadcast.2706 = f32[128,256]{1,0:T(8,128)} broadcast(f32[]{:T(256)} %constant.2317), dimensions={}, metadata={op_name="while/bottom_mlp_layer_1/Relu"}
  ROOT %select.624 = f32[128,256]{1,0:T(8,128)} select(pred[128,256]{1,0:T(8,128)(4,1)} %param_0.2168, f32[128,256]{1,0:T(8,128)} %multiply.425, f32[128,256]{1,0:T(8,128)} %broadcast.2706), metadata={op_name="while/training/gradients/while/top_mlp_layer_3/Relu_grad/ReluGrad"}
}

%region_0.120 (Arg_0.121: f32[], Arg_1.122: f32[]) -> f32[] {
  %Arg_1.122 = f32[]{:T(256)} parameter(1)
  %Arg_0.121 = f32[]{:T(256)} parameter(0)
  ROOT %add.18 = f32[]{:T(256)} add(f32[]{:T(256)} %Arg_0.121, f32[]{:T(256)} %Arg_1.122), metadata={op_name="while/training/gradients/while/top_mlp_layer_2/BiasAdd_grad/BiasAddGrad"}
}

%fused_computation.772.clone (param_0.2169: f32[512,256], param_1.1544: pred[128,256], param_2.1425: f32[128], param_3.866: f32[256], param_4.645: f32[128,512]) -> (f32[512], bf16[128,512]) {
  %param_4.645 = f32[128,512]{1,0:T(8,128)} parameter(4)
  %constant.2318 = f32[]{:T(256)} constant(0), metadata={op_type="Select" op_name="while/training/gradients/while/Select_grad/Select_1"}
  %broadcast.2707 = f32[128,512]{1,0:T(8,128)} broadcast(f32[]{:T(256)} %constant.2318), dimensions={}, metadata={op_name="while/bottom_mlp_layer_0/Relu"}
  %compare.737 = pred[128,512]{1,0:T(8,128)(4,1)} compare(f32[128,512]{1,0:T(8,128)} %param_4.645, f32[128,512]{1,0:T(8,128)} %broadcast.2707), direction=GT, metadata={op_name="while/training/gradients/while/top_mlp_layer_2/Relu_grad/ReluGrad"}
  %param_1.1544 = pred[128,256]{1,0:T(8,128)(4,1)} parameter(1)
  %param_2.1425 = f32[128]{0:T(256)} parameter(2)
  %param_3.866 = f32[256]{0:T(256)} parameter(3)
  %fusion.1281 = f32[128,256]{1,0:T(8,128)} fusion(pred[128,256]{1,0:T(8,128)(4,1)} %param_1.1544, f32[128]{0:T(256)} %param_2.1425, f32[256]{0:T(256)} %param_3.866), kind=kLoop, calls=%fused_computation.55.clone.2.clone.clone.clone, metadata={op_name="while/training/gradients/while/top_mlp_layer_3/Relu_grad/ReluGrad"}
  %param_0.2169 = f32[512,256]{1,0:T(8,128)} parameter(0)
  %convolution.369 = f32[128,512]{1,0:T(8,128)} convolution(f32[128,256]{1,0:T(8,128)} %fusion.1281, f32[512,256]{1,0:T(8,128)} %param_0.2169), dim_labels=bf_oi->bf, metadata={op_type="MatMul" op_name="while/training/gradients/while/top_mlp_layer_3/MatMul_grad/MatMul"}
  %select.625 = f32[128,512]{1,0:T(8,128)} select(pred[128,512]{1,0:T(8,128)(4,1)} %compare.737, f32[128,512]{1,0:T(8,128)} %convolution.369, f32[128,512]{1,0:T(8,128)} %broadcast.2707), metadata={op_name="while/training/gradients/while/top_mlp_layer_2/Relu_grad/ReluGrad"}
  %reduce.41 = f32[512]{0:T(512)} reduce(f32[128,512]{1,0:T(8,128)} %select.625, f32[]{:T(256)} %constant.2318), dimensions={0}, to_apply=%region_0.120, metadata={op_name="while/training/gradients/while/top_mlp_layer_2/BiasAdd_grad/BiasAddGrad"}
  %convert.257 = bf16[128,512]{1,0:T(8,128)(2,1)} convert(f32[128,512]{1,0:T(8,128)} %select.625)
  ROOT %tuple.349 = (f32[512]{0:T(512)}, bf16[128,512]{1,0:T(8,128)(2,1)}) tuple(f32[512]{0:T(512)} %reduce.41, bf16[128,512]{1,0:T(8,128)(2,1)} %convert.257)
}

%region_0.132 (Arg_0.133: f32[], Arg_1.134: f32[]) -> f32[] {
  %Arg_1.134 = f32[]{:T(256)} parameter(1)
  %Arg_0.133 = f32[]{:T(256)} parameter(0)
  ROOT %add.21 = f32[]{:T(256)} add(f32[]{:T(256)} %Arg_0.133, f32[]{:T(256)} %Arg_1.134), metadata={op_name="while/training/gradients/while/top_mlp_layer_1/BiasAdd_grad/BiasAddGrad"}
}

%fused_computation.771.clone (param_0.2170: bf16[128,512], param_1.1545: f32[1024,512], param_2.1426: f32[128,1024]) -> (f32[1024], bf16[128,1024]) {
  %param_2.1426 = f32[128,1024]{1,0:T(8,128)} parameter(2)
  %constant.2319 = f32[]{:T(256)} constant(0), metadata={op_type="Select" op_name="while/training/gradients/while/Select_grad/Select_1"}
  %broadcast.2708 = f32[128,1024]{1,0:T(8,128)} broadcast(f32[]{:T(256)} %constant.2319), dimensions={}, metadata={op_name="while/top_mlp_layer_0/Relu"}
  %compare.738 = pred[128,1024]{1,0:T(8,128)(4,1)} compare(f32[128,1024]{1,0:T(8,128)} %param_2.1426, f32[128,1024]{1,0:T(8,128)} %broadcast.2708), direction=GT, metadata={op_name="while/training/gradients/while/top_mlp_layer_1/Relu_grad/ReluGrad"}
  %param_0.2170 = bf16[128,512]{1,0:T(8,128)(2,1)} parameter(0)
  %param_1.1545 = f32[1024,512]{1,0:T(8,128)} parameter(1)
  %convolution.370 = f32[128,1024]{1,0:T(8,128)} convolution(bf16[128,512]{1,0:T(8,128)(2,1)} %param_0.2170, f32[1024,512]{1,0:T(8,128)} %param_1.1545), dim_labels=bf_oi->bf, metadata={op_type="MatMul" op_name="while/training/gradients/while/top_mlp_layer_2/MatMul_grad/MatMul"}
  %select.626 = f32[128,1024]{1,0:T(8,128)} select(pred[128,1024]{1,0:T(8,128)(4,1)} %compare.738, f32[128,1024]{1,0:T(8,128)} %convolution.370, f32[128,1024]{1,0:T(8,128)} %broadcast.2708), metadata={op_name="while/training/gradients/while/top_mlp_layer_1/Relu_grad/ReluGrad"}
  %reduce.42 = f32[1024]{0:T(1024)} reduce(f32[128,1024]{1,0:T(8,128)} %select.626, f32[]{:T(256)} %constant.2319), dimensions={0}, to_apply=%region_0.132, metadata={op_name="while/training/gradients/while/top_mlp_layer_1/BiasAdd_grad/BiasAddGrad"}
  %convert.258 = bf16[128,1024]{1,0:T(8,128)(2,1)} convert(f32[128,1024]{1,0:T(8,128)} %select.626)
  ROOT %tuple.350 = (f32[1024]{0:T(1024)}, bf16[128,1024]{1,0:T(8,128)(2,1)}) tuple(f32[1024]{0:T(1024)} %reduce.42, bf16[128,1024]{1,0:T(8,128)(2,1)} %convert.258)
}

%region_0.144 (Arg_0.145: f32[], Arg_1.146: f32[]) -> f32[] {
  %Arg_1.146 = f32[]{:T(256)} parameter(1)
  %Arg_0.145 = f32[]{:T(256)} parameter(0)
  ROOT %add.24 = f32[]{:T(256)} add(f32[]{:T(256)} %Arg_0.145, f32[]{:T(256)} %Arg_1.146), metadata={op_name="while/training/gradients/while/top_mlp_layer_0/BiasAdd_grad/BiasAddGrad"}
}

%fused_computation.770.clone (param_0.2171: bf16[128,1024], param_1.1546: f32[1024,1024], param_2.1427: f32[128,1024]) -> (f32[1024], bf16[128,1024]) {
  %param_2.1427 = f32[128,1024]{1,0:T(8,128)} parameter(2)
  %constant.2320 = f32[]{:T(256)} constant(0), metadata={op_type="Select" op_name="while/training/gradients/while/Select_grad/Select_1"}
  %broadcast.2709 = f32[128,1024]{1,0:T(8,128)} broadcast(f32[]{:T(256)} %constant.2320), dimensions={}, metadata={op_name="while/top_mlp_layer_0/Relu"}
  %compare.739 = pred[128,1024]{1,0:T(8,128)(4,1)} compare(f32[128,1024]{1,0:T(8,128)} %param_2.1427, f32[128,1024]{1,0:T(8,128)} %broadcast.2709), direction=GT, metadata={op_name="while/training/gradients/while/top_mlp_layer_0/Relu_grad/ReluGrad"}
  %param_0.2171 = bf16[128,1024]{1,0:T(8,128)(2,1)} parameter(0)
  %param_1.1546 = f32[1024,1024]{1,0:T(8,128)} parameter(1)
  %convolution.371 = f32[128,1024]{1,0:T(8,128)} convolution(bf16[128,1024]{1,0:T(8,128)(2,1)} %param_0.2171, f32[1024,1024]{1,0:T(8,128)} %param_1.1546), dim_labels=bf_oi->bf, metadata={op_type="MatMul" op_name="while/training/gradients/while/top_mlp_layer_1/MatMul_grad/MatMul" profile_type={2}}, backend_config="{\"flag_configs\":[{\"flag_type\":\"XLA_SET_SPLIT_INPUT_OUTPUT_DMAS\",\"value\":{\"boolean_value\":false}},{\"flag_type\":\"XLA_TPU_SMALL_OPERAND_COUNT_FOR_LOOP_FUSION\",\"value\":{\"integer_value\":\"8\"}},{\"flag_type\":\"XLA_JF_FUSION_MAX_VMEM_MIB\",\"value\":{\"double_value\":15.35}},{\"flag_type\":\"XLA_SPLIT_CLUSTER_GAP\",\"value\":{\"integer_value\":\"512\"}},{\"flag_type\":\"XLA_SPLIT_CLUSTER_SIZE\",\"value\":{\"integer_value\":\"6\"}},{\"flag_type\":\"XLA_TPU_MAX_CLUSTERED_LOADS\",\"value\":{\"integer_value\":\"12\"}},{\"flag_type\":\"XLA_TPU_HBM_BW\",\"value\":{\"double_value\":460}},{\"flag_type\":\"XLA_TPU_HBM_INITIAL_CYCLE_PENALTY\",\"value\":{\"integer_value\":\"300\"}}],\"scoped_memory_configs\":[]}"
  %select.627 = f32[128,1024]{1,0:T(8,128)} select(pred[128,1024]{1,0:T(8,128)(4,1)} %compare.739, f32[128,1024]{1,0:T(8,128)} %convolution.371, f32[128,1024]{1,0:T(8,128)} %broadcast.2709), metadata={op_name="while/training/gradients/while/top_mlp_layer_0/Relu_grad/ReluGrad"}
  %reduce.43 = f32[1024]{0:T(1024)} reduce(f32[128,1024]{1,0:T(8,128)} %select.627, f32[]{:T(256)} %constant.2320), dimensions={0}, to_apply=%region_0.144, metadata={op_name="while/training/gradients/while/top_mlp_layer_0/BiasAdd_grad/BiasAddGrad"}
  %convert.259 = bf16[128,1024]{1,0:T(8,128)(2,1)} convert(f32[128,1024]{1,0:T(8,128)} %select.627)
  ROOT %tuple.351 = (f32[1024]{0:T(1024)}, bf16[128,1024]{1,0:T(8,128)(2,1)}) tuple(f32[1024]{0:T(1024)} %reduce.43, bf16[128,1024]{1,0:T(8,128)(2,1)} %convert.259)
}

%fused_computation.28.clone (param_0.2172: pred[128,729], param_1.1547: f32[128,857]) -> bf16[128,729] {
  %param_0.2172 = pred[128,729]{0,1:T(8,128)(4,1)} parameter(0)
  %constant.2321 = f32[]{:T(256)} constant(0), metadata={op_type="Select" op_name="while/training/gradients/while/Select_grad/Select_1"}
  %broadcast.2710 = f32[128,729]{0,1:T(8,128)} broadcast(f32[]{:T(256)} %constant.2321), dimensions={}, metadata={op_type="Select" op_name="while/training/gradients/while/Select_grad/Select_1"}
  %param_1.1547 = f32[128,857]{0,1:T(8,128)} parameter(1)
  %slice.806 = bf16[128,729]{0,1:T(8,128)(2,1)} slice(f32[128,857]{0,1:T(8,128)} %param_1.1547), slice={[0:128], [128:857]}, metadata={op_type="Slice" op_name="while/training/gradients/while/concat_2_grad/Slice_1"}
  ROOT %select.628 = bf16[128,729]{0,1:T(8,128)(2,1)} select(pred[128,729]{0,1:T(8,128)(4,1)} %param_0.2172, f32[128,729]{0,1:T(8,128)} %broadcast.2710, bf16[128,729]{0,1:T(8,128)(2,1)} %slice.806), metadata={op_name="while/training/gradients/while/Select_grad/Select_1"}
}

%fused_computation.9.clone (param_0.2173: bf16[128,27,128]) -> bf16[128,27,128] {
  %param_0.2173 = bf16[128,27,128]{2,0,1:T(8,128)(2,1)} parameter(0)
  ROOT %copy.154 = bf16[128,27,128]{2,1,0:T(8,128)(2,1)} copy(bf16[128,27,128]{2,0,1:T(8,128)(2,1)} %param_0.2173), metadata={op_type="ConcatV2" op_name="while/concat_1"}
}

%bitcast_fusion.clone (bf16input.13: bf16[128,27,27]) -> bf16[128,27,27] {
  %bf16input.13 = bf16[128,27,27]{2,1,0:T(8,128)(2,1)} parameter(0)
  ROOT %bitcast.108 = bf16[128,27,27]{2,1,0:T(8,128)(2,1)} bitcast(bf16[128,27,27]{2,1,0:T(8,128)(2,1)} %bf16input.13)
}

%fused_computation.8.clone (param_0.2174: bf16[128,27,27], param_1.1548: bf16[128,27,128]) -> f32[128,27,128] {
  %param_0.2174 = bf16[128,27,27]{2,1,0:T(8,128)(2,1)} parameter(0)
  %fusion.1287 = bf16[128,27,27]{2,1,0:T(8,128)(2,1)} fusion(bf16[128,27,27]{2,1,0:T(8,128)(2,1)} %param_0.2174), kind=kLoop, calls=%bitcast_fusion.clone
  %param_1.1548 = bf16[128,27,128]{2,0,1:T(8,128)(2,1)} parameter(1)
  %fusion.1286 = bf16[128,27,128]{2,1,0:T(8,128)(2,1)} fusion(bf16[128,27,128]{2,0,1:T(8,128)(2,1)} %param_1.1548), kind=kLoop, calls=%fused_computation.9.clone, metadata={op_type="ConcatV2" op_name="while/concat_1"}
  ROOT %convolution-base-dilated.13 = f32[128,27,128]{2,1,0:T(8,128)} convolution(bf16[128,27,27]{2,1,0:T(8,128)(2,1)} %fusion.1287, bf16[128,27,128]{2,1,0:T(8,128)(2,1)} %fusion.1286), window={size=128 stride=127 lhs_dilate=128}, dim_labels=0fb_0io->0bf, metadata={op_type="BatchMatMulV2" op_name="while/training/gradients/while/MatMul_grad/MatMul_1"}
}

%fused_computation.11.clone.clone.clone (param_0.2175: bf16[128,27,128]) -> bf16[128,27,128] {
  %param_0.2175 = bf16[128,27,128]{2,0,1:T(8,128)(2,1)} parameter(0)
  ROOT %copy.155 = bf16[128,27,128]{2,1,0:T(8,128)(2,1)} copy(bf16[128,27,128]{2,0,1:T(8,128)(2,1)} %param_0.2175), metadata={op_type="ConcatV2" op_name="while/concat_1"}
}

%bitcast_fusion.1.clone (bf16input.14: bf16[128,27,27]) -> bf16[128,27,27] {
  %bf16input.14 = bf16[128,27,27]{2,1,0:T(8,128)(2,1)} parameter(0)
  ROOT %bitcast.109 = bf16[128,27,27]{2,1,0:T(8,128)(2,1)} bitcast(bf16[128,27,27]{2,1,0:T(8,128)(2,1)} %bf16input.14)
}

%fused_computation.15.clone (param_0.2176: f32[128,27,128], param_1.1549: bf16[128,27,27], param_2.1428: bf16[128,27,128]) -> f32[128,27,128] {
  %param_1.1549 = bf16[128,27,27]{2,1,0:T(8,128)(2,1)} parameter(1)
  %fusion.1290 = bf16[128,27,27]{2,1,0:T(8,128)(2,1)} fusion(bf16[128,27,27]{2,1,0:T(8,128)(2,1)} %param_1.1549), kind=kLoop, calls=%bitcast_fusion.1.clone
  %param_2.1428 = bf16[128,27,128]{2,0,1:T(8,128)(2,1)} parameter(2)
  %fusion.1289 = bf16[128,27,128]{2,1,0:T(8,128)(2,1)} fusion(bf16[128,27,128]{2,0,1:T(8,128)(2,1)} %param_2.1428), kind=kLoop, calls=%fused_computation.11.clone.clone.clone, metadata={op_type="ConcatV2" op_name="while/concat_1"}
  %convolution-base-dilated.14 = f32[128,27,128]{2,1,0:T(8,128)} convolution(bf16[128,27,27]{2,1,0:T(8,128)(2,1)} %fusion.1290, bf16[128,27,128]{2,1,0:T(8,128)(2,1)} %fusion.1289), window={size=128 stride=127 lhs_dilate=128}, dim_labels=0bf_0io->0bf, metadata={op_type="BatchMatMulV2" op_name="while/training/gradients/while/MatMul_grad/MatMul"}
  %param_0.2176 = f32[128,27,128]{2,1,0:T(8,128)} parameter(0)
  ROOT %add.461 = f32[128,27,128]{2,1,0:T(8,128)} add(f32[128,27,128]{2,1,0:T(8,128)} %convolution-base-dilated.14, f32[128,27,128]{2,1,0:T(8,128)} %param_0.2176), metadata={op_type="AddN" op_name="while/training/gradients/AddN_1"}
}

%fused_computation.524.clone.clone (param_0.2177: f32[128,1792]) -> bf16[128,128] {
  %param_0.2177 = f32[128,1792]{0,1:T(8,128)} parameter(0)
  ROOT %slice.808 = bf16[128,128]{0,1:T(8,128)(2,1)} slice(f32[128,1792]{0,1:T(8,128)} %param_0.2177), slice={[0:128], [128:256]}, sharding={maximal device=0}, metadata={op_type="Slice" op_name="while/training/gradients/while/concat_grad/Slice_1"}
}

%fused_computation.161.clone.clone (param_0.2178: u32[128]) -> f32[128,128] {
  %param_0.2178 = u32[128]{0:T(256)} parameter(0)
  %broadcast.2713 = u32[128,128]{1,0:T(8,128)} broadcast(u32[128]{0:T(256)} %param_0.2178), dimensions={0}, sharding={maximal device=0}, metadata={op_type="_RecvTPUEmbeddingActivations" op_name="while/RecvTPUEmbeddingActivations"}
  %iota.637 = u32[128,128]{1,0:T(8,128)} iota(), iota_dimension=1, sharding={maximal device=0}, metadata={op_type="_SendTPUEmbeddingGradients" op_name="while/SendTPUEmbeddingGradients"}
  %compare.740 = pred[128,128]{1,0:T(8,128)(4,1)} compare(u32[128,128]{1,0:T(8,128)} %broadcast.2713, u32[128,128]{1,0:T(8,128)} %iota.637), direction=EQ, sharding={maximal device=0}, metadata={op_type="_SendTPUEmbeddingGradients" op_name="while/SendTPUEmbeddingGradients"}
  %constant.2323 = f32[]{:T(256)} constant(1), sharding={maximal device=0}, metadata={op_type="_RecvTPUEmbeddingActivations" op_name="while/RecvTPUEmbeddingActivations"}
  %broadcast.2712 = f32[128,128]{1,0:T(8,128)} broadcast(f32[]{:T(256)} %constant.2323), dimensions={}, sharding={maximal device=0}, metadata={op_type="_RecvTPUEmbeddingActivations" op_name="while/RecvTPUEmbeddingActivations"}
  %constant.2322 = f32[]{:T(256)} constant(0), metadata={op_type="Select" op_name="while/training/gradients/while/Select_grad/Select_1"}
  %broadcast.2711 = f32[128,128]{1,0:T(8,128)} broadcast(f32[]{:T(256)} %constant.2322), dimensions={}, metadata={op_name="while/bottom_mlp_layer_2/Relu"}
  ROOT %select.629 = f32[128,128]{1,0:T(8,128)} select(pred[128,128]{1,0:T(8,128)(4,1)} %compare.740, f32[128,128]{1,0:T(8,128)} %broadcast.2712, f32[128,128]{1,0:T(8,128)} %broadcast.2711), sharding={maximal device=0}, metadata={op_type="_SendTPUEmbeddingGradients" op_name="while/SendTPUEmbeddingGradients"}
}

%fused_computation.120.clone.clone.clone (param_0.2179: f32[128], param_1.1550: u32[128], param_2.1429: f32[128,1792]) -> bf16[128,128] {
  %param_1.1550 = u32[128]{0:T(256)} parameter(1)
  %fusion.1293 = f32[128,128]{1,0:T(8,128)} fusion(u32[128]{0:T(256)} %param_1.1550), kind=kLoop, calls=%fused_computation.161.clone.clone, metadata={op_type="_SendTPUEmbeddingGradients" op_name="while/SendTPUEmbeddingGradients"}
  %param_2.1429 = f32[128,1792]{0,1:T(8,128)} parameter(2)
  %fusion.1292 = bf16[128,128]{0,1:T(8,128)(2,1)} fusion(f32[128,1792]{0,1:T(8,128)} %param_2.1429), kind=kLoop, calls=%fused_computation.524.clone.clone, metadata={op_type="Slice" op_name="while/training/gradients/while/concat_grad/Slice_1"}
  %convolution.373 = f32[128,128]{1,0:T(8,128)} convolution(f32[128,128]{1,0:T(8,128)} %fusion.1293, bf16[128,128]{0,1:T(8,128)(2,1)} %fusion.1292), dim_labels=bf_io->bf, sharding={maximal device=0}, metadata={op_type="_SendTPUEmbeddingGradients" op_name="while/SendTPUEmbeddingGradients"}
  %param_0.2179 = f32[128]{0:T(256)} parameter(0)
  %broadcast.2714 = f32[128,128]{1,0:T(8,128)} broadcast(f32[128]{0:T(256)} %param_0.2179), dimensions={0}, sharding={maximal device=0}, metadata={op_type="_RecvTPUEmbeddingActivations" op_name="while/RecvTPUEmbeddingActivations"}
  ROOT %multiply.426 = bf16[128,128]{1,0:T(8,128)(2,1)} multiply(f32[128,128]{1,0:T(8,128)} %convolution.373, f32[128,128]{1,0:T(8,128)} %broadcast.2714), sharding={maximal device=0}, metadata={op_type="_SendTPUEmbeddingGradients" op_name="while/SendTPUEmbeddingGradients"}
}

%fused_computation.338.clone (param_0.2180: u32[128]) -> f32[128,8] {
  %param_0.2180 = u32[128]{0:T(256)} parameter(0)
  %broadcast.2717 = u32[128,8]{0,1:T(8,128)} broadcast(u32[128]{0:T(256)} %param_0.2180), dimensions={0}, sharding={maximal device=0}, metadata={op_type="_RecvTPUEmbeddingActivations" op_name="while/RecvTPUEmbeddingActivations"}
  %iota.638 = u32[128,8]{0,1:T(8,128)} iota(), iota_dimension=1, sharding={maximal device=0}, metadata={op_type="_SendTPUEmbeddingGradients" op_name="while/SendTPUEmbeddingGradients"}
  %compare.741 = pred[128,8]{0,1:T(8,128)(4,1)} compare(u32[128,8]{0,1:T(8,128)} %broadcast.2717, u32[128,8]{0,1:T(8,128)} %iota.638), direction=EQ, sharding={maximal device=0}, metadata={op_type="_SendTPUEmbeddingGradients" op_name="while/SendTPUEmbeddingGradients"}
  %constant.2325 = f32[]{:T(256)} constant(1), sharding={maximal device=0}, metadata={op_type="_RecvTPUEmbeddingActivations" op_name="while/RecvTPUEmbeddingActivations"}
  %broadcast.2716 = f32[128,8]{0,1:T(8,128)} broadcast(f32[]{:T(256)} %constant.2325), dimensions={}, sharding={maximal device=0}, metadata={op_type="_RecvTPUEmbeddingActivations" op_name="while/RecvTPUEmbeddingActivations"}
  %constant.2324 = f32[]{:T(256)} constant(0), metadata={op_type="Select" op_name="while/training/gradients/while/Select_grad/Select_1"}
  %broadcast.2715 = f32[128,8]{0,1:T(8,128)} broadcast(f32[]{:T(256)} %constant.2324), dimensions={}, sharding={maximal device=0}, metadata={op_type="_RecvTPUEmbeddingActivations" op_name="while/RecvTPUEmbeddingActivations"}
  ROOT %select.630 = f32[128,8]{0,1:T(8,128)} select(pred[128,8]{0,1:T(8,128)(4,1)} %compare.741, f32[128,8]{0,1:T(8,128)} %broadcast.2716, f32[128,8]{0,1:T(8,128)} %broadcast.2715), sharding={maximal device=0}, metadata={op_type="_SendTPUEmbeddingGradients" op_name="while/SendTPUEmbeddingGradients"}
}

%fused_computation.121.clone (param_0.2181: f32[128], param_1.1551: u32[128], param_2.1430: u32[128], param_3.867: f32[128,1792]) -> f32[8,128] {
  %param_2.1430 = u32[128]{0:T(256)} parameter(2)
  %fusion.1295 = f32[128,8]{0,1:T(8,128)} fusion(u32[128]{0:T(256)} %param_2.1430), kind=kLoop, calls=%fused_computation.338.clone, metadata={op_type="_SendTPUEmbeddingGradients" op_name="while/SendTPUEmbeddingGradients"}
  %param_0.2181 = f32[128]{0:T(256)} parameter(0)
  %param_1.1551 = u32[128]{0:T(256)} parameter(1)
  %param_3.867 = f32[128,1792]{0,1:T(8,128)} parameter(3)
  %fusion.1294 = bf16[128,128]{1,0:T(8,128)(2,1)} fusion(f32[128]{0:T(256)} %param_0.2181, u32[128]{0:T(256)} %param_1.1551, f32[128,1792]{0,1:T(8,128)} %param_3.867), kind=kOutput, calls=%fused_computation.120.clone.clone.clone, sharding={maximal device=0}, metadata={op_type="_SendTPUEmbeddingGradients" op_name="while/SendTPUEmbeddingGradients"}
  ROOT %convolution.374 = f32[8,128]{0,1:T(8,128)} convolution(f32[128,8]{0,1:T(8,128)} %fusion.1295, bf16[128,128]{1,0:T(8,128)(2,1)} %fusion.1294), dim_labels=fb_io->bf, sharding={maximal device=0}, metadata={op_type="_SendTPUEmbeddingGradients" op_name="while/SendTPUEmbeddingGradients"}
}

%fused_computation.767.clone (param_0.2182: f32[128,1792]) -> (f32[128,128], f32[128,128], f32[128,128], f32[128,128], f32[128,128], /*index=5*/f32[128,128], f32[128,128], f32[128,128], f32[128,128], f32[128,128], /*index=10*/f32[128,128], f32[128,128], f32[128,128]) {
  %param_0.2182 = f32[128,1792]{0,1:T(8,128)} parameter(0)
  %slice.809 = f32[128,128]{0,1:T(8,128)} slice(f32[128,1792]{0,1:T(8,128)} %param_0.2182), slice={[0:128], [1664:1792]}, sharding={maximal device=0}, metadata={op_type="Slice" op_name="while/training/gradients/while/concat_grad/Slice_13"}
  %slice.810 = f32[128,128]{0,1:T(8,128)} slice(f32[128,1792]{0,1:T(8,128)} %param_0.2182), slice={[0:128], [1536:1664]}, sharding={maximal device=0}, metadata={op_type="Slice" op_name="while/training/gradients/while/concat_grad/Slice_12"}
  %slice.811 = f32[128,128]{0,1:T(8,128)} slice(f32[128,1792]{0,1:T(8,128)} %param_0.2182), slice={[0:128], [1280:1408]}, sharding={maximal device=0}, metadata={op_type="Slice" op_name="while/training/gradients/while/concat_grad/Slice_10"}
  %slice.812 = f32[128,128]{0,1:T(8,128)} slice(f32[128,1792]{0,1:T(8,128)} %param_0.2182), slice={[0:128], [1024:1152]}, sharding={maximal device=0}, metadata={op_type="Slice" op_name="while/training/gradients/while/concat_grad/Slice_8"}
  %slice.813 = f32[128,128]{0,1:T(8,128)} slice(f32[128,1792]{0,1:T(8,128)} %param_0.2182), slice={[0:128], [640:768]}, sharding={maximal device=0}, metadata={op_type="Slice" op_name="while/training/gradients/while/concat_grad/Slice_5"}
  %slice.814 = f32[128,128]{0,1:T(8,128)} slice(f32[128,1792]{0,1:T(8,128)} %param_0.2182), slice={[0:128], [384:512]}, sharding={maximal device=0}, metadata={op_type="Slice" op_name="while/training/gradients/while/concat_grad/Slice_3"}
  %slice.815 = f32[128,128]{0,1:T(8,128)} slice(f32[128,1792]{0,1:T(8,128)} %param_0.2182), slice={[0:128], [256:384]}, sharding={maximal device=0}, metadata={op_type="Slice" op_name="while/training/gradients/while/concat_grad/Slice_2"}
  %slice.816 = f32[128,128]{0,1:T(8,128)} slice(f32[128,1792]{0,1:T(8,128)} %param_0.2182), slice={[0:128], [1408:1536]}, sharding={maximal device=0}, metadata={op_type="Slice" op_name="while/training/gradients/while/concat_grad/Slice_11"}
  %slice.817 = f32[128,128]{0,1:T(8,128)} slice(f32[128,1792]{0,1:T(8,128)} %param_0.2182), slice={[0:128], [1152:1280]}, sharding={maximal device=0}, metadata={op_type="Slice" op_name="while/training/gradients/while/concat_grad/Slice_9"}
  %slice.818 = f32[128,128]{0,1:T(8,128)} slice(f32[128,1792]{0,1:T(8,128)} %param_0.2182), slice={[0:128], [896:1024]}, sharding={maximal device=0}, metadata={op_type="Slice" op_name="while/training/gradients/while/concat_grad/Slice_7"}
…
gActivations_8"}}, metadata={op_type="While" op_name="LoopCond"}
  %get-tuple-element.3436 = f32[1]{0:T(256)} get-tuple-element((s32[]{:T(256)}, u32[]{:T(256)}, u32[]{:T(256)}, f32[19656,128]{1,0:T(8,128)}, f32[1]{0:T(256)}, /*index=5*/f32[1]{0:T(256)}, f32[1]{0:T(256)}, f32[1]{0:T(256)}, f32[1]{0:T(256)}, f32[1]{0:T(256)}, /*index=10*/f32[1]{0:T(256)}, f32[1]{0:T(256)}, f32[1]{0:T(256)}, f32[1]{0:T(256)}, f32[1]{0:T(256)}, /*index=15*/f32[1]{0:T(256)}, f32[1]{0:T(256)}, f32[512]{0:T(512)}, f32[13,512]{1,0:T(8,128)}, f32[256]{0:T(256)}, /*index=20*/f32[512,256]{1,0:T(8,128)}, f32[128]{0:T(256)}, f32[256,128]{1,0:T(8,128)}, f32[1024]{0:T(1024)}, f32[857,1024]{1,0:T(8,128)}, /*index=25*/f32[1024]{0:T(1024)}, f32[1024,1024]{1,0:T(8,128)}, f32[512]{0:T(512)}, f32[1024,512]{1,0:T(8,128)}, f32[256]{0:T(256)}, /*index=30*/f32[512,256]{1,0:T(8,128)}, f32[1]{0:T(256)}, f32[256,1]{0,1:T(2,128)}, s32[]{:T(256)}, f32[]{:T(256)}, /*index=35*/pred[128,729]{0,1:T(8,128)(4,1)}, f32[], pred[128,27,27]{2,1,0:T(8,128)(4,1)}, s32[128,13]{0,1:T(8,128)}, u32[]{:T(256)}, /*index=40*/s32[]{:T(256)}, u32[]{:T(256)}, u32[]{:T(256)}, u32[]{:T(256)}, u32[]{:T(256)}, /*index=45*/u32[]{:T(256)}, u32[]{:T(256)}, f32[]{:T(256)}, f32[]{:T(256)}, f32[]{:T(256)}, /*index=50*/f32[]{:T(256)}, f32[]{:T(256)}, f32[]{:T(256)}, f32[]{:T(256)}, f32[]{:T(256)}, /*index=55*/s32[]{:T(256)}, f32[]{:T(256)}, f32[]{:T(256)}, f32[1]{0:T(256)}, s32[]{:T(256)}, /*index=60*/pred[128,27,27]{2,1,0:T(8,128)(4,1)}, s32[128,13]{0,1:T(8,128)}, f32[], s32[]{:T(256)}) %while.15), index=14, sharding={maximal device=0 metadata={op_type="TPUEmbeddingActivations" op_name="while/TPUEmbeddingActivations_7"}}, metadata={op_type="While" op_name="LoopCond"}
  %get-tuple-element.3435 = f32[1]{0:T(256)} get-tuple-element((s32[]{:T(256)}, u32[]{:T(256)}, u32[]{:T(256)}, f32[19656,128]{1,0:T(8,128)}, f32[1]{0:T(256)}, /*index=5*/f32[1]{0:T(256)}, f32[1]{0:T(256)}, f32[1]{0:T(256)}, f32[1]{0:T(256)}, f32[1]{0:T(256)}, /*index=10*/f32[1]{0:T(256)}, f32[1]{0:T(256)}, f32[1]{0:T(256)}, f32[1]{0:T(256)}, f32[1]{0:T(256)}, /*index=15*/f32[1]{0:T(256)}, f32[1]{0:T(256)}, f32[512]{0:T(512)}, f32[13,512]{1,0:T(8,128)}, f32[256]{0:T(256)}, /*index=20*/f32[512,256]{1,0:T(8,128)}, f32[128]{0:T(256)}, f32[256,128]{1,0:T(8,128)}, f32[1024]{0:T(1024)}, f32[857,1024]{1,0:T(8,128)}, /*index=25*/f32[1024]{0:T(1024)}, f32[1024,1024]{1,0:T(8,128)}, f32[512]{0:T(512)}, f32[1024,512]{1,0:T(8,128)}, f32[256]{0:T(256)}, /*index=30*/f32[512,256]{1,0:T(8,128)}, f32[1]{0:T(256)}, f32[256,1]{0,1:T(2,128)}, s32[]{:T(256)}, f32[]{:T(256)}, /*index=35*/pred[128,729]{0,1:T(8,128)(4,1)}, f32[], pred[128,27,27]{2,1,0:T(8,128)(4,1)}, s32[128,13]{0,1:T(8,128)}, u32[]{:T(256)}, /*index=40*/s32[]{:T(256)}, u32[]{:T(256)}, u32[]{:T(256)}, u32[]{:T(256)}, u32[]{:T(256)}, /*index=45*/u32[]{:T(256)}, u32[]{:T(256)}, f32[]{:T(256)}, f32[]{:T(256)}, f32[]{:T(256)}, /*index=50*/f32[]{:T(256)}, f32[]{:T(256)}, f32[]{:T(256)}, f32[]{:T(256)}, f32[]{:T(256)}, /*index=55*/s32[]{:T(256)}, f32[]{:T(256)}, f32[]{:T(256)}, f32[1]{0:T(256)}, s32[]{:T(256)}, /*index=60*/pred[128,27,27]{2,1,0:T(8,128)(4,1)}, s32[128,13]{0,1:T(8,128)}, f32[], s32[]{:T(256)}) %while.15), index=13, sharding={maximal device=0 metadata={op_type="TPUEmbeddingActivations" op_name="while/TPUEmbeddingActivations_6"}}, metadata={op_type="While" op_name="LoopCond"}
  %get-tuple-element.3434 = f32[1]{0:T(256)} get-tuple-element((s32[]{:T(256)}, u32[]{:T(256)}, u32[]{:T(256)}, f32[19656,128]{1,0:T(8,128)}, f32[1]{0:T(256)}, /*index=5*/f32[1]{0:T(256)}, f32[1]{0:T(256)}, f32[1]{0:T(256)}, f32[1]{0:T(256)}, f32[1]{0:T(256)}, /*index=10*/f32[1]{0:T(256)}, f32[1]{0:T(256)}, f32[1]{0:T(256)}, f32[1]{0:T(256)}, f32[1]{0:T(256)}, /*index=15*/f32[1]{0:T(256)}, f32[1]{0:T(256)}, f32[512]{0:T(512)}, f32[13,512]{1,0:T(8,128)}, f32[256]{0:T(256)}, /*index=20*/f32[512,256]{1,0:T(8,128)}, f32[128]{0:T(256)}, f32[256,128]{1,0:T(8,128)}, f32[1024]{0:T(1024)}, f32[857,1024]{1,0:T(8,128)}, /*index=25*/f32[1024]{0:T(1024)}, f32[1024,1024]{1,0:T(8,128)}, f32[512]{0:T(512)}, f32[1024,512]{1,0:T(8,128)}, f32[256]{0:T(256)}, /*index=30*/f32[512,256]{1,0:T(8,128)}, f32[1]{0:T(256)}, f32[256,1]{0,1:T(2,128)}, s32[]{:T(256)}, f32[]{:T(256)}, /*index=35*/pred[128,729]{0,1:T(8,128)(4,1)}, f32[], pred[128,27,27]{2,1,0:T(8,128)(4,1)}, s32[128,13]{0,1:T(8,128)}, u32[]{:T(256)}, /*index=40*/s32[]{:T(256)}, u32[]{:T(256)}, u32[]{:T(256)}, u32[]{:T(256)}, u32[]{:T(256)}, /*index=45*/u32[]{:T(256)}, u32[]{:T(256)}, f32[]{:T(256)}, f32[]{:T(256)}, f32[]{:T(256)}, /*index=50*/f32[]{:T(256)}, f32[]{:T(256)}, f32[]{:T(256)}, f32[]{:T(256)}, f32[]{:T(256)}, /*index=55*/s32[]{:T(256)}, f32[]{:T(256)}, f32[]{:T(256)}, f32[1]{0:T(256)}, s32[]{:T(256)}, /*index=60*/pred[128,27,27]{2,1,0:T(8,128)(4,1)}, s32[128,13]{0,1:T(8,128)}, f32[], s32[]{:T(256)}) %while.15), index=12, sharding={maximal device=0 metadata={op_type="TPUEmbeddingActivations" op_name="while/TPUEmbeddingActivations_5"}}, metadata={op_type="While" op_name="LoopCond"}
  %get-tuple-element.3433 = f32[1]{0:T(256)} get-tuple-element((s32[]{:T(256)}, u32[]{:T(256)}, u32[]{:T(256)}, f32[19656,128]{1,0:T(8,128)}, f32[1]{0:T(256)}, /*index=5*/f32[1]{0:T(256)}, f32[1]{0:T(256)}, f32[1]{0:T(256)}, f32[1]{0:T(256)}, f32[1]{0:T(256)}, /*index=10*/f32[1]{0:T(256)}, f32[1]{0:T(256)}, f32[1]{0:T(256)}, f32[1]{0:T(256)}, f32[1]{0:T(256)}, /*index=15*/f32[1]{0:T(256)}, f32[1]{0:T(256)}, f32[512]{0:T(512)}, f32[13,512]{1,0:T(8,128)}, f32[256]{0:T(256)}, /*index=20*/f32[512,256]{1,0:T(8,128)}, f32[128]{0:T(256)}, f32[256,128]{1,0:T(8,128)}, f32[1024]{0:T(1024)}, f32[857,1024]{1,0:T(8,128)}, /*index=25*/f32[1024]{0:T(1024)}, f32[1024,1024]{1,0:T(8,128)}, f32[512]{0:T(512)}, f32[1024,512]{1,0:T(8,128)}, f32[256]{0:T(256)}, /*index=30*/f32[512,256]{1,0:T(8,128)}, f32[1]{0:T(256)}, f32[256,1]{0,1:T(2,128)}, s32[]{:T(256)}, f32[]{:T(256)}, /*index=35*/pred[128,729]{0,1:T(8,128)(4,1)}, f32[], pred[128,27,27]{2,1,0:T(8,128)(4,1)}, s32[128,13]{0,1:T(8,128)}, u32[]{:T(256)}, /*index=40*/s32[]{:T(256)}, u32[]{:T(256)}, u32[]{:T(256)}, u32[]{:T(256)}, u32[]{:T(256)}, /*index=45*/u32[]{:T(256)}, u32[]{:T(256)}, f32[]{:T(256)}, f32[]{:T(256)}, f32[]{:T(256)}, /*index=50*/f32[]{:T(256)}, f32[]{:T(256)}, f32[]{:T(256)}, f32[]{:T(256)}, f32[]{:T(256)}, /*index=55*/s32[]{:T(256)}, f32[]{:T(256)}, f32[]{:T(256)}, f32[1]{0:T(256)}, s32[]{:T(256)}, /*index=60*/pred[128,27,27]{2,1,0:T(8,128)(4,1)}, s32[128,13]{0,1:T(8,128)}, f32[], s32[]{:T(256)}) %while.15), index=11, sharding={maximal device=0 metadata={op_type="TPUEmbeddingActivations" op_name="while/TPUEmbeddingActivations_4"}}, metadata={op_type="While" op_name="LoopCond"}
  %get-tuple-element.3432 = f32[1]{0:T(256)} get-tuple-element((s32[]{:T(256)}, u32[]{:T(256)}, u32[]{:T(256)}, f32[19656,128]{1,0:T(8,128)}, f32[1]{0:T(256)}, /*index=5*/f32[1]{0:T(256)}, f32[1]{0:T(256)}, f32[1]{0:T(256)}, f32[1]{0:T(256)}, f32[1]{0:T(256)}, /*index=10*/f32[1]{0:T(256)}, f32[1]{0:T(256)}, f32[1]{0:T(256)}, f32[1]{0:T(256)}, f32[1]{0:T(256)}, /*index=15*/f32[1]{0:T(256)}, f32[1]{0:T(256)}, f32[512]{0:T(512)}, f32[13,512]{1,0:T(8,128)}, f32[256]{0:T(256)}, /*index=20*/f32[512,256]{1,0:T(8,128)}, f32[128]{0:T(256)}, f32[256,128]{1,0:T(8,128)}, f32[1024]{0:T(1024)}, f32[857,1024]{1,0:T(8,128)}, /*index=25*/f32[1024]{0:T(1024)}, f32[1024,1024]{1,0:T(8,128)}, f32[512]{0:T(512)}, f32[1024,512]{1,0:T(8,128)}, f32[256]{0:T(256)}, /*index=30*/f32[512,256]{1,0:T(8,128)}, f32[1]{0:T(256)}, f32[256,1]{0,1:T(2,128)}, s32[]{:T(256)}, f32[]{:T(256)}, /*index=35*/pred[128,729]{0,1:T(8,128)(4,1)}, f32[], pred[128,27,27]{2,1,0:T(8,128)(4,1)}, s32[128,13]{0,1:T(8,128)}, u32[]{:T(256)}, /*index=40*/s32[]{:T(256)}, u32[]{:T(256)}, u32[]{:T(256)}, u32[]{:T(256)}, u32[]{:T(256)}, /*index=45*/u32[]{:T(256)}, u32[]{:T(256)}, f32[]{:T(256)}, f32[]{:T(256)}, f32[]{:T(256)}, /*index=50*/f32[]{:T(256)}, f32[]{:T(256)}, f32[]{:T(256)}, f32[]{:T(256)}, f32[]{:T(256)}, /*index=55*/s32[]{:T(256)}, f32[]{:T(256)}, f32[]{:T(256)}, f32[1]{0:T(256)}, s32[]{:T(256)}, /*index=60*/pred[128,27,27]{2,1,0:T(8,128)(4,1)}, s32[128,13]{0,1:T(8,128)}, f32[], s32[]{:T(256)}) %while.15), index=10, sharding={maximal device=0 metadata={op_type="TPUEmbeddingActivations" op_name="while/TPUEmbeddingActivations_3"}}, metadata={op_type="While" op_name="LoopCond"}
  %get-tuple-element.3431 = f32[1]{0:T(256)} get-tuple-element((s32[]{:T(256)}, u32[]{:T(256)}, u32[]{:T(256)}, f32[19656,128]{1,0:T(8,128)}, f32[1]{0:T(256)}, /*index=5*/f32[1]{0:T(256)}, f32[1]{0:T(256)}, f32[1]{0:T(256)}, f32[1]{0:T(256)}, f32[1]{0:T(256)}, /*index=10*/f32[1]{0:T(256)}, f32[1]{0:T(256)}, f32[1]{0:T(256)}, f32[1]{0:T(256)}, f32[1]{0:T(256)}, /*index=15*/f32[1]{0:T(256)}, f32[1]{0:T(256)}, f32[512]{0:T(512)}, f32[13,512]{1,0:T(8,128)}, f32[256]{0:T(256)}, /*index=20*/f32[512,256]{1,0:T(8,128)}, f32[128]{0:T(256)}, f32[256,128]{1,0:T(8,128)}, f32[1024]{0:T(1024)}, f32[857,1024]{1,0:T(8,128)}, /*index=25*/f32[1024]{0:T(1024)}, f32[1024,1024]{1,0:T(8,128)}, f32[512]{0:T(512)}, f32[1024,512]{1,0:T(8,128)}, f32[256]{0:T(256)}, /*index=30*/f32[512,256]{1,0:T(8,128)}, f32[1]{0:T(256)}, f32[256,1]{0,1:T(2,128)}, s32[]{:T(256)}, f32[]{:T(256)}, /*index=35*/pred[128,729]{0,1:T(8,128)(4,1)}, f32[], pred[128,27,27]{2,1,0:T(8,128)(4,1)}, s32[128,13]{0,1:T(8,128)}, u32[]{:T(256)}, /*index=40*/s32[]{:T(256)}, u32[]{:T(256)}, u32[]{:T(256)}, u32[]{:T(256)}, u32[]{:T(256)}, /*index=45*/u32[]{:T(256)}, u32[]{:T(256)}, f32[]{:T(256)}, f32[]{:T(256)}, f32[]{:T(256)}, /*index=50*/f32[]{:T(256)}, f32[]{:T(256)}, f32[]{:T(256)}, f32[]{:T(256)}, f32[]{:T(256)}, /*index=55*/s32[]{:T(256)}, f32[]{:T(256)}, f32[]{:T(256)}, f32[1]{0:T(256)}, s32[]{:T(256)}, /*index=60*/pred[128,27,27]{2,1,0:T(8,128)(4,1)}, s32[128,13]{0,1:T(8,128)}, f32[], s32[]{:T(256)}) %while.15), index=9, sharding={maximal device=0 metadata={op_type="TPUEmbeddingActivations" op_name="while/TPUEmbeddingActivations_2"}}, metadata={op_type="While" op_name="LoopCond"}
  %get-tuple-element.3430 = f32[1]{0:T(256)} get-tuple-element((s32[]{:T(256)}, u32[]{:T(256)}, u32[]{:T(256)}, f32[19656,128]{1,0:T(8,128)}, f32[1]{0:T(256)}, /*index=5*/f32[1]{0:T(256)}, f32[1]{0:T(256)}, f32[1]{0:T(256)}, f32[1]{0:T(256)}, f32[1]{0:T(256)}, /*index=10*/f32[1]{0:T(256)}, f32[1]{0:T(256)}, f32[1]{0:T(256)}, f32[1]{0:T(256)}, f32[1]{0:T(256)}, /*index=15*/f32[1]{0:T(256)}, f32[1]{0:T(256)}, f32[512]{0:T(512)}, f32[13,512]{1,0:T(8,128)}, f32[256]{0:T(256)}, /*index=20*/f32[512,256]{1,0:T(8,128)}, f32[128]{0:T(256)}, f32[256,128]{1,0:T(8,128)}, f32[1024]{0:T(1024)}, f32[857,1024]{1,0:T(8,128)}, /*index=25*/f32[1024]{0:T(1024)}, f32[1024,1024]{1,0:T(8,128)}, f32[512]{0:T(512)}, f32[1024,512]{1,0:T(8,128)}, f32[256]{0:T(256)}, /*index=30*/f32[512,256]{1,0:T(8,128)}, f32[1]{0:T(256)}, f32[256,1]{0,1:T(2,128)}, s32[]{:T(256)}, f32[]{:T(256)}, /*index=35*/pred[128,729]{0,1:T(8,128)(4,1)}, f32[], pred[128,27,27]{2,1,0:T(8,128)(4,1)}, s32[128,13]{0,1:T(8,128)}, u32[]{:T(256)}, /*index=40*/s32[]{:T(256)}, u32[]{:T(256)}, u32[]{:T(256)}, u32[]{:T(256)}, u32[]{:T(256)}, /*index=45*/u32[]{:T(256)}, u32[]{:T(256)}, f32[]{:T(256)}, f32[]{:T(256)}, f32[]{:T(256)}, /*index=50*/f32[]{:T(256)}, f32[]{:T(256)}, f32[]{:T(256)}, f32[]{:T(256)}, f32[]{:T(256)}, /*index=55*/s32[]{:T(256)}, f32[]{:T(256)}, f32[]{:T(256)}, f32[1]{0:T(256)}, s32[]{:T(256)}, /*index=60*/pred[128,27,27]{2,1,0:T(8,128)(4,1)}, s32[128,13]{0,1:T(8,128)}, f32[], s32[]{:T(256)}) %while.15), index=8, sharding={maximal device=0 metadata={op_type="TPUEmbeddingActivations" op_name="while/TPUEmbeddingActivations_12"}}, metadata={op_type="While" op_name="LoopCond"}
  %get-tuple-element.3429 = f32[1]{0:T(256)} get-tuple-element((s32[]{:T(256)}, u32[]{:T(256)}, u32[]{:T(256)}, f32[19656,128]{1,0:T(8,128)}, f32[1]{0:T(256)}, /*index=5*/f32[1]{0:T(256)}, f32[1]{0:T(256)}, f32[1]{0:T(256)}, f32[1]{0:T(256)}, f32[1]{0:T(256)}, /*index=10*/f32[1]{0:T(256)}, f32[1]{0:T(256)}, f32[1]{0:T(256)}, f32[1]{0:T(256)}, f32[1]{0:T(256)}, /*index=15*/f32[1]{0:T(256)}, f32[1]{0:T(256)}, f32[512]{0:T(512)}, f32[13,512]{1,0:T(8,128)}, f32[256]{0:T(256)}, /*index=20*/f32[512,256]{1,0:T(8,128)}, f32[128]{0:T(256)}, f32[256,128]{1,0:T(8,128)}, f32[1024]{0:T(1024)}, f32[857,1024]{1,0:T(8,128)}, /*index=25*/f32[1024]{0:T(1024)}, f32[1024,1024]{1,0:T(8,128)}, f32[512]{0:T(512)}, f32[1024,512]{1,0:T(8,128)}, f32[256]{0:T(256)}, /*index=30*/f32[512,256]{1,0:T(8,128)}, f32[1]{0:T(256)}, f32[256,1]{0,1:T(2,128)}, s32[]{:T(256)}, f32[]{:T(256)}, /*index=35*/pred[128,729]{0,1:T(8,128)(4,1)}, f32[], pred[128,27,27]{2,1,0:T(8,128)(4,1)}, s32[128,13]{0,1:T(8,128)}, u32[]{:T(256)}, /*index=40*/s32[]{:T(256)}, u32[]{:T(256)}, u32[]{:T(256)}, u32[]{:T(256)}, u32[]{:T(256)}, /*index=45*/u32[]{:T(256)}, u32[]{:T(256)}, f32[]{:T(256)}, f32[]{:T(256)}, f32[]{:T(256)}, /*index=50*/f32[]{:T(256)}, f32[]{:T(256)}, f32[]{:T(256)}, f32[]{:T(256)}, f32[]{:T(256)}, /*index=55*/s32[]{:T(256)}, f32[]{:T(256)}, f32[]{:T(256)}, f32[1]{0:T(256)}, s32[]{:T(256)}, /*index=60*/pred[128,27,27]{2,1,0:T(8,128)(4,1)}, s32[128,13]{0,1:T(8,128)}, f32[], s32[]{:T(256)}) %while.15), index=7, sharding={maximal device=0 metadata={op_type="TPUEmbeddingActivations" op_name="while/TPUEmbeddingActivations_11"}}, metadata={op_type="While" op_name="LoopCond"}
  %get-tuple-element.3428 = f32[1]{0:T(256)} get-tuple-element((s32[]{:T(256)}, u32[]{:T(256)}, u32[]{:T(256)}, f32[19656,128]{1,0:T(8,128)}, f32[1]{0:T(256)}, /*index=5*/f32[1]{0:T(256)}, f32[1]{0:T(256)}, f32[1]{0:T(256)}, f32[1]{0:T(256)}, f32[1]{0:T(256)}, /*index=10*/f32[1]{0:T(256)}, f32[1]{0:T(256)}, f32[1]{0:T(256)}, f32[1]{0:T(256)}, f32[1]{0:T(256)}, /*index=15*/f32[1]{0:T(256)}, f32[1]{0:T(256)}, f32[512]{0:T(512)}, f32[13,512]{1,0:T(8,128)}, f32[256]{0:T(256)}, /*index=20*/f32[512,256]{1,0:T(8,128)}, f32[128]{0:T(256)}, f32[256,128]{1,0:T(8,128)}, f32[1024]{0:T(1024)}, f32[857,1024]{1,0:T(8,128)}, /*index=25*/f32[1024]{0:T(1024)}, f32[1024,1024]{1,0:T(8,128)}, f32[512]{0:T(512)}, f32[1024,512]{1,0:T(8,128)}, f32[256]{0:T(256)}, /*index=30*/f32[512,256]{1,0:T(8,128)}, f32[1]{0:T(256)}, f32[256,1]{0,1:T(2,128)}, s32[]{:T(256)}, f32[]{:T(256)}, /*index=35*/pred[128,729]{0,1:T(8,128)(4,1)}, f32[], pred[128,27,27]{2,1,0:T(8,128)(4,1)}, s32[128,13]{0,1:T(8,128)}, u32[]{:T(256)}, /*index=40*/s32[]{:T(256)}, u32[]{:T(256)}, u32[]{:T(256)}, u32[]{:T(256)}, u32[]{:T(256)}, /*index=45*/u32[]{:T(256)}, u32[]{:T(256)}, f32[]{:T(256)}, f32[]{:T(256)}, f32[]{:T(256)}, /*index=50*/f32[]{:T(256)}, f32[]{:T(256)}, f32[]{:T(256)}, f32[]{:T(256)}, f32[]{:T(256)}, /*index=55*/s32[]{:T(256)}, f32[]{:T(256)}, f32[]{:T(256)}, f32[1]{0:T(256)}, s32[]{:T(256)}, /*index=60*/pred[128,27,27]{2,1,0:T(8,128)(4,1)}, s32[128,13]{0,1:T(8,128)}, f32[], s32[]{:T(256)}) %while.15), index=6, sharding={maximal device=0 metadata={op_type="TPUEmbeddingActivations" op_name="while/TPUEmbeddingActivations_10"}}, metadata={op_type="While" op_name="LoopCond"}
  %get-tuple-element.3427 = f32[1]{0:T(256)} get-tuple-element((s32[]{:T(256)}, u32[]{:T(256)}, u32[]{:T(256)}, f32[19656,128]{1,0:T(8,128)}, f32[1]{0:T(256)}, /*index=5*/f32[1]{0:T(256)}, f32[1]{0:T(256)}, f32[1]{0:T(256)}, f32[1]{0:T(256)}, f32[1]{0:T(256)}, /*index=10*/f32[1]{0:T(256)}, f32[1]{0:T(256)}, f32[1]{0:T(256)}, f32[1]{0:T(256)}, f32[1]{0:T(256)}, /*index=15*/f32[1]{0:T(256)}, f32[1]{0:T(256)}, f32[512]{0:T(512)}, f32[13,512]{1,0:T(8,128)}, f32[256]{0:T(256)}, /*index=20*/f32[512,256]{1,0:T(8,128)}, f32[128]{0:T(256)}, f32[256,128]{1,0:T(8,128)}, f32[1024]{0:T(1024)}, f32[857,1024]{1,0:T(8,128)}, /*index=25*/f32[1024]{0:T(1024)}, f32[1024,1024]{1,0:T(8,128)}, f32[512]{0:T(512)}, f32[1024,512]{1,0:T(8,128)}, f32[256]{0:T(256)}, /*index=30*/f32[512,256]{1,0:T(8,128)}, f32[1]{0:T(256)}, f32[256,1]{0,1:T(2,128)}, s32[]{:T(256)}, f32[]{:T(256)}, /*index=35*/pred[128,729]{0,1:T(8,128)(4,1)}, f32[], pred[128,27,27]{2,1,0:T(8,128)(4,1)}, s32[128,13]{0,1:T(8,128)}, u32[]{:T(256)}, /*index=40*/s32[]{:T(256)}, u32[]{:T(256)}, u32[]{:T(256)}, u32[]{:T(256)}, u32[]{:T(256)}, /*index=45*/u32[]{:T(256)}, u32[]{:T(256)}, f32[]{:T(256)}, f32[]{:T(256)}, f32[]{:T(256)}, /*index=50*/f32[]{:T(256)}, f32[]{:T(256)}, f32[]{:T(256)}, f32[]{:T(256)}, f32[]{:T(256)}, /*index=55*/s32[]{:T(256)}, f32[]{:T(256)}, f32[]{:T(256)}, f32[1]{0:T(256)}, s32[]{:T(256)}, /*index=60*/pred[128,27,27]{2,1,0:T(8,128)(4,1)}, s32[128,13]{0,1:T(8,128)}, f32[], s32[]{:T(256)}) %while.15), index=5, sharding={maximal device=0 metadata={op_type="TPUEmbeddingActivations" op_name="while/TPUEmbeddingActivations_1"}}, metadata={op_type="While" op_name="LoopCond"}
  %get-tuple-element.3426 = f32[1]{0:T(256)} get-tuple-element((s32[]{:T(256)}, u32[]{:T(256)}, u32[]{:T(256)}, f32[19656,128]{1,0:T(8,128)}, f32[1]{0:T(256)}, /*index=5*/f32[1]{0:T(256)}, f32[1]{0:T(256)}, f32[1]{0:T(256)}, f32[1]{0:T(256)}, f32[1]{0:T(256)}, /*index=10*/f32[1]{0:T(256)}, f32[1]{0:T(256)}, f32[1]{0:T(256)}, f32[1]{0:T(256)}, f32[1]{0:T(256)}, /*index=15*/f32[1]{0:T(256)}, f32[1]{0:T(256)}, f32[512]{0:T(512)}, f32[13,512]{1,0:T(8,128)}, f32[256]{0:T(256)}, /*index=20*/f32[512,256]{1,0:T(8,128)}, f32[128]{0:T(256)}, f32[256,128]{1,0:T(8,128)}, f32[1024]{0:T(1024)}, f32[857,1024]{1,0:T(8,128)}, /*index=25*/f32[1024]{0:T(1024)}, f32[1024,1024]{1,0:T(8,128)}, f32[512]{0:T(512)}, f32[1024,512]{1,0:T(8,128)}, f32[256]{0:T(256)}, /*index=30*/f32[512,256]{1,0:T(8,128)}, f32[1]{0:T(256)}, f32[256,1]{0,1:T(2,128)}, s32[]{:T(256)}, f32[]{:T(256)}, /*index=35*/pred[128,729]{0,1:T(8,128)(4,1)}, f32[], pred[128,27,27]{2,1,0:T(8,128)(4,1)}, s32[128,13]{0,1:T(8,128)}, u32[]{:T(256)}, /*index=40*/s32[]{:T(256)}, u32[]{:T(256)}, u32[]{:T(256)}, u32[]{:T(256)}, u32[]{:T(256)}, /*index=45*/u32[]{:T(256)}, u32[]{:T(256)}, f32[]{:T(256)}, f32[]{:T(256)}, f32[]{:T(256)}, /*index=50*/f32[]{:T(256)}, f32[]{:T(256)}, f32[]{:T(256)}, f32[]{:T(256)}, f32[]{:T(256)}, /*index=55*/s32[]{:T(256)}, f32[]{:T(256)}, f32[]{:T(256)}, f32[1]{0:T(256)}, s32[]{:T(256)}, /*index=60*/pred[128,27,27]{2,1,0:T(8,128)(4,1)}, s32[128,13]{0,1:T(8,128)}, f32[], s32[]{:T(256)}) %while.15), index=4, sharding={maximal device=0 metadata={op_type="TPUEmbeddingActivations" op_name="while/TPUEmbeddingActivations"}}, metadata={op_type="While" op_name="LoopCond"}
  %get-tuple-element.3424 = u32[]{:T(256)} get-tuple-element((s32[]{:T(256)}, u32[]{:T(256)}, u32[]{:T(256)}, f32[19656,128]{1,0:T(8,128)}, f32[1]{0:T(256)}, /*index=5*/f32[1]{0:T(256)}, f32[1]{0:T(256)}, f32[1]{0:T(256)}, f32[1]{0:T(256)}, f32[1]{0:T(256)}, /*index=10*/f32[1]{0:T(256)}, f32[1]{0:T(256)}, f32[1]{0:T(256)}, f32[1]{0:T(256)}, f32[1]{0:T(256)}, /*index=15*/f32[1]{0:T(256)}, f32[1]{0:T(256)}, f32[512]{0:T(512)}, f32[13,512]{1,0:T(8,128)}, f32[256]{0:T(256)}, /*index=20*/f32[512,256]{1,0:T(8,128)}, f32[128]{0:T(256)}, f32[256,128]{1,0:T(8,128)}, f32[1024]{0:T(1024)}, f32[857,1024]{1,0:T(8,128)}, /*index=25*/f32[1024]{0:T(1024)}, f32[1024,1024]{1,0:T(8,128)}, f32[512]{0:T(512)}, f32[1024,512]{1,0:T(8,128)}, f32[256]{0:T(256)}, /*index=30*/f32[512,256]{1,0:T(8,128)}, f32[1]{0:T(256)}, f32[256,1]{0,1:T(2,128)}, s32[]{:T(256)}, f32[]{:T(256)}, /*index=35*/pred[128,729]{0,1:T(8,128)(4,1)}, f32[], pred[128,27,27]{2,1,0:T(8,128)(4,1)}, s32[128,13]{0,1:T(8,128)}, u32[]{:T(256)}, /*index=40*/s32[]{:T(256)}, u32[]{:T(256)}, u32[]{:T(256)}, u32[]{:T(256)}, u32[]{:T(256)}, /*index=45*/u32[]{:T(256)}, u32[]{:T(256)}, f32[]{:T(256)}, f32[]{:T(256)}, f32[]{:T(256)}, /*index=50*/f32[]{:T(256)}, f32[]{:T(256)}, f32[]{:T(256)}, f32[]{:T(256)}, f32[]{:T(256)}, /*index=55*/s32[]{:T(256)}, f32[]{:T(256)}, f32[]{:T(256)}, f32[1]{0:T(256)}, s32[]{:T(256)}, /*index=60*/pred[128,27,27]{2,1,0:T(8,128)(4,1)}, s32[128,13]{0,1:T(8,128)}, f32[], s32[]{:T(256)}) %while.15), index=2, sharding={maximal device=0 metadata={op_type="Cast" op_name="while/Cast_9"}}, metadata={op_name="XLA_Retvals"}
  %get-tuple-element.3423 = u32[]{:T(256)} get-tuple-element((s32[]{:T(256)}, u32[]{:T(256)}, u32[]{:T(256)}, f32[19656,128]{1,0:T(8,128)}, f32[1]{0:T(256)}, /*index=5*/f32[1]{0:T(256)}, f32[1]{0:T(256)}, f32[1]{0:T(256)}, f32[1]{0:T(256)}, f32[1]{0:T(256)}, /*index=10*/f32[1]{0:T(256)}, f32[1]{0:T(256)}, f32[1]{0:T(256)}, f32[1]{0:T(256)}, f32[1]{0:T(256)}, /*index=15*/f32[1]{0:T(256)}, f32[1]{0:T(256)}, f32[512]{0:T(512)}, f32[13,512]{1,0:T(8,128)}, f32[256]{0:T(256)}, /*index=20*/f32[512,256]{1,0:T(8,128)}, f32[128]{0:T(256)}, f32[256,128]{1,0:T(8,128)}, f32[1024]{0:T(1024)}, f32[857,1024]{1,0:T(8,128)}, /*index=25*/f32[1024]{0:T(1024)}, f32[1024,1024]{1,0:T(8,128)}, f32[512]{0:T(512)}, f32[1024,512]{1,0:T(8,128)}, f32[256]{0:T(256)}, /*index=30*/f32[512,256]{1,0:T(8,128)}, f32[1]{0:T(256)}, f32[256,1]{0,1:T(2,128)}, s32[]{:T(256)}, f32[]{:T(256)}, /*index=35*/pred[128,729]{0,1:T(8,128)(4,1)}, f32[], pred[128,27,27]{2,1,0:T(8,128)(4,1)}, s32[128,13]{0,1:T(8,128)}, u32[]{:T(256)}, /*index=40*/s32[]{:T(256)}, u32[]{:T(256)}, u32[]{:T(256)}, u32[]{:T(256)}, u32[]{:T(256)}, /*index=45*/u32[]{:T(256)}, u32[]{:T(256)}, f32[]{:T(256)}, f32[]{:T(256)}, f32[]{:T(256)}, /*index=50*/f32[]{:T(256)}, f32[]{:T(256)}, f32[]{:T(256)}, f32[]{:T(256)}, f32[]{:T(256)}, /*index=55*/s32[]{:T(256)}, f32[]{:T(256)}, f32[]{:T(256)}, f32[1]{0:T(256)}, s32[]{:T(256)}, /*index=60*/pred[128,27,27]{2,1,0:T(8,128)(4,1)}, s32[128,13]{0,1:T(8,128)}, f32[], s32[]{:T(256)}) %while.15), index=1, sharding={maximal device=0 metadata={op_type="Cast" op_name="while/Cast_9"}}, metadata={op_name="XLA_Retvals"}
  %custom-call.2 = s64[]{:T(256)} custom-call(u32[]{:T(256)} %get-tuple-element.3423, u32[]{:T(256)} %get-tuple-element.3424), custom_call_target="X64Combine", sharding={maximal device=0 metadata={op_type="_TPUReplicate" op_name="cluster"}}, metadata={op_name="XLA_Retvals"}
  %get-tuple-element.3452 = f32[512,256]{1,0:T(8,128)} get-tuple-element((s32[]{:T(256)}, u32[]{:T(256)}, u32[]{:T(256)}, f32[19656,128]{1,0:T(8,128)}, f32[1]{0:T(256)}, /*index=5*/f32[1]{0:T(256)}, f32[1]{0:T(256)}, f32[1]{0:T(256)}, f32[1]{0:T(256)}, f32[1]{0:T(256)}, /*index=10*/f32[1]{0:T(256)}, f32[1]{0:T(256)}, f32[1]{0:T(256)}, f32[1]{0:T(256)}, f32[1]{0:T(256)}, /*index=15*/f32[1]{0:T(256)}, f32[1]{0:T(256)}, f32[512]{0:T(512)}, f32[13,512]{1,0:T(8,128)}, f32[256]{0:T(256)}, /*index=20*/f32[512,256]{1,0:T(8,128)}, f32[128]{0:T(256)}, f32[256,128]{1,0:T(8,128)}, f32[1024]{0:T(1024)}, f32[857,1024]{1,0:T(8,128)}, /*index=25*/f32[1024]{0:T(1024)}, f32[1024,1024]{1,0:T(8,128)}, f32[512]{0:T(512)}, f32[1024,512]{1,0:T(8,128)}, f32[256]{0:T(256)}, /*index=30*/f32[512,256]{1,0:T(8,128)}, f32[1]{0:T(256)}, f32[256,1]{0,1:T(2,128)}, s32[]{:T(256)}, f32[]{:T(256)}, /*index=35*/pred[128,729]{0,1:T(8,128)(4,1)}, f32[], pred[128,27,27]{2,1,0:T(8,128)(4,1)}, s32[128,13]{0,1:T(8,128)}, u32[]{:T(256)}, /*index=40*/s32[]{:T(256)}, u32[]{:T(256)}, u32[]{:T(256)}, u32[]{:T(256)}, u32[]{:T(256)}, /*index=45*/u32[]{:T(256)}, u32[]{:T(256)}, f32[]{:T(256)}, f32[]{:T(256)}, f32[]{:T(256)}, /*index=50*/f32[]{:T(256)}, f32[]{:T(256)}, f32[]{:T(256)}, f32[]{:T(256)}, f32[]{:T(256)}, /*index=55*/s32[]{:T(256)}, f32[]{:T(256)}, f32[]{:T(256)}, f32[1]{0:T(256)}, s32[]{:T(256)}, /*index=60*/pred[128,27,27]{2,1,0:T(8,128)(4,1)}, s32[128,13]{0,1:T(8,128)}, f32[], s32[]{:T(256)}) %while.15), index=30, sharding={maximal device=0 metadata={op_type="_TPUReplicate" op_name="cluster"}}, metadata={op_type="While" op_name="LoopCond"}
  %get-tuple-element.3451 = f32[256]{0:T(256)} get-tuple-element((s32[]{:T(256)}, u32[]{:T(256)}, u32[]{:T(256)}, f32[19656,128]{1,0:T(8,128)}, f32[1]{0:T(256)}, /*index=5*/f32[1]{0:T(256)}, f32[1]{0:T(256)}, f32[1]{0:T(256)}, f32[1]{0:T(256)}, f32[1]{0:T(256)}, /*index=10*/f32[1]{0:T(256)}, f32[1]{0:T(256)}, f32[1]{0:T(256)}, f32[1]{0:T(256)}, f32[1]{0:T(256)}, /*index=15*/f32[1]{0:T(256)}, f32[1]{0:T(256)}, f32[512]{0:T(512)}, f32[13,512]{1,0:T(8,128)}, f32[256]{0:T(256)}, /*index=20*/f32[512,256]{1,0:T(8,128)}, f32[128]{0:T(256)}, f32[256,128]{1,0:T(8,128)}, f32[1024]{0:T(1024)}, f32[857,1024]{1,0:T(8,128)}, /*index=25*/f32[1024]{0:T(1024)}, f32[1024,1024]{1,0:T(8,128)}, f32[512]{0:T(512)}, f32[1024,512]{1,0:T(8,128)}, f32[256]{0:T(256)}, /*index=30*/f32[512,256]{1,0:T(8,128)}, f32[1]{0:T(256)}, f32[256,1]{0,1:T(2,128)}, s32[]{:T(256)}, f32[]{:T(256)}, /*index=35*/pred[128,729]{0,1:T(8,128)(4,1)}, f32[], pred[128,27,27]{2,1,0:T(8,128)(4,1)}, s32[128,13]{0,1:T(8,128)}, u32[]{:T(256)}, /*index=40*/s32[]{:T(256)}, u32[]{:T(256)}, u32[]{:T(256)}, u32[]{:T(256)}, u32[]{:T(256)}, /*index=45*/u32[]{:T(256)}, u32[]{:T(256)}, f32[]{:T(256)}, f32[]{:T(256)}, f32[]{:T(256)}, /*index=50*/f32[]{:T(256)}, f32[]{:T(256)}, f32[]{:T(256)}, f32[]{:T(256)}, f32[]{:T(256)}, /*index=55*/s32[]{:T(256)}, f32[]{:T(256)}, f32[]{:T(256)}, f32[1]{0:T(256)}, s32[]{:T(256)}, /*index=60*/pred[128,27,27]{2,1,0:T(8,128)(4,1)}, s32[128,13]{0,1:T(8,128)}, f32[], s32[]{:T(256)}) %while.15), index=29, sharding={maximal device=0 metadata={op_type="_TPUReplicate" op_name="cluster"}}, metadata={op_type="While" op_name="LoopCond"}
  %get-tuple-element.3450 = f32[1024,512]{1,0:T(8,128)} get-tuple-element((s32[]{:T(256)}, u32[]{:T(256)}, u32[]{:T(256)}, f32[19656,128]{1,0:T(8,128)}, f32[1]{0:T(256)}, /*index=5*/f32[1]{0:T(256)}, f32[1]{0:T(256)}, f32[1]{0:T(256)}, f32[1]{0:T(256)}, f32[1]{0:T(256)}, /*index=10*/f32[1]{0:T(256)}, f32[1]{0:T(256)}, f32[1]{0:T(256)}, f32[1]{0:T(256)}, f32[1]{0:T(256)}, /*index=15*/f32[1]{0:T(256)}, f32[1]{0:T(256)}, f32[512]{0:T(512)}, f32[13,512]{1,0:T(8,128)}, f32[256]{0:T(256)}, /*index=20*/f32[512,256]{1,0:T(8,128)}, f32[128]{0:T(256)}, f32[256,128]{1,0:T(8,128)}, f32[1024]{0:T(1024)}, f32[857,1024]{1,0:T(8,128)}, /*index=25*/f32[1024]{0:T(1024)}, f32[1024,1024]{1,0:T(8,128)}, f32[512]{0:T(512)}, f32[1024,512]{1,0:T(8,128)}, f32[256]{0:T(256)}, /*index=30*/f32[512,256]{1,0:T(8,128)}, f32[1]{0:T(256)}, f32[256,1]{0,1:T(2,128)}, s32[]{:T(256)}, f32[]{:T(256)}, /*index=35*/pred[128,729]{0,1:T(8,128)(4,1)}, f32[], pred[128,27,27]{2,1,0:T(8,128)(4,1)}, s32[128,13]{0,1:T(8,128)}, u32[]{:T(256)}, /*index=40*/s32[]{:T(256)}, u32[]{:T(256)}, u32[]{:T(256)}, u32[]{:T(256)}, u32[]{:T(256)}, /*index=45*/u32[]{:T(256)}, u32[]{:T(256)}, f32[]{:T(256)}, f32[]{:T(256)}, f32[]{:T(256)}, /*index=50*/f32[]{:T(256)}, f32[]{:T(256)}, f32[]{:T(256)}, f32[]{:T(256)}, f32[]{:T(256)}, /*index=55*/s32[]{:T(256)}, f32[]{:T(256)}, f32[]{:T(256)}, f32[1]{0:T(256)}, s32[]{:T(256)}, /*index=60*/pred[128,27,27]{2,1,0:T(8,128)(4,1)}, s32[128,13]{0,1:T(8,128)}, f32[], s32[]{:T(256)}) %while.15), index=28, sharding={maximal device=0 metadata={op_type="_TPUReplicate" op_name="cluster"}}, metadata={op_type="While" op_name="LoopCond"}
  %get-tuple-element.3449 = f32[512]{0:T(512)} get-tuple-element((s32[]{:T(256)}, u32[]{:T(256)}, u32[]{:T(256)}, f32[19656,128]{1,0:T(8,128)}, f32[1]{0:T(256)}, /*index=5*/f32[1]{0:T(256)}, f32[1]{0:T(256)}, f32[1]{0:T(256)}, f32[1]{0:T(256)}, f32[1]{0:T(256)}, /*index=10*/f32[1]{0:T(256)}, f32[1]{0:T(256)}, f32[1]{0:T(256)}, f32[1]{0:T(256)}, f32[1]{0:T(256)}, /*index=15*/f32[1]{0:T(256)}, f32[1]{0:T(256)}, f32[512]{0:T(512)}, f32[13,512]{1,0:T(8,128)}, f32[256]{0:T(256)}, /*index=20*/f32[512,256]{1,0:T(8,128)}, f32[128]{0:T(256)}, f32[256,128]{1,0:T(8,128)}, f32[1024]{0:T(1024)}, f32[857,1024]{1,0:T(8,128)}, /*index=25*/f32[1024]{0:T(1024)}, f32[1024,1024]{1,0:T(8,128)}, f32[512]{0:T(512)}, f32[1024,512]{1,0:T(8,128)}, f32[256]{0:T(256)}, /*index=30*/f32[512,256]{1,0:T(8,128)}, f32[1]{0:T(256)}, f32[256,1]{0,1:T(2,128)}, s32[]{:T(256)}, f32[]{:T(256)}, /*index=35*/pred[128,729]{0,1:T(8,128)(4,1)}, f32[], pred[128,27,27]{2,1,0:T(8,128)(4,1)}, s32[128,13]{0,1:T(8,128)}, u32[]{:T(256)}, /*index=40*/s32[]{:T(256)}, u32[]{:T(256)}, u32[]{:T(256)}, u32[]{:T(256)}, u32[]{:T(256)}, /*index=45*/u32[]{:T(256)}, u32[]{:T(256)}, f32[]{:T(256)}, f32[]{:T(256)}, f32[]{:T(256)}, /*index=50*/f32[]{:T(256)}, f32[]{:T(256)}, f32[]{:T(256)}, f32[]{:T(256)}, f32[]{:T(256)}, /*index=55*/s32[]{:T(256)}, f32[]{:T(256)}, f32[]{:T(256)}, f32[1]{0:T(256)}, s32[]{:T(256)}, /*index=60*/pred[128,27,27]{2,1,0:T(8,128)(4,1)}, s32[128,13]{0,1:T(8,128)}, f32[], s32[]{:T(256)}) %while.15), index=27, sharding={maximal device=0 metadata={op_type="_TPUReplicate" op_name="cluster"}}, metadata={op_type="While" op_name="LoopCond"}
  %get-tuple-element.3448 = f32[1024,1024]{1,0:T(8,128)} get-tuple-element((s32[]{:T(256)}, u32[]{:T(256)}, u32[]{:T(256)}, f32[19656,128]{1,0:T(8,128)}, f32[1]{0:T(256)}, /*index=5*/f32[1]{0:T(256)}, f32[1]{0:T(256)}, f32[1]{0:T(256)}, f32[1]{0:T(256)}, f32[1]{0:T(256)}, /*index=10*/f32[1]{0:T(256)}, f32[1]{0:T(256)}, f32[1]{0:T(256)}, f32[1]{0:T(256)}, f32[1]{0:T(256)}, /*index=15*/f32[1]{0:T(256)}, f32[1]{0:T(256)}, f32[512]{0:T(512)}, f32[13,512]{1,0:T(8,128)}, f32[256]{0:T(256)}, /*index=20*/f32[512,256]{1,0:T(8,128)}, f32[128]{0:T(256)}, f32[256,128]{1,0:T(8,128)}, f32[1024]{0:T(1024)}, f32[857,1024]{1,0:T(8,128)}, /*index=25*/f32[1024]{0:T(1024)}, f32[1024,1024]{1,0:T(8,128)}, f32[512]{0:T(512)}, f32[1024,512]{1,0:T(8,128)}, f32[256]{0:T(256)}, /*index=30*/f32[512,256]{1,0:T(8,128)}, f32[1]{0:T(256)}, f32[256,1]{0,1:T(2,128)}, s32[]{:T(256)}, f32[]{:T(256)}, /*index=35*/pred[128,729]{0,1:T(8,128)(4,1)}, f32[], pred[128,27,27]{2,1,0:T(8,128)(4,1)}, s32[128,13]{0,1:T(8,128)}, u32[]{:T(256)}, /*index=40*/s32[]{:T(256)}, u32[]{:T(256)}, u32[]{:T(256)}, u32[]{:T(256)}, u32[]{:T(256)}, /*index=45*/u32[]{:T(256)}, u32[]{:T(256)}, f32[]{:T(256)}, f32[]{:T(256)}, f32[]{:T(256)}, /*index=50*/f32[]{:T(256)}, f32[]{:T(256)}, f32[]{:T(256)}, f32[]{:T(256)}, f32[]{:T(256)}, /*index=55*/s32[]{:T(256)}, f32[]{:T(256)}, f32[]{:T(256)}, f32[1]{0:T(256)}, s32[]{:T(256)}, /*index=60*/pred[128,27,27]{2,1,0:T(8,128)(4,1)}, s32[128,13]{0,1:T(8,128)}, f32[], s32[]{:T(256)}) %while.15), index=26, sharding={maximal device=0 metadata={op_type="_TPUReplicate" op_name="cluster"}}, metadata={op_type="While" op_name="LoopCond"}
  %get-tuple-element.3447 = f32[1024]{0:T(1024)} get-tuple-element((s32[]{:T(256)}, u32[]{:T(256)}, u32[]{:T(256)}, f32[19656,128]{1,0:T(8,128)}, f32[1]{0:T(256)}, /*index=5*/f32[1]{0:T(256)}, f32[1]{0:T(256)}, f32[1]{0:T(256)}, f32[1]{0:T(256)}, f32[1]{0:T(256)}, /*index=10*/f32[1]{0:T(256)}, f32[1]{0:T(256)}, f32[1]{0:T(256)}, f32[1]{0:T(256)}, f32[1]{0:T(256)}, /*index=15*/f32[1]{0:T(256)}, f32[1]{0:T(256)}, f32[512]{0:T(512)}, f32[13,512]{1,0:T(8,128)}, f32[256]{0:T(256)}, /*index=20*/f32[512,256]{1,0:T(8,128)}, f32[128]{0:T(256)}, f32[256,128]{1,0:T(8,128)}, f32[1024]{0:T(1024)}, f32[857,1024]{1,0:T(8,128)}, /*index=25*/f32[1024]{0:T(1024)}, f32[1024,1024]{1,0:T(8,128)}, f32[512]{0:T(512)}, f32[1024,512]{1,0:T(8,128)}, f32[256]{0:T(256)}, /*index=30*/f32[512,256]{1,0:T(8,128)}, f32[1]{0:T(256)}, f32[256,1]{0,1:T(2,128)}, s32[]{:T(256)}, f32[]{:T(256)}, /*index=35*/pred[128,729]{0,1:T(8,128)(4,1)}, f32[], pred[128,27,27]{2,1,0:T(8,128)(4,1)}, s32[128,13]{0,1:T(8,128)}, u32[]{:T(256)}, /*index=40*/s32[]{:T(256)}, u32[]{:T(256)}, u32[]{:T(256)}, u32[]{:T(256)}, u32[]{:T(256)}, /*index=45*/u32[]{:T(256)}, u32[]{:T(256)}, f32[]{:T(256)}, f32[]{:T(256)}, f32[]{:T(256)}, /*index=50*/f32[]{:T(256)}, f32[]{:T(256)}, f32[]{:T(256)}, f32[]{:T(256)}, f32[]{:T(256)}, /*index=55*/s32[]{:T(256)}, f32[]{:T(256)}, f32[]{:T(256)}, f32[1]{0:T(256)}, s32[]{:T(256)}, /*index=60*/pred[128,27,27]{2,1,0:T(8,128)(4,1)}, s32[128,13]{0,1:T(8,128)}, f32[], s32[]{:T(256)}) %while.15), index=25, sharding={maximal device=0 metadata={op_type="_TPUReplicate" op_name="cluster"}}, metadata={op_type="While" op_name="LoopCond"}
  %get-tuple-element.3446 = f32[857,1024]{1,0:T(8,128)} get-tuple-element((s32[]{:T(256)}, u32[]{:T(256)}, u32[]{:T(256)}, f32[19656,128]{1,0:T(8,128)}, f32[1]{0:T(256)}, /*index=5*/f32[1]{0:T(256)}, f32[1]{0:T(256)}, f32[1]{0:T(256)}, f32[1]{0:T(256)}, f32[1]{0:T(256)}, /*index=10*/f32[1]{0:T(256)}, f32[1]{0:T(256)}, f32[1]{0:T(256)}, f32[1]{0:T(256)}, f32[1]{0:T(256)}, /*index=15*/f32[1]{0:T(256)}, f32[1]{0:T(256)}, f32[512]{0:T(512)}, f32[13,512]{1,0:T(8,128)}, f32[256]{0:T(256)}, /*index=20*/f32[512,256]{1,0:T(8,128)}, f32[128]{0:T(256)}, f32[256,128]{1,0:T(8,128)}, f32[1024]{0:T(1024)}, f32[857,1024]{1,0:T(8,128)}, /*index=25*/f32[1024]{0:T(1024)}, f32[1024,1024]{1,0:T(8,128)}, f32[512]{0:T(512)}, f32[1024,512]{1,0:T(8,128)}, f32[256]{0:T(256)}, /*index=30*/f32[512,256]{1,0:T(8,128)}, f32[1]{0:T(256)}, f32[256,1]{0,1:T(2,128)}, s32[]{:T(256)}, f32[]{:T(256)}, /*index=35*/pred[128,729]{0,1:T(8,128)(4,1)}, f32[], pred[128,27,27]{2,1,0:T(8,128)(4,1)}, s32[128,13]{0,1:T(8,128)}, u32[]{:T(256)}, /*index=40*/s32[]{:T(256)}, u32[]{:T(256)}, u32[]{:T(256)}, u32[]{:T(256)}, u32[]{:T(256)}, /*index=45*/u32[]{:T(256)}, u32[]{:T(256)}, f32[]{:T(256)}, f32[]{:T(256)}, f32[]{:T(256)}, /*index=50*/f32[]{:T(256)}, f32[]{:T(256)}, f32[]{:T(256)}, f32[]{:T(256)}, f32[]{:T(256)}, /*index=55*/s32[]{:T(256)}, f32[]{:T(256)}, f32[]{:T(256)}, f32[1]{0:T(256)}, s32[]{:T(256)}, /*index=60*/pred[128,27,27]{2,1,0:T(8,128)(4,1)}, s32[128,13]{0,1:T(8,128)}, f32[], s32[]{:T(256)}) %while.15), index=24, sharding={maximal device=0 metadata={op_type="_TPUReplicate" op_name="cluster"}}, metadata={op_type="While" op_name="LoopCond"}
  %get-tuple-element.3445 = f32[1024]{0:T(1024)} get-tuple-element((s32[]{:T(256)}, u32[]{:T(256)}, u32[]{:T(256)}, f32[19656,128]{1,0:T(8,128)}, f32[1]{0:T(256)}, /*index=5*/f32[1]{0:T(256)}, f32[1]{0:T(256)}, f32[1]{0:T(256)}, f32[1]{0:T(256)}, f32[1]{0:T(256)}, /*index=10*/f32[1]{0:T(256)}, f32[1]{0:T(256)}, f32[1]{0:T(256)}, f32[1]{0:T(256)}, f32[1]{0:T(256)}, /*index=15*/f32[1]{0:T(256)}, f32[1]{0:T(256)}, f32[512]{0:T(512)}, f32[13,512]{1,0:T(8,128)}, f32[256]{0:T(256)}, /*index=20*/f32[512,256]{1,0:T(8,128)}, f32[128]{0:T(256)}, f32[256,128]{1,0:T(8,128)}, f32[1024]{0:T(1024)}, f32[857,1024]{1,0:T(8,128)}, /*index=25*/f32[1024]{0:T(1024)}, f32[1024,1024]{1,0:T(8,128)}, f32[512]{0:T(512)}, f32[1024,512]{1,0:T(8,128)}, f32[256]{0:T(256)}, /*index=30*/f32[512,256]{1,0:T(8,128)}, f32[1]{0:T(256)}, f32[256,1]{0,1:T(2,128)}, s32[]{:T(256)}, f32[]{:T(256)}, /*index=35*/pred[128,729]{0,1:T(8,128)(4,1)}, f32[], pred[128,27,27]{2,1,0:T(8,128)(4,1)}, s32[128,13]{0,1:T(8,128)}, u32[]{:T(256)}, /*index=40*/s32[]{:T(256)}, u32[]{:T(256)}, u32[]{:T(256)}, u32[]{:T(256)}, u32[]{:T(256)}, /*index=45*/u32[]{:T(256)}, u32[]{:T(256)}, f32[]{:T(256)}, f32[]{:T(256)}, f32[]{:T(256)}, /*index=50*/f32[]{:T(256)}, f32[]{:T(256)}, f32[]{:T(256)}, f32[]{:T(256)}, f32[]{:T(256)}, /*index=55*/s32[]{:T(256)}, f32[]{:T(256)}, f32[]{:T(256)}, f32[1]{0:T(256)}, s32[]{:T(256)}, /*index=60*/pred[128,27,27]{2,1,0:T(8,128)(4,1)}, s32[128,13]{0,1:T(8,128)}, f32[], s32[]{:T(256)}) %while.15), index=23, sharding={maximal device=0 metadata={op_type="_TPUReplicate" op_name="cluster"}}, metadata={op_type="While" op_name="LoopCond"}
  %get-tuple-element.3444 = f32[256,128]{1,0:T(8,128)} get-tuple-element((s32[]{:T(256)}, u32[]{:T(256)}, u32[]{:T(256)}, f32[19656,128]{1,0:T(8,128)}, f32[1]{0:T(256)}, /*index=5*/f32[1]{0:T(256)}, f32[1]{0:T(256)}, f32[1]{0:T(256)}, f32[1]{0:T(256)}, f32[1]{0:T(256)}, /*index=10*/f32[1]{0:T(256)}, f32[1]{0:T(256)}, f32[1]{0:T(256)}, f32[1]{0:T(256)}, f32[1]{0:T(256)}, /*index=15*/f32[1]{0:T(256)}, f32[1]{0:T(256)}, f32[512]{0:T(512)}, f32[13,512]{1,0:T(8,128)}, f32[256]{0:T(256)}, /*index=20*/f32[512,256]{1,0:T(8,128)}, f32[128]{0:T(256)}, f32[256,128]{1,0:T(8,128)}, f32[1024]{0:T(1024)}, f32[857,1024]{1,0:T(8,128)}, /*index=25*/f32[1024]{0:T(1024)}, f32[1024,1024]{1,0:T(8,128)}, f32[512]{0:T(512)}, f32[1024,512]{1,0:T(8,128)}, f32[256]{0:T(256)}, /*index=30*/f32[512,256]{1,0:T(8,128)}, f32[1]{0:T(256)}, f32[256,1]{0,1:T(2,128)}, s32[]{:T(256)}, f32[]{:T(256)}, /*index=35*/pred[128,729]{0,1:T(8,128)(4,1)}, f32[], pred[128,27,27]{2,1,0:T(8,128)(4,1)}, s32[128,13]{0,1:T(8,128)}, u32[]{:T(256)}, /*index=40*/s32[]{:T(256)}, u32[]{:T(256)}, u32[]{:T(256)}, u32[]{:T(256)}, u32[]{:T(256)}, /*index=45*/u32[]{:T(256)}, u32[]{:T(256)}, f32[]{:T(256)}, f32[]{:T(256)}, f32[]{:T(256)}, /*index=50*/f32[]{:T(256)}, f32[]{:T(256)}, f32[]{:T(256)}, f32[]{:T(256)}, f32[]{:T(256)}, /*index=55*/s32[]{:T(256)}, f32[]{:T(256)}, f32[]{:T(256)}, f32[1]{0:T(256)}, s32[]{:T(256)}, /*index=60*/pred[128,27,27]{2,1,0:T(8,128)(4,1)}, s32[128,13]{0,1:T(8,128)}, f32[], s32[]{:T(256)}) %while.15), index=22, sharding={maximal device=0 metadata={op_type="_TPUReplicate" op_name="cluster"}}, metadata={op_type="While" op_name="LoopCond"}
  %get-tuple-element.3443 = f32[128]{0:T(256)} get-tuple-element((s32[]{:T(256)}, u32[]{:T(256)}, u32[]{:T(256)}, f32[19656,128]{1,0:T(8,128)}, f32[1]{0:T(256)}, /*index=5*/f32[1]{0:T(256)}, f32[1]{0:T(256)}, f32[1]{0:T(256)}, f32[1]{0:T(256)}, f32[1]{0:T(256)}, /*index=10*/f32[1]{0:T(256)}, f32[1]{0:T(256)}, f32[1]{0:T(256)}, f32[1]{0:T(256)}, f32[1]{0:T(256)}, /*index=15*/f32[1]{0:T(256)}, f32[1]{0:T(256)}, f32[512]{0:T(512)}, f32[13,512]{1,0:T(8,128)}, f32[256]{0:T(256)}, /*index=20*/f32[512,256]{1,0:T(8,128)}, f32[128]{0:T(256)}, f32[256,128]{1,0:T(8,128)}, f32[1024]{0:T(1024)}, f32[857,1024]{1,0:T(8,128)}, /*index=25*/f32[1024]{0:T(1024)}, f32[1024,1024]{1,0:T(8,128)}, f32[512]{0:T(512)}, f32[1024,512]{1,0:T(8,128)}, f32[256]{0:T(256)}, /*index=30*/f32[512,256]{1,0:T(8,128)}, f32[1]{0:T(256)}, f32[256,1]{0,1:T(2,128)}, s32[]{:T(256)}, f32[]{:T(256)}, /*index=35*/pred[128,729]{0,1:T(8,128)(4,1)}, f32[], pred[128,27,27]{2,1,0:T(8,128)(4,1)}, s32[128,13]{0,1:T(8,128)}, u32[]{:T(256)}, /*index=40*/s32[]{:T(256)}, u32[]{:T(256)}, u32[]{:T(256)}, u32[]{:T(256)}, u32[]{:T(256)}, /*index=45*/u32[]{:T(256)}, u32[]{:T(256)}, f32[]{:T(256)}, f32[]{:T(256)}, f32[]{:T(256)}, /*index=50*/f32[]{:T(256)}, f32[]{:T(256)}, f32[]{:T(256)}, f32[]{:T(256)}, f32[]{:T(256)}, /*index=55*/s32[]{:T(256)}, f32[]{:T(256)}, f32[]{:T(256)}, f32[1]{0:T(256)}, s32[]{:T(256)}, /*index=60*/pred[128,27,27]{2,1,0:T(8,128)(4,1)}, s32[128,13]{0,1:T(8,128)}, f32[], s32[]{:T(256)}) %while.15), index=21, sharding={maximal device=0 metadata={op_type="_TPUReplicate" op_name="cluster"}}, metadata={op_type="While" op_name="LoopCond"}
  %get-tuple-element.3442 = f32[512,256]{1,0:T(8,128)} get-tuple-element((s32[]{:T(256)}, u32[]{:T(256)}, u32[]{:T(256)}, f32[19656,128]{1,0:T(8,128)}, f32[1]{0:T(256)}, /*index=5*/f32[1]{0:T(256)}, f32[1]{0:T(256)}, f32[1]{0:T(256)}, f32[1]{0:T(256)}, f32[1]{0:T(256)}, /*index=10*/f32[1]{0:T(256)}, f32[1]{0:T(256)}, f32[1]{0:T(256)}, f32[1]{0:T(256)}, f32[1]{0:T(256)}, /*index=15*/f32[1]{0:T(256)}, f32[1]{0:T(256)}, f32[512]{0:T(512)}, f32[13,512]{1,0:T(8,128)}, f32[256]{0:T(256)}, /*index=20*/f32[512,256]{1,0:T(8,128)}, f32[128]{0:T(256)}, f32[256,128]{1,0:T(8,128)}, f32[1024]{0:T(1024)}, f32[857,1024]{1,0:T(8,128)}, /*index=25*/f32[1024]{0:T(1024)}, f32[1024,1024]{1,0:T(8,128)}, f32[512]{0:T(512)}, f32[1024,512]{1,0:T(8,128)}, f32[256]{0:T(256)}, /*index=30*/f32[512,256]{1,0:T(8,128)}, f32[1]{0:T(256)}, f32[256,1]{0,1:T(2,128)}, s32[]{:T(256)}, f32[]{:T(256)}, /*index=35*/pred[128,729]{0,1:T(8,128)(4,1)}, f32[], pred[128,27,27]{2,1,0:T(8,128)(4,1)}, s32[128,13]{0,1:T(8,128)}, u32[]{:T(256)}, /*index=40*/s32[]{:T(256)}, u32[]{:T(256)}, u32[]{:T(256)}, u32[]{:T(256)}, u32[]{:T(256)}, /*index=45*/u32[]{:T(256)}, u32[]{:T(256)}, f32[]{:T(256)}, f32[]{:T(256)}, f32[]{:T(256)}, /*index=50*/f32[]{:T(256)}, f32[]{:T(256)}, f32[]{:T(256)}, f32[]{:T(256)}, f32[]{:T(256)}, /*index=55*/s32[]{:T(256)}, f32[]{:T(256)}, f32[]{:T(256)}, f32[1]{0:T(256)}, s32[]{:T(256)}, /*index=60*/pred[128,27,27]{2,1,0:T(8,128)(4,1)}, s32[128,13]{0,1:T(8,128)}, f32[], s32[]{:T(256)}) %while.15), index=20, sharding={maximal device=0 metadata={op_type="_TPUReplicate" op_name="cluster"}}, metadata={op_type="While" op_name="LoopCond"}
  %get-tuple-element.3441 = f32[256]{0:T(256)} get-tuple-element((s32[]{:T(256)}, u32[]{:T(256)}, u32[]{:T(256)}, f32[19656,128]{1,0:T(8,128)}, f32[1]{0:T(256)}, /*index=5*/f32[1]{0:T(256)}, f32[1]{0:T(256)}, f32[1]{0:T(256)}, f32[1]{0:T(256)}, f32[1]{0:T(256)}, /*index=10*/f32[1]{0:T(256)}, f32[1]{0:T(256)}, f32[1]{0:T(256)}, f32[1]{0:T(256)}, f32[1]{0:T(256)}, /*index=15*/f32[1]{0:T(256)}, f32[1]{0:T(256)}, f32[512]{0:T(512)}, f32[13,512]{1,0:T(8,128)}, f32[256]{0:T(256)}, /*index=20*/f32[512,256]{1,0:T(8,128)}, f32[128]{0:T(256)}, f32[256,128]{1,0:T(8,128)}, f32[1024]{0:T(1024)}, f32[857,1024]{1,0:T(8,128)}, /*index=25*/f32[1024]{0:T(1024)}, f32[1024,1024]{1,0:T(8,128)}, f32[512]{0:T(512)}, f32[1024,512]{1,0:T(8,128)}, f32[256]{0:T(256)}, /*index=30*/f32[512,256]{1,0:T(8,128)}, f32[1]{0:T(256)}, f32[256,1]{0,1:T(2,128)}, s32[]{:T(256)}, f32[]{:T(256)}, /*index=35*/pred[128,729]{0,1:T(8,128)(4,1)}, f32[], pred[128,27,27]{2,1,0:T(8,128)(4,1)}, s32[128,13]{0,1:T(8,128)}, u32[]{:T(256)}, /*index=40*/s32[]{:T(256)}, u32[]{:T(256)}, u32[]{:T(256)}, u32[]{:T(256)}, u32[]{:T(256)}, /*index=45*/u32[]{:T(256)}, u32[]{:T(256)}, f32[]{:T(256)}, f32[]{:T(256)}, f32[]{:T(256)}, /*index=50*/f32[]{:T(256)}, f32[]{:T(256)}, f32[]{:T(256)}, f32[]{:T(256)}, f32[]{:T(256)}, /*index=55*/s32[]{:T(256)}, f32[]{:T(256)}, f32[]{:T(256)}, f32[1]{0:T(256)}, s32[]{:T(256)}, /*index=60*/pred[128,27,27]{2,1,0:T(8,128)(4,1)}, s32[128,13]{0,1:T(8,128)}, f32[], s32[]{:T(256)}) %while.15), index=19, sharding={maximal device=0 metadata={op_type="_TPUReplicate" op_name="cluster"}}, metadata={op_type="While" op_name="LoopCond"}
  %get-tuple-element.3440 = f32[13,512]{1,0:T(8,128)} get-tuple-element((s32[]{:T(256)}, u32[]{:T(256)}, u32[]{:T(256)}, f32[19656,128]{1,0:T(8,128)}, f32[1]{0:T(256)}, /*index=5*/f32[1]{0:T(256)}, f32[1]{0:T(256)}, f32[1]{0:T(256)}, f32[1]{0:T(256)}, f32[1]{0:T(256)}, /*index=10*/f32[1]{0:T(256)}, f32[1]{0:T(256)}, f32[1]{0:T(256)}, f32[1]{0:T(256)}, f32[1]{0:T(256)}, /*index=15*/f32[1]{0:T(256)}, f32[1]{0:T(256)}, f32[512]{0:T(512)}, f32[13,512]{1,0:T(8,128)}, f32[256]{0:T(256)}, /*index=20*/f32[512,256]{1,0:T(8,128)}, f32[128]{0:T(256)}, f32[256,128]{1,0:T(8,128)}, f32[1024]{0:T(1024)}, f32[857,1024]{1,0:T(8,128)}, /*index=25*/f32[1024]{0:T(1024)}, f32[1024,1024]{1,0:T(8,128)}, f32[512]{0:T(512)}, f32[1024,512]{1,0:T(8,128)}, f32[256]{0:T(256)}, /*index=30*/f32[512,256]{1,0:T(8,128)}, f32[1]{0:T(256)}, f32[256,1]{0,1:T(2,128)}, s32[]{:T(256)}, f32[]{:T(256)}, /*index=35*/pred[128,729]{0,1:T(8,128)(4,1)}, f32[], pred[128,27,27]{2,1,0:T(8,128)(4,1)}, s32[128,13]{0,1:T(8,128)}, u32[]{:T(256)}, /*index=40*/s32[]{:T(256)}, u32[]{:T(256)}, u32[]{:T(256)}, u32[]{:T(256)}, u32[]{:T(256)}, /*index=45*/u32[]{:T(256)}, u32[]{:T(256)}, f32[]{:T(256)}, f32[]{:T(256)}, f32[]{:T(256)}, /*index=50*/f32[]{:T(256)}, f32[]{:T(256)}, f32[]{:T(256)}, f32[]{:T(256)}, f32[]{:T(256)}, /*index=55*/s32[]{:T(256)}, f32[]{:T(256)}, f32[]{:T(256)}, f32[1]{0:T(256)}, s32[]{:T(256)}, /*index=60*/pred[128,27,27]{2,1,0:T(8,128)(4,1)}, s32[128,13]{0,1:T(8,128)}, f32[], s32[]{:T(256)}) %while.15), index=18, sharding={maximal device=0 metadata={op_type="_TPUReplicate" op_name="cluster"}}, metadata={op_type="While" op_name="LoopCond"}
  %get-tuple-element.3439 = f32[512]{0:T(512)} get-tuple-element((s32[]{:T(256)}, u32[]{:T(256)}, u32[]{:T(256)}, f32[19656,128]{1,0:T(8,128)}, f32[1]{0:T(256)}, /*index=5*/f32[1]{0:T(256)}, f32[1]{0:T(256)}, f32[1]{0:T(256)}, f32[1]{0:T(256)}, f32[1]{0:T(256)}, /*index=10*/f32[1]{0:T(256)}, f32[1]{0:T(256)}, f32[1]{0:T(256)}, f32[1]{0:T(256)}, f32[1]{0:T(256)}, /*index=15*/f32[1]{0:T(256)}, f32[1]{0:T(256)}, f32[512]{0:T(512)}, f32[13,512]{1,0:T(8,128)}, f32[256]{0:T(256)}, /*index=20*/f32[512,256]{1,0:T(8,128)}, f32[128]{0:T(256)}, f32[256,128]{1,0:T(8,128)}, f32[1024]{0:T(1024)}, f32[857,1024]{1,0:T(8,128)}, /*index=25*/f32[1024]{0:T(1024)}, f32[1024,1024]{1,0:T(8,128)}, f32[512]{0:T(512)}, f32[1024,512]{1,0:T(8,128)}, f32[256]{0:T(256)}, /*index=30*/f32[512,256]{1,0:T(8,128)}, f32[1]{0:T(256)}, f32[256,1]{0,1:T(2,128)}, s32[]{:T(256)}, f32[]{:T(256)}, /*index=35*/pred[128,729]{0,1:T(8,128)(4,1)}, f32[], pred[128,27,27]{2,1,0:T(8,128)(4,1)}, s32[128,13]{0,1:T(8,128)}, u32[]{:T(256)}, /*index=40*/s32[]{:T(256)}, u32[]{:T(256)}, u32[]{:T(256)}, u32[]{:T(256)}, u32[]{:T(256)}, /*index=45*/u32[]{:T(256)}, u32[]{:T(256)}, f32[]{:T(256)}, f32[]{:T(256)}, f32[]{:T(256)}, /*index=50*/f32[]{:T(256)}, f32[]{:T(256)}, f32[]{:T(256)}, f32[]{:T(256)}, f32[]{:T(256)}, /*index=55*/s32[]{:T(256)}, f32[]{:T(256)}, f32[]{:T(256)}, f32[1]{0:T(256)}, s32[]{:T(256)}, /*index=60*/pred[128,27,27]{2,1,0:T(8,128)(4,1)}, s32[128,13]{0,1:T(8,128)}, f32[], s32[]{:T(256)}) %while.15), index=17, sharding={maximal device=0 metadata={op_type="_TPUReplicate" op_name="cluster"}}, metadata={op_type="While" op_name="LoopCond"}
  %get-tuple-element.3425 = f32[19656,128]{1,0:T(8,128)} get-tuple-element((s32[]{:T(256)}, u32[]{:T(256)}, u32[]{:T(256)}, f32[19656,128]{1,0:T(8,128)}, f32[1]{0:T(256)}, /*index=5*/f32[1]{0:T(256)}, f32[1]{0:T(256)}, f32[1]{0:T(256)}, f32[1]{0:T(256)}, f32[1]{0:T(256)}, /*index=10*/f32[1]{0:T(256)}, f32[1]{0:T(256)}, f32[1]{0:T(256)}, f32[1]{0:T(256)}, f32[1]{0:T(256)}, /*index=15*/f32[1]{0:T(256)}, f32[1]{0:T(256)}, f32[512]{0:T(512)}, f32[13,512]{1,0:T(8,128)}, f32[256]{0:T(256)}, /*index=20*/f32[512,256]{1,0:T(8,128)}, f32[128]{0:T(256)}, f32[256,128]{1,0:T(8,128)}, f32[1024]{0:T(1024)}, f32[857,1024]{1,0:T(8,128)}, /*index=25*/f32[1024]{0:T(1024)}, f32[1024,1024]{1,0:T(8,128)}, f32[512]{0:T(512)}, f32[1024,512]{1,0:T(8,128)}, f32[256]{0:T(256)}, /*index=30*/f32[512,256]{1,0:T(8,128)}, f32[1]{0:T(256)}, f32[256,1]{0,1:T(2,128)}, s32[]{:T(256)}, f32[]{:T(256)}, /*index=35*/pred[128,729]{0,1:T(8,128)(4,1)}, f32[], pred[128,27,27]{2,1,0:T(8,128)(4,1)}, s32[128,13]{0,1:T(8,128)}, u32[]{:T(256)}, /*index=40*/s32[]{:T(256)}, u32[]{:T(256)}, u32[]{:T(256)}, u32[]{:T(256)}, u32[]{:T(256)}, /*index=45*/u32[]{:T(256)}, u32[]{:T(256)}, f32[]{:T(256)}, f32[]{:T(256)}, f32[]{:T(256)}, /*index=50*/f32[]{:T(256)}, f32[]{:T(256)}, f32[]{:T(256)}, f32[]{:T(256)}, f32[]{:T(256)}, /*index=55*/s32[]{:T(256)}, f32[]{:T(256)}, f32[]{:T(256)}, f32[1]{0:T(256)}, s32[]{:T(256)}, /*index=60*/pred[128,27,27]{2,1,0:T(8,128)(4,1)}, s32[128,13]{0,1:T(8,128)}, f32[], s32[]{:T(256)}) %while.15), index=3, sharding={maximal device=0 metadata={op_type="_TPUReplicate" op_name="cluster"}}, metadata={op_type="While" op_name="LoopCond"}
  %get-tuple-element.3454 = f32[256,1]{0,1:T(2,128)} get-tuple-element((s32[]{:T(256)}, u32[]{:T(256)}, u32[]{:T(256)}, f32[19656,128]{1,0:T(8,128)}, f32[1]{0:T(256)}, /*index=5*/f32[1]{0:T(256)}, f32[1]{0:T(256)}, f32[1]{0:T(256)}, f32[1]{0:T(256)}, f32[1]{0:T(256)}, /*index=10*/f32[1]{0:T(256)}, f32[1]{0:T(256)}, f32[1]{0:T(256)}, f32[1]{0:T(256)}, f32[1]{0:T(256)}, /*index=15*/f32[1]{0:T(256)}, f32[1]{0:T(256)}, f32[512]{0:T(512)}, f32[13,512]{1,0:T(8,128)}, f32[256]{0:T(256)}, /*index=20*/f32[512,256]{1,0:T(8,128)}, f32[128]{0:T(256)}, f32[256,128]{1,0:T(8,128)}, f32[1024]{0:T(1024)}, f32[857,1024]{1,0:T(8,128)}, /*index=25*/f32[1024]{0:T(1024)}, f32[1024,1024]{1,0:T(8,128)}, f32[512]{0:T(512)}, f32[1024,512]{1,0:T(8,128)}, f32[256]{0:T(256)}, /*index=30*/f32[512,256]{1,0:T(8,128)}, f32[1]{0:T(256)}, f32[256,1]{0,1:T(2,128)}, s32[]{:T(256)}, f32[]{:T(256)}, /*index=35*/pred[128,729]{0,1:T(8,128)(4,1)}, f32[], pred[128,27,27]{2,1,0:T(8,128)(4,1)}, s32[128,13]{0,1:T(8,128)}, u32[]{:T(256)}, /*index=40*/s32[]{:T(256)}, u32[]{:T(256)}, u32[]{:T(256)}, u32[]{:T(256)}, u32[]{:T(256)}, /*index=45*/u32[]{:T(256)}, u32[]{:T(256)}, f32[]{:T(256)}, f32[]{:T(256)}, f32[]{:T(256)}, /*index=50*/f32[]{:T(256)}, f32[]{:T(256)}, f32[]{:T(256)}, f32[]{:T(256)}, f32[]{:T(256)}, /*index=55*/s32[]{:T(256)}, f32[]{:T(256)}, f32[]{:T(256)}, f32[1]{0:T(256)}, s32[]{:T(256)}, /*index=60*/pred[128,27,27]{2,1,0:T(8,128)(4,1)}, s32[128,13]{0,1:T(8,128)}, f32[], s32[]{:T(256)}) %while.15), index=32, sharding={maximal device=0 metadata={op_type="_TPUReplicate" op_name="cluster"}}, metadata={op_type="While" op_name="LoopCond"}
  ROOT %tuple.391 = (f32[512]{0:T(512)}, f32[13,512]{1,0:T(8,128)}, f32[256]{0:T(256)}, f32[512,256]{1,0:T(8,128)}, f32[128]{0:T(256)}, /*index=5*/f32[256,128]{1,0:T(8,128)}, s64[]{:T(256)}, f32[19656,128]{1,0:T(8,128)}, f32[1024]{0:T(1024)}, f32[857,1024]{1,0:T(8,128)}, /*index=10*/f32[1024]{0:T(1024)}, f32[1024,1024]{1,0:T(8,128)}, f32[512]{0:T(512)}, f32[1024,512]{1,0:T(8,128)}, f32[256]{0:T(256)}, /*index=15*/f32[512,256]{1,0:T(8,128)}, f32[1]{0:T(256)}, f32[256,1]{0,1:T(2,128)}, f32[1]{0:T(256)}, f32[1]{0:T(256)}, /*index=20*/f32[1]{0:T(256)}, f32[1]{0:T(256)}, f32[1]{0:T(256)}, f32[1]{0:T(256)}, f32[1]{0:T(256)}, /*index=25*/f32[1]{0:T(256)}, f32[1]{0:T(256)}, f32[1]{0:T(256)}, f32[1]{0:T(256)}, f32[1]{0:T(256)}, /*index=30*/f32[1]{0:T(256)}) tuple(f32[512]{0:T(512)} %get-tuple-element.3439, f32[13,512]{1,0:T(8,128)} %get-tuple-element.3440, f32[256]{0:T(256)} %get-tuple-element.3441, f32[512,256]{1,0:T(8,128)} %get-tuple-element.3442, f32[128]{0:T(256)} %get-tuple-element.3443, /*index=5*/f32[256,128]{1,0:T(8,128)} %get-tuple-element.3444, s64[]{:T(256)} %custom-call.2, f32[19656,128]{1,0:T(8,128)} %get-tuple-element.3425, f32[1024]{0:T(1024)} %get-tuple-element.3445, f32[857,1024]{1,0:T(8,128)} %get-tuple-element.3446, /*index=10*/f32[1024]{0:T(1024)} %get-tuple-element.3447, f32[1024,1024]{1,0:T(8,128)} %get-tuple-element.3448, f32[512]{0:T(512)} %get-tuple-element.3449, f32[1024,512]{1,0:T(8,128)} %get-tuple-element.3450, f32[256]{0:T(256)} %get-tuple-element.3451, /*index=15*/f32[512,256]{1,0:T(8,128)} %get-tuple-element.3452, f32[1]{0:T(256)} %get-tuple-element.3453, f32[256,1]{0,1:T(2,128)} %get-tuple-element.3454, f32[1]{0:T(256)} %get-tuple-element.3426, f32[1]{0:T(256)} %get-tuple-element.3427, /*index=20*/f32[1]{0:T(256)} %get-tuple-element.3431, f32[1]{0:T(256)} %get-tuple-element.3432, f32[1]{0:T(256)} %get-tuple-element.3433, f32[1]{0:T(256)} %get-tuple-element.3434, f32[1]{0:T(256)} %get-tuple-element.3435, /*index=25*/f32[1]{0:T(256)} %get-tuple-element.3436, f32[1]{0:T(256)} %get-tuple-element.3437, f32[1]{0:T(256)} %get-tuple-element.3438, f32[1]{0:T(256)} %get-tuple-element.3428, f32[1]{0:T(256)} %get-tuple-element.3429, /*index=30*/f32[1]{0:T(256)} %get-tuple-element.3430)
}

