HloModule cluster_7035002757448359829_f15n_1__.3522, input_output_alias={ {0}: (0, {0}, may-alias), {1}: (0, {1}, may-alias), {2}: (0, {2}, may-alias), {3}: (0, {3}, may-alias), {4}: (0, {4}, may-alias), {5}: (0, {5}, may-alias), {6}: (0, {6}, may-alias), {7}: (0, {7}, may-alias), {8}: (0, {8}, may-alias), {9}: (0, {9}, may-alias), {10}: (0, {10}, may-alias), {11}: (0, {11}, may-alias), {12}: (0, {12}, may-alias), {13}: (0, {13}, may-alias), {14}: (0, {14}, may-alias), {15}: (0, {15}, may-alias), {16}: (0, {16}, may-alias), {17}: (0, {17}, may-alias), {18}: (0, {18}, may-alias), {19}: (0, {19}, may-alias), {20}: (0, {20}, may-alias), {21}: (0, {21}, may-alias), {22}: (0, {22}, may-alias), {23}: (0, {23}, may-alias), {24}: (0, {24}, may-alias), {25}: (0, {25}, may-alias), {26}: (0, {26}, may-alias), {27}: (0, {27}, may-alias), {28}: (0, {28}, may-alias), {29}: (0, {29}, may-alias), {30}: (0, {30}, may-alias) }

%sum.36 (x.37: f32[], y.38: f32[]) -> f32[] {
  %x.37 = f32[] parameter(0)
  %y.38 = f32[] parameter(1)
  ROOT %add.39 = f32[] add(f32[] %x.37, f32[] %y.38)
}

%sum.40 (x.41: f32[], y.42: f32[]) -> f32[] {
  %x.41 = f32[] parameter(0)
  %y.42 = f32[] parameter(1)
  ROOT %add.43 = f32[] add(f32[] %x.41, f32[] %y.42)
}

%sum.44 (x.45: f32[], y.46: f32[]) -> f32[] {
  %x.45 = f32[] parameter(0)
  %y.46 = f32[] parameter(1)
  ROOT %add.47 = f32[] add(f32[] %x.45, f32[] %y.46)
}

%sum.48 (x.49: f32[], y.50: f32[]) -> f32[] {
  %x.49 = f32[] parameter(0)
  %y.50 = f32[] parameter(1)
  ROOT %add.51 = f32[] add(f32[] %x.49, f32[] %y.50)
}

%sum.52 (x.53: f32[], y.54: f32[]) -> f32[] {
  %x.53 = f32[] parameter(0)
  %y.54 = f32[] parameter(1)
  ROOT %add.55 = f32[] add(f32[] %x.53, f32[] %y.54)
}

%sum.56 (x.57: f32[], y.58: f32[]) -> f32[] {
  %x.57 = f32[] parameter(0)
  %y.58 = f32[] parameter(1)
  ROOT %add.59 = f32[] add(f32[] %x.57, f32[] %y.58)
}

%sum.60 (x.61: f32[], y.62: f32[]) -> f32[] {
  %x.61 = f32[] parameter(0)
  %y.62 = f32[] parameter(1)
  ROOT %add.63 = f32[] add(f32[] %x.61, f32[] %y.62)
}

%sum.64 (x.65: f32[], y.66: f32[]) -> f32[] {
  %x.65 = f32[] parameter(0)
  %y.66 = f32[] parameter(1)
  ROOT %add.67 = f32[] add(f32[] %x.65, f32[] %y.66)
}

%sum.68 (x.69: f32[], y.70: f32[]) -> f32[] {
  %x.69 = f32[] parameter(0)
  %y.70 = f32[] parameter(1)
  ROOT %add.71 = f32[] add(f32[] %x.69, f32[] %y.70)
}

%sum.72 (x.73: f32[], y.74: f32[]) -> f32[] {
  %x.73 = f32[] parameter(0)
  %y.74 = f32[] parameter(1)
  ROOT %add.75 = f32[] add(f32[] %x.73, f32[] %y.74)
}

%sum.76 (x.77: f32[], y.78: f32[]) -> f32[] {
  %x.77 = f32[] parameter(0)
  %y.78 = f32[] parameter(1)
  ROOT %add.79 = f32[] add(f32[] %x.77, f32[] %y.78)
}

%sum.80 (x.81: f32[], y.82: f32[]) -> f32[] {
  %x.81 = f32[] parameter(0)
  %y.82 = f32[] parameter(1)
  ROOT %add.83 = f32[] add(f32[] %x.81, f32[] %y.82)
}

%sum.84 (x.85: f32[], y.86: f32[]) -> f32[] {
  %x.85 = f32[] parameter(0)
  %y.86 = f32[] parameter(1)
  ROOT %add.87 = f32[] add(f32[] %x.85, f32[] %y.86)
}

%while_binary_crossentropy_Mean-reduction.88 (x.89: f32[], y.90: f32[]) -> f32[] {
  %x.89 = f32[] parameter(0)
  %y.90 = f32[] parameter(1)
  ROOT %add.91 = f32[] add(f32[] %x.89, f32[] %y.90)
}

%while_Mean-reduction.92 (x.93: f32[], y.94: f32[]) -> f32[] {
  %x.93 = f32[] parameter(0)
  %y.94 = f32[] parameter(1)
  ROOT %add.95 = f32[] add(f32[] %x.93, f32[] %y.94)
}

%while_training_gradients_while_binary_crossentropy_weighted_loss_Mul_grad_Sum-reduction.96 (x.97: f32[], y.98: f32[]) -> f32[] {
  %x.97 = f32[] parameter(0)
  %y.98 = f32[] parameter(1)
  ROOT %add.99 = f32[] add(f32[] %x.97, f32[] %y.98)
}

%region_0.100 (Arg_0.101: f32[], Arg_1.102: f32[]) -> f32[] {
  %Arg_0.101 = f32[] parameter(0)
  %Arg_1.102 = f32[] parameter(1)
  ROOT %add.103 = f32[] add(f32[] %Arg_0.101, f32[] %Arg_1.102), metadata={op_name="while/training/gradients/while/top_mlp_layer_4/BiasAdd_grad/BiasAddGrad"}
}

%sum.104 (x.105: f32[], y.106: f32[]) -> f32[] {
  %x.105 = f32[] parameter(0)
  %y.106 = f32[] parameter(1)
  ROOT %add.107 = f32[] add(f32[] %x.105, f32[] %y.106)
}

%region_0.108 (Arg_0.109: f32[], Arg_1.110: f32[]) -> f32[] {
  %Arg_0.109 = f32[] parameter(0)
  %Arg_1.110 = f32[] parameter(1)
  ROOT %add.111 = f32[] add(f32[] %Arg_0.109, f32[] %Arg_1.110), metadata={op_name="while/training/gradients/while/top_mlp_layer_3/BiasAdd_grad/BiasAddGrad"}
}

%sum.112 (x.113: f32[], y.114: f32[]) -> f32[] {
  %x.113 = f32[] parameter(0)
  %y.114 = f32[] parameter(1)
  ROOT %add.115 = f32[] add(f32[] %x.113, f32[] %y.114)
}

%sum.116 (x.117: f32[], y.118: f32[]) -> f32[] {
  %x.117 = f32[] parameter(0)
  %y.118 = f32[] parameter(1)
  ROOT %add.119 = f32[] add(f32[] %x.117, f32[] %y.118)
}

%region_0.120 (Arg_0.121: f32[], Arg_1.122: f32[]) -> f32[] {
  %Arg_0.121 = f32[] parameter(0)
  %Arg_1.122 = f32[] parameter(1)
  ROOT %add.123 = f32[] add(f32[] %Arg_0.121, f32[] %Arg_1.122), metadata={op_name="while/training/gradients/while/top_mlp_layer_2/BiasAdd_grad/BiasAddGrad"}
}

%sum.124 (x.125: f32[], y.126: f32[]) -> f32[] {
  %x.125 = f32[] parameter(0)
  %y.126 = f32[] parameter(1)
  ROOT %add.127 = f32[] add(f32[] %x.125, f32[] %y.126)
}

%sum.128 (x.129: f32[], y.130: f32[]) -> f32[] {
  %x.129 = f32[] parameter(0)
  %y.130 = f32[] parameter(1)
  ROOT %add.131 = f32[] add(f32[] %x.129, f32[] %y.130)
}

%region_0.132 (Arg_0.133: f32[], Arg_1.134: f32[]) -> f32[] {
  %Arg_0.133 = f32[] parameter(0)
  %Arg_1.134 = f32[] parameter(1)
  ROOT %add.135 = f32[] add(f32[] %Arg_0.133, f32[] %Arg_1.134), metadata={op_name="while/training/gradients/while/top_mlp_layer_1/BiasAdd_grad/BiasAddGrad"}
}

%sum.136 (x.137: f32[], y.138: f32[]) -> f32[] {
  %x.137 = f32[] parameter(0)
  %y.138 = f32[] parameter(1)
  ROOT %add.139 = f32[] add(f32[] %x.137, f32[] %y.138)
}

%sum.140 (x.141: f32[], y.142: f32[]) -> f32[] {
  %x.141 = f32[] parameter(0)
  %y.142 = f32[] parameter(1)
  ROOT %add.143 = f32[] add(f32[] %x.141, f32[] %y.142)
}

%region_0.144 (Arg_0.145: f32[], Arg_1.146: f32[]) -> f32[] {
  %Arg_0.145 = f32[] parameter(0)
  %Arg_1.146 = f32[] parameter(1)
  ROOT %add.147 = f32[] add(f32[] %Arg_0.145, f32[] %Arg_1.146), metadata={op_name="while/training/gradients/while/top_mlp_layer_0/BiasAdd_grad/BiasAddGrad"}
}

%sum.148 (x.149: f32[], y.150: f32[]) -> f32[] {
  %x.149 = f32[] parameter(0)
  %y.150 = f32[] parameter(1)
  ROOT %add.151 = f32[] add(f32[] %x.149, f32[] %y.150)
}

%sum.152 (x.153: f32[], y.154: f32[]) -> f32[] {
  %x.153 = f32[] parameter(0)
  %y.154 = f32[] parameter(1)
  ROOT %add.155 = f32[] add(f32[] %x.153, f32[] %y.154)
}

%sum.156 (x.157: f32[], y.158: f32[]) -> f32[] {
  %x.157 = f32[] parameter(0)
  %y.158 = f32[] parameter(1)
  ROOT %add.159 = f32[] add(f32[] %x.157, f32[] %y.158)
}

%region_0.160 (Arg_0.161: f32[], Arg_1.162: f32[]) -> f32[] {
  %Arg_0.161 = f32[] parameter(0)
  %Arg_1.162 = f32[] parameter(1)
  ROOT %add.163 = f32[] add(f32[] %Arg_0.161, f32[] %Arg_1.162), metadata={op_name="while/training/gradients/while/bottom_mlp_layer_2/BiasAdd_grad/BiasAddGrad"}
}

%region_0.164 (Arg_0.165: f32[], Arg_1.166: f32[]) -> f32[] {
  %Arg_0.165 = f32[] parameter(0)
  %Arg_1.166 = f32[] parameter(1)
  ROOT %add.167 = f32[] add(f32[] %Arg_0.165, f32[] %Arg_1.166), metadata={op_name="while/training/gradients/while/bottom_mlp_layer_1/BiasAdd_grad/BiasAddGrad"}
}

%region_0.168 (Arg_0.169: f32[], Arg_1.170: f32[]) -> f32[] {
  %Arg_0.169 = f32[] parameter(0)
  %Arg_1.170 = f32[] parameter(1)
  ROOT %add.171 = f32[] add(f32[] %Arg_0.169, f32[] %Arg_1.170), metadata={op_name="while/training/gradients/while/bottom_mlp_layer_0/BiasAdd_grad/BiasAddGrad"}
}

%sum.172 (x.173: f32[], y.174: f32[]) -> f32[] {
  %x.173 = f32[] parameter(0)
  %y.174 = f32[] parameter(1)
  ROOT %add.175 = f32[] add(f32[] %x.173, f32[] %y.174)
}

%sum.176 (x.177: f32[], y.178: f32[]) -> f32[] {
  %x.177 = f32[] parameter(0)
  %y.178 = f32[] parameter(1)
  ROOT %add.179 = f32[] add(f32[] %x.177, f32[] %y.178)
}

%sum.180 (x.181: f32[], y.182: f32[]) -> f32[] {
  %x.181 = f32[] parameter(0)
  %y.182 = f32[] parameter(1)
  ROOT %add.183 = f32[] add(f32[] %x.181, f32[] %y.182)
}

%sum.184 (x.185: f32[], y.186: f32[]) -> f32[] {
  %x.185 = f32[] parameter(0)
  %y.186 = f32[] parameter(1)
  ROOT %add.187 = f32[] add(f32[] %x.185, f32[] %y.186)
}

%sum.188 (x.189: f32[], y.190: f32[]) -> f32[] {
  %x.189 = f32[] parameter(0)
  %y.190 = f32[] parameter(1)
  ROOT %add.191 = f32[] add(f32[] %x.189, f32[] %y.190)
}

%sum.192 (x.193: f32[], y.194: f32[]) -> f32[] {
  %x.193 = f32[] parameter(0)
  %y.194 = f32[] parameter(1)
  ROOT %add.195 = f32[] add(f32[] %x.193, f32[] %y.194)
}

%scatter-combiner.196 (p0.197: f32[], p1.198: f32[]) -> f32[] {
  %p0.197 = f32[] parameter(0)
  %p1.198 = f32[] parameter(1)
  ROOT %add.199 = f32[] add(f32[] %p0.197, f32[] %p1.198)
}

%sum.200 (x.201: f32[], y.202: f32[]) -> f32[] {
  %x.201 = f32[] parameter(0)
  %y.202 = f32[] parameter(1)
  ROOT %add.203 = f32[] add(f32[] %x.201, f32[] %y.202)
}

%_functionalize_body_10__.204 (arg_tuple.205: (s32[], s64[], f32[19656,128], f32[1], f32[1], /*index=5*/f32[1], f32[1], f32[1], f32[1], f32[1], /*index=10*/f32[1], f32[1], f32[1], f32[1], f32[1], /*index=15*/f32[1], f32[512], f32[13,512], f32[256], f32[512,256], /*index=20*/f32[128], f32[256,128], f32[1024], f32[857,1024], f32[1024], /*index=25*/f32[1024,1024], f32[512], f32[1024,512], f32[256], f32[512,256], /*index=30*/f32[1], f32[256,1])) -> (s32[], s64[], f32[19656,128], f32[1], f32[1], /*index=5*/f32[1], f32[1], f32[1], f32[1], f32[1], /*index=10*/f32[1], f32[1], f32[1], f32[1], f32[1], /*index=15*/f32[1], f32[512], f32[13,512], f32[256], f32[512,256], /*index=20*/f32[128], f32[256,128], f32[1024], f32[857,1024], f32[1024], /*index=25*/f32[1024,1024], f32[512], f32[1024,512], f32[256], f32[512,256], /*index=30*/f32[1], f32[256,1]) {
  %constant.788 = s32[3]{0} constant({128, 1, -1}), sharding={maximal device=0}, metadata={op_type="Reshape" op_name="while/Reshape"}
  %constant.790 = s32[3]{0} constant({128, 1, -1}), sharding={maximal device=0}, metadata={op_type="Reshape" op_name="while/Reshape_1"}
  %constant.792 = s32[3]{0} constant({128, 1, -1}), sharding={maximal device=0}, metadata={op_type="Reshape" op_name="while/Reshape_10"}
  %constant.794 = s32[3]{0} constant({128, 1, -1}), sharding={maximal device=0}, metadata={op_type="Reshape" op_name="while/Reshape_11"}
  %constant.796 = s32[3]{0} constant({128, 1, -1}), sharding={maximal device=0}, metadata={op_type="Reshape" op_name="while/Reshape_12"}
  %constant.798 = s32[3]{0} constant({128, 1, -1}), sharding={maximal device=0}, metadata={op_type="Reshape" op_name="while/Reshape_2"}
  %constant.800 = s32[3]{0} constant({128, 1, -1}), sharding={maximal device=0}, metadata={op_type="Reshape" op_name="while/Reshape_3"}
  %constant.802 = s32[3]{0} constant({128, 1, -1}), sharding={maximal device=0}, metadata={op_type="Reshape" op_name="while/Reshape_4"}
  %constant.804 = s32[3]{0} constant({128, 1, -1}), sharding={maximal device=0}, metadata={op_type="Reshape" op_name="while/Reshape_5"}
  %constant.806 = s32[3]{0} constant({128, 1, -1}), sharding={maximal device=0}, metadata={op_type="Reshape" op_name="while/Reshape_6"}
  %constant.808 = s32[3]{0} constant({128, 1, -1}), sharding={maximal device=0}, metadata={op_type="Reshape" op_name="while/Reshape_7"}
  %constant.810 = s32[3]{0} constant({128, 1, -1}), sharding={maximal device=0}, metadata={op_type="Reshape" op_name="while/Reshape_8"}
  %constant.812 = s32[3]{0} constant({128, 1, -1}), sharding={maximal device=0}, metadata={op_type="Reshape" op_name="while/Reshape_9"}
  %constant.814 = s32[] constant(0), metadata={op_type="Slice" op_name="while/Slice"}
  %broadcast.815 = s32[2]{0} broadcast(s32[] %constant.814), dimensions={}, metadata={op_type="Slice" op_name="while/Slice"}
  %constant.816 = s32[2]{0} constant({128, 1}), metadata={op_type="Slice" op_name="while/Slice"}
  %constant.818 = s32[2]{0} constant({128, 1}), metadata={op_type="Slice" op_name="while/Slice"}
  %constant.819 = s32[] constant(0), metadata={op_type="Slice" op_name="while/Slice_1"}
  %broadcast.820 = s32[2]{0} broadcast(s32[] %constant.819), dimensions={}, metadata={op_type="Slice" op_name="while/Slice_1"}
  %constant.821 = s32[2]{0} constant({128, 13}), metadata={op_type="Slice" op_name="while/Slice_1"}
  %constant.823 = s32[2]{0} constant({128, 13}), metadata={op_type="Slice" op_name="while/Slice_1"}
  %constant.824 = s32[] constant(0), metadata={op_type="Slice" op_name="while/Slice_2"}
  %broadcast.825 = s32[2]{0} broadcast(s32[] %constant.824), dimensions={}, metadata={op_type="Slice" op_name="while/Slice_2"}
  %constant.826 = s32[2]{0} constant({128, 13}), metadata={op_type="Slice" op_name="while/Slice_2"}
  %constant.828 = s32[2]{0} constant({128, 13}), metadata={op_type="Slice" op_name="while/Slice_2"}
  %constant.829 = s32[128,13]{1,0} constant({...}), metadata={op_type="AddV2" op_name="while/add"}
  %constant.834 = s32[] constant(0), sharding={maximal device=0}, metadata={op_type="StridedSlice" op_name="while/strided_slice"}
  %broadcast.835 = s32[3]{0} broadcast(s32[] %constant.834), dimensions={}, sharding={maximal device=0}, metadata={op_type="StridedSlice" op_name="while/strided_slice"}
  %constant.836 = s32[3]{0} constant({0, 1, 0}), sharding={maximal device=0}, metadata={op_type="StridedSlice" op_name="while/strided_slice"}
  %constant.837 = s32[] constant(1), sharding={maximal device=0}, metadata={op_type="StridedSlice" op_name="while/strided_slice"}
  %broadcast.838 = s32[3]{0} broadcast(s32[] %constant.837), dimensions={}, sharding={maximal device=0}, metadata={op_type="StridedSlice" op_name="while/strided_slice"}
  %constant.841 = s32[] constant(0), sharding={maximal device=0}, metadata={op_type="StridedSlice" op_name="while/strided_slice_1"}
  %broadcast.842 = s32[3]{0} broadcast(s32[] %constant.841), dimensions={}, sharding={maximal device=0}, metadata={op_type="StridedSlice" op_name="while/strided_slice_1"}
  %constant.843 = s32[3]{0} constant({0, 1, 0}), sharding={maximal device=0}, metadata={op_type="StridedSlice" op_name="while/strided_slice_1"}
  %constant.844 = s32[] constant(1), sharding={maximal device=0}, metadata={op_type="StridedSlice" op_name="while/strided_slice_1"}
  %broadcast.845 = s32[3]{0} broadcast(s32[] %constant.844), dimensions={}, sharding={maximal device=0}, metadata={op_type="StridedSlice" op_name="while/strided_slice_1"}
  %constant.848 = s32[] constant(0), sharding={maximal device=0}, metadata={op_type="StridedSlice" op_name="while/strided_slice_10"}
  %broadcast.849 = s32[3]{0} broadcast(s32[] %constant.848), dimensions={}, sharding={maximal device=0}, metadata={op_type="StridedSlice" op_name="while/strided_slice_10"}
  %constant.850 = s32[3]{0} constant({0, 1, 0}), sharding={maximal device=0}, metadata={op_type="StridedSlice" op_name="while/strided_slice_10"}
  %constant.851 = s32[] constant(1), sharding={maximal device=0}, metadata={op_type="StridedSlice" op_name="while/strided_slice_10"}
  %broadcast.852 = s32[3]{0} broadcast(s32[] %constant.851), dimensions={}, sharding={maximal device=0}, metadata={op_type="StridedSlice" op_name="while/strided_slice_10"}
  %constant.855 = s32[] constant(0), sharding={maximal device=0}, metadata={op_type="StridedSlice" op_name="while/strided_slice_11"}
  %broadcast.856 = s32[3]{0} broadcast(s32[] %constant.855), dimensions={}, sharding={maximal device=0}, metadata={op_type="StridedSlice" op_name="while/strided_slice_11"}
  %constant.857 = s32[3]{0} constant({0, 1, 0}), sharding={maximal device=0}, metadata={op_type="StridedSlice" op_name="while/strided_slice_11"}
  %constant.858 = s32[] constant(1), sharding={maximal device=0}, metadata={op_type="StridedSlice" op_name="while/strided_slice_11"}
  %broadcast.859 = s32[3]{0} broadcast(s32[] %constant.858), dimensions={}, sharding={maximal device=0}, metadata={op_type="StridedSlice" op_name="while/strided_slice_11"}
  %constant.862 = s32[] constant(0), sharding={maximal device=0}, metadata={op_type="StridedSlice" op_name="while/strided_slice_12"}
  %broadcast.863 = s32[3]{0} broadcast(s32[] %constant.862), dimensions={}, sharding={maximal device=0}, metadata={op_type="StridedSlice" op_name="while/strided_slice_12"}
  %constant.864 = s32[3]{0} constant({0, 1, 0}), sharding={maximal device=0}, metadata={op_type="StridedSlice" op_name="while/strided_slice_12"}
  %constant.865 = s32[] constant(1), sharding={maximal device=0}, metadata={op_type="StridedSlice" op_name="while/strided_slice_12"}
  %broadcast.866 = s32[3]{0} broadcast(s32[] %constant.865), dimensions={}, sharding={maximal device=0}, metadata={op_type="StridedSlice" op_name="while/strided_slice_12"}
  %constant.869 = s32[] constant(0), sharding={maximal device=0}, metadata={op_type="StridedSlice" op_name="while/strided_slice_2"}
  %broadcast.870 = s32[3]{0} broadcast(s32[] %constant.869), dimensions={}, sharding={maximal device=0}, metadata={op_type="StridedSlice" op_name="while/strided_slice_2"}
  %constant.871 = s32[3]{0} constant({0, 1, 0}), sharding={maximal device=0}, metadata={op_type="StridedSlice" op_name="while/strided_slice_2"}
  %constant.872 = s32[] constant(1), sharding={maximal device=0}, metadata={op_type="StridedSlice" op_name="while/strided_slice_2"}
  %broadcast.873 = s32[3]{0} broadcast(s32[] %constant.872), dimensions={}, sharding={maximal device=0}, metadata={op_type="StridedSlice" op_name="while/strided_slice_2"}
  %constant.876 = s32[] constant(0), sharding={maximal device=0}, metadata={op_type="StridedSlice" op_name="while/strided_slice_3"}
  %broadcast.877 = s32[3]{0} broadcast(s32[] %constant.876), dimensions={}, sharding={maximal device=0}, metadata={op_type="StridedSlice" op_name="while/strided_slice_3"}
  %constant.878 = s32[3]{0} constant({0, 1, 0}), sharding={maximal device=0}, metadata={op_type="StridedSlice" op_name="while/strided_slice_3"}
  %constant.879 = s32[] constant(1), sharding={maximal device=0}, metadata={op_type="StridedSlice" op_name="while/strided_slice_3"}
  %broadcast.880 = s32[3]{0} broadcast(s32[] %constant.879), dimensions={}, sharding={maximal device=0}, metadata={op_type="StridedSlice" op_name="while/strided_slice_3"}
  %constant.883 = s32[] constant(0), sharding={maximal device=0}, metadata={op_type="StridedSlice" op_name="while/strided_slice_4"}
  %broadcast.884 = s32[3]{0} broadcast(s32[] %constant.883), dimensions={}, sharding={maximal device=0}, metadata={op_type="StridedSlice" op_name="while/strided_slice_4"}
  %constant.885 = s32[3]{0} constant({0, 1, 0}), sharding={maximal device=0}, metadata={op_type="StridedSlice" op_name="while/strided_slice_4"}
  %constant.886 = s32[] constant(1), sharding={maximal device=0}, metadata={op_type="StridedSlice" op_name="while/strided_slice_4"}
  %broadcast.887 = s32[3]{0} broadcast(s32[] %constant.886), dimensions={}, sharding={maximal device=0}, metadata={op_type="StridedSlice" op_name="while/strided_slice_4"}
  %constant.890 = s32[] constant(0), sharding={maximal device=0}, metadata={op_type="StridedSlice" op_name="while/strided_slice_5"}
  %broadcast.891 = s32[3]{0} broadcast(s32[] %constant.890), dimensions={}, sharding={maximal device=0}, metadata={op_type="StridedSlice" op_name="while/strided_slice_5"}
  %constant.892 = s32[3]{0} constant({0, 1, 0}), sharding={maximal device=0}, metadata={op_type="StridedSlice" op_name="while/strided_slice_5"}
  %constant.893 = s32[] constant(1), sharding={maximal device=0}, metadata={op_type="StridedSlice" op_name="while/strided_slice_5"}
  %broadcast.894 = s32[3]{0} broadcast(s32[] %constant.893), dimensions={}, sharding={maximal device=0}, metadata={op_type="StridedSlice" op_name="while/strided_slice_5"}
  %constant.897 = s32[] constant(0), sharding={maximal device=0}, metadata={op_type="StridedSlice" op_name="while/strided_slice_6"}
  %broadcast.898 = s32[3]{0} broadcast(s32[] %constant.897), dimensions={}, sharding={maximal device=0}, metadata={op_type="StridedSlice" op_name="while/strided_slice_6"}
  %constant.899 = s32[3]{0} constant({0, 1, 0}), sharding={maximal device=0}, metadata={op_type="StridedSlice" op_name="while/strided_slice_6"}
  %constant.900 = s32[] constant(1), sharding={maximal device=0}, metadata={op_type="StridedSlice" op_name="while/strided_slice_6"}
  %broadcast.901 = s32[3]{0} broadcast(s32[] %constant.900), dimensions={}, sharding={maximal device=0}, metadata={op_type="StridedSlice" op_name="while/strided_slice_6"}
  %constant.904 = s32[] constant(0), sharding={maximal device=0}, metadata={op_type="StridedSlice" op_name="while/strided_slice_7"}
  %broadcast.905 = s32[3]{0} broadcast(s32[] %constant.904), dimensions={}, sharding={maximal device=0}, metadata={op_type="StridedSlice" op_name="while/strided_slice_7"}
  %constant.906 = s32[3]{0} constant({0, 1, 0}), sharding={maximal device=0}, metadata={op_type="StridedSlice" op_name="while/strided_slice_7"}
  %constant.907 = s32[] constant(1), sharding={maximal device=0}, metadata={op_type="StridedSlice" op_name="while/strided_slice_7"}
  %broadcast.908 = s32[3]{0} broadcast(s32[] %constant.907), dimensions={}, sharding={maximal device=0}, metadata={op_type="StridedSlice" op_name="while/strided_slice_7"}
  %constant.911 = s32[] constant(0), sharding={maximal device=0}, metadata={op_type="StridedSlice" op_name="while/strided_slice_8"}
  %broadcast.912 = s32[3]{0} broadcast(s32[] %constant.911), dimensions={}, sharding={maximal device=0}, metadata={op_type="StridedSlice" op_name="while/strided_slice_8"}
  %constant.913 = s32[3]{0} constant({0, 1, 0}), sharding={maximal device=0}, metadata={op_type="StridedSlice" op_name="while/strided_slice_8"}
  %constant.914 = s32[] constant(1), sharding={maximal device=0}, metadata={op_type="StridedSlice" op_name="while/strided_slice_8"}
  %broadcast.915 = s32[3]{0} broadcast(s32[] %constant.914), dimensions={}, sharding={maximal device=0}, metadata={op_type="StridedSlice" op_name="while/strided_slice_8"}
  %constant.918 = s32[] constant(0), sharding={maximal device=0}, metadata={op_type="StridedSlice" op_name="while/strided_slice_9"}
  %broadcast.919 = s32[3]{0} broadcast(s32[] %constant.918), dimensions={}, sharding={maximal device=0}, metadata={op_type="StridedSlice" op_name="while/strided_slice_9"}
  %constant.920 = s32[3]{0} constant({0, 1, 0}), sharding={maximal device=0}, metadata={op_type="StridedSlice" op_name="while/strided_slice_9"}
  %constant.921 = s32[] constant(1), sharding={maximal device=0}, metadata={op_type="StridedSlice" op_name="while/strided_slice_9"}
  %broadcast.922 = s32[3]{0} broadcast(s32[] %constant.921), dimensions={}, sharding={maximal device=0}, metadata={op_type="StridedSlice" op_name="while/strided_slice_9"}
  %constant.925 = s32[1]{0} constant({1664}), metadata={op_type="Reshape" op_name="while/training/gradients/while/Gather_grad/Reshape_1"}
  %constant.958 = f32[] constant(38000), sharding={maximal device=0}, metadata={op_type="Greater" op_name="while/Greater_3"}
  %constant.961 = pred[] constant(true), sharding={maximal device=0}, metadata={op_type="LogicalAnd" op_name="while/LogicalAnd"}
  %constant.964 = f32[] constant(2000), sharding={maximal device=0}, metadata={op_type="Less" op_name="while/Less_3"}
  %constant.967 = f32[] constant(38000), sharding={maximal device=0}, metadata={op_type="Sub" op_name="while/sub_8"}
  %constant.970 = f32[] constant(40000), sharding={maximal device=0}, metadata={op_type="Minimum" op_name="while/Minimum_2"}
  %constant.973 = f32[] constant(40000), sharding={maximal device=0}, metadata={op_type="Sub" op_name="while/sub_9"}
  %constant.976 = f32[] constant(40000), sharding={maximal device=0}, metadata={op_type="RealDiv" op_name="while/truediv_5"}
  %constant.979 = f32[] constant(2), sharding={maximal device=0}, metadata={op_type="Pow" op_name="while/pow_2"}
  %constant.982 = f32[] constant(2.8), sharding={maximal device=0}, metadata={op_type="Mul" op_name="while/mul_11"}
  %constant.985 = f32[] constant(1e-07), sharding={maximal device=0}, metadata={op_type="Maximum" op_name="while/Maximum_2"}
  %constant.988 = f32[] constant(2.8), sharding={maximal device=0}, metadata={op_type="Select" op_name="while/Select_1"}
  %constant.992 = f32[] constant(38000), metadata={op_type="Greater" op_name="while/Greater_1"}
  %constant.996 = f32[] constant(2000), metadata={op_type="Less" op_name="while/Less_2"}
  %constant.1001 = f32[] constant(0), metadata={op_type="Equal" op_name="while/Equal_1"}
  %constant.1005 = f32[] constant(2.8), metadata={op_type="Mul" op_name="while/mul_8"}
  %constant.1008 = f32[] constant(2000), metadata={op_type="Sub" op_name="while/sub_4"}
  %constant.1011 = f32[] constant(0.0014), metadata={op_type="Mul" op_name="while/mul_5"}
  %constant.1014 = f32[] constant(2.8), metadata={op_type="Sub" op_name="while/sub_5"}
  %constant.1019 = f32[] constant(38000), metadata={op_type="Sub" op_name="while/sub_6"}
  %constant.1022 = f32[] constant(40000), metadata={op_type="Minimum" op_name="while/Minimum_1"}
  %constant.1025 = f32[] constant(40000), metadata={op_type="Sub" op_name="while/sub_7"}
  %constant.1028 = f32[] constant(40000), metadata={op_type="RealDiv" op_name="while/truediv_3"}
  %constant.1031 = f32[] constant(2), metadata={op_type="Pow" op_name="while/pow_1"}
  %constant.1034 = f32[] constant(2.8), metadata={op_type="Mul" op_name="while/mul_6"}
  %constant.1037 = f32[] constant(1e-07), metadata={op_type="Maximum" op_name="while/Maximum_1"}
  %constant.1043 = f32[] constant(2000), sharding={maximal device=0}, metadata={op_type="RealDiv" op_name="while/truediv_4"}
  %constant.1046 = f32[] constant(2.8), sharding={maximal device=0}, metadata={op_type="Mul" op_name="while/mul_10"}
  %constant.1108 = s32[] constant(-1), metadata={op_type="ConcatV2" op_name="while/concat"}
  %constant.1110 = s32[3]{0} constant({128, -1, 128}), metadata={op_type="Reshape" op_name="while/Reshape_13"}
  %constant.1112 = s32[] constant(1), metadata={op_type="ConcatV2" op_name="while/concat_1"}
  %constant.1116 = pred[128,27,27]{2,1,0} constant({...}), metadata={op_type="Select" op_name="while/Select"}
  %constant.1117 = f32[] constant(0), metadata={op_type="Select" op_name="while/Select"}
  %broadcast.1118 = f32[128,27,27]{2,1,0} broadcast(f32[] %constant.1117), dimensions={}, metadata={op_type="Select" op_name="while/Select"}
  %constant.1123 = s32[2]{0} constant({128, 729}), metadata={op_type="Reshape" op_name="while/Reshape_14"}
  %constant.1125 = s32[] constant(1), metadata={op_type="ConcatV2" op_name="while/concat_2"}
  %constant.1177 = f32[] constant(1), metadata={op_type="Mul" op_name="while/binary_crossentropy/weighted_loss/Mul"}
  %constant.1189 = f32[] constant(1), metadata={op_type="Mul" op_name="while/training/gradients/while/training/mul_grad/Mul_1"}
  %constant.1190 = f32[] constant(1), metadata={op_type="Mul" op_name="while/training/gradients/while/training/mul_grad/Mul_1"}
  %after-all.241 = token[] after-all(), sharding={maximal device=0}, metadata={op_type="InfeedDequeueTuple" op_name="while/InfeedQueue/dequeue"}
  %infeed.242 = ((f32[128,1]{0,1}, f32[128,13]{0,1}, s32[128,13]{0,1}), token[]) infeed(token[] %after-all.241), sharding={maximal device=0}, metadata={op_type="InfeedDequeueTuple" op_name="while/InfeedQueue/dequeue"}
  %get-tuple-element.243 = (f32[128,1]{0,1}, f32[128,13]{0,1}, s32[128,13]{0,1}) get-tuple-element(((f32[128,1]{0,1}, f32[128,13]{0,1}, s32[128,13]{0,1}), token[]) %infeed.242), index=0, sharding={maximal device=0}, metadata={op_type="InfeedDequeueTuple" op_name="while/InfeedQueue/dequeue"}
  %get-tuple-element.245 = f32[128,13]{0,1} get-tuple-element((f32[128,1]{0,1}, f32[128,13]{0,1}, s32[128,13]{0,1}) %get-tuple-element.243), index=1, metadata={op_type="InfeedDequeueTuple" op_name="while/InfeedQueue/dequeue"}
  %slice.822 = f32[128,13]{1,0} slice(f32[128,13]{0,1} %get-tuple-element.245), slice={[0:128], [0:13]}, metadata={op_type="Slice" op_name="while/Slice_1"}
  %arg_tuple.205 = (s32[], s64[]{:T(256)}, f32[19656,128]{1,0:T(8,128)}, f32[1]{0:T(256)}, f32[1]{0:T(256)}, /*index=5*/f32[1]{0:T(256)}, f32[1]{0:T(256)}, f32[1]{0:T(256)}, f32[1]{0:T(256)}, f32[1]{0:T(256)}, /*index=10*/f32[1]{0:T(256)}, f32[1]{0:T(256)}, f32[1]{0:T(256)}, f32[1]{0:T(256)}, f32[1]{0:T(256)}, /*index=15*/f32[1]{0:T(256)}, f32[512]{0:T(512)}, f32[13,512]{1,0:T(8,128)}, f32[256]{0:T(256)}, f32[512,256]{1,0:T(8,128)}, /*index=20*/f32[128]{0:T(256)}, f32[256,128]{1,0:T(8,128)}, f32[1024]{0:T(1024)}, f32[857,1024]{1,0:T(8,128)}, f32[1024]{0:T(1024)}, /*index=25*/f32[1024,1024]{1,0:T(8,128)}, f32[512]{0:T(512)}, f32[1024,512]{1,0:T(8,128)}, f32[256]{0:T(256)}, f32[512,256]{1,0:T(8,128)}, /*index=30*/f32[1]{0:T(256)}, f32[256,1]{0,1:T(2,128)}) parameter(0), metadata={op_name="XLA_Args"}
  %get-tuple-element.223 = f32[13,512]{1,0:T(8,128)} get-tuple-element((s32[], s64[]{:T(256)}, f32[19656,128]{1,0:T(8,128)}, f32[1]{0:T(256)}, f32[1]{0:T(256)}, /*index=5*/f32[1]{0:T(256)}, f32[1]{0:T(256)}, f32[1]{0:T(256)}, f32[1]{0:T(256)}, f32[1]{0:T(256)}, /*index=10*/f32[1]{0:T(256)}, f32[1]{0:T(256)}, f32[1]{0:T(256)}, f32[1]{0:T(256)}, f32[1]{0:T(256)}, /*index=15*/f32[1]{0:T(256)}, f32[512]{0:T(512)}, f32[13,512]{1,0:T(8,128)}, f32[256]{0:T(256)}, f32[512,256]{1,0:T(8,128)}, /*index=20*/f32[128]{0:T(256)}, f32[256,128]{1,0:T(8,128)}, f32[1024]{0:T(1024)}, f32[857,1024]{1,0:T(8,128)}, f32[1024]{0:T(1024)}, /*index=25*/f32[1024,1024]{1,0:T(8,128)}, f32[512]{0:T(512)}, f32[1024,512]{1,0:T(8,128)}, f32[256]{0:T(256)}, f32[512,256]{1,0:T(8,128)}, /*index=30*/f32[1]{0:T(256)}, f32[256,1]{0,1:T(2,128)}) %arg_tuple.205), index=17
  %dot.1068 = f32[128,512]{1,0} dot(f32[128,13]{1,0} %slice.822, f32[13,512]{1,0:T(8,128)} %get-tuple-element.223), lhs_contracting_dims={1}, rhs_contracting_dims={0}, metadata={op_type="MatMul" op_name="while/bottom_mlp_layer_0/MatMul"}
  %transpose.1069 = f32[128,512]{1,0} transpose(f32[128,512]{1,0} %dot.1068), dimensions={0,1}, metadata={op_type="MatMul" op_name="while/bottom_mlp_layer_0/MatMul"}
  %get-tuple-element.222 = f32[512]{0:T(512)} get-tuple-element((s32[], s64[]{:T(256)}, f32[19656,128]{1,0:T(8,128)}, f32[1]{0:T(256)}, f32[1]{0:T(256)}, /*index=5*/f32[1]{0:T(256)}, f32[1]{0:T(256)}, f32[1]{0:T(256)}, f32[1]{0:T(256)}, f32[1]{0:T(256)}, /*index=10*/f32[1]{0:T(256)}, f32[1]{0:T(256)}, f32[1]{0:T(256)}, f32[1]{0:T(256)}, f32[1]{0:T(256)}, /*index=15*/f32[1]{0:T(256)}, f32[512]{0:T(512)}, f32[13,512]{1,0:T(8,128)}, f32[256]{0:T(256)}, f32[512,256]{1,0:T(8,128)}, /*index=20*/f32[128]{0:T(256)}, f32[256,128]{1,0:T(8,128)}, f32[1024]{0:T(1024)}, f32[857,1024]{1,0:T(8,128)}, f32[1024]{0:T(1024)}, /*index=25*/f32[1024,1024]{1,0:T(8,128)}, f32[512]{0:T(512)}, f32[1024,512]{1,0:T(8,128)}, f32[256]{0:T(256)}, f32[512,256]{1,0:T(8,128)}, /*index=30*/f32[1]{0:T(256)}, f32[256,1]{0,1:T(2,128)}) %arg_tuple.205), index=16
  %broadcast.1070 = f32[128,512]{1,0} broadcast(f32[512]{0:T(512)} %get-tuple-element.222), dimensions={1}, metadata={op_type="BiasAdd" op_name="while/bottom_mlp_layer_0/BiasAdd"}
  %add.1071 = f32[128,512]{1,0} add(f32[128,512]{1,0} %transpose.1069, f32[128,512]{1,0} %broadcast.1070), metadata={op_type="BiasAdd" op_name="while/bottom_mlp_layer_0/BiasAdd"}
  %constant.1072 = f32[] constant(0), metadata={op_type="Relu" op_name="while/bottom_mlp_layer_0/Relu"}
  %broadcast.1073 = f32[128,512]{1,0} broadcast(f32[] %constant.1072), dimensions={}, metadata={op_name="while/bottom_mlp_layer_0/Relu"}
  %maximum.1074 = f32[128,512]{1,0} maximum(f32[128,512]{1,0} %add.1071, f32[128,512]{1,0} %broadcast.1073), metadata={op_name="while/bottom_mlp_layer_0/Relu"}
  %get-tuple-element.225 = f32[512,256]{1,0:T(8,128)} get-tuple-element((s32[], s64[]{:T(256)}, f32[19656,128]{1,0:T(8,128)}, f32[1]{0:T(256)}, f32[1]{0:T(256)}, /*index=5*/f32[1]{0:T(256)}, f32[1]{0:T(256)}, f32[1]{0:T(256)}, f32[1]{0:T(256)}, f32[1]{0:T(256)}, /*index=10*/f32[1]{0:T(256)}, f32[1]{0:T(256)}, f32[1]{0:T(256)}, f32[1]{0:T(256)}, f32[1]{0:T(256)}, /*index=15*/f32[1]{0:T(256)}, f32[512]{0:T(512)}, f32[13,512]{1,0:T(8,128)}, f32[256]{0:T(256)}, f32[512,256]{1,0:T(8,128)}, /*index=20*/f32[128]{0:T(256)}, f32[256,128]{1,0:T(8,128)}, f32[1024]{0:T(1024)}, f32[857,1024]{1,0:T(8,128)}, f32[1024]{0:T(1024)}, /*index=25*/f32[1024,1024]{1,0:T(8,128)}, f32[512]{0:T(512)}, f32[1024,512]{1,0:T(8,128)}, f32[256]{0:T(256)}, f32[512,256]{1,0:T(8,128)}, /*index=30*/f32[1]{0:T(256)}, f32[256,1]{0,1:T(2,128)}) %arg_tuple.205), index=19
  %dot.1075 = f32[128,256]{1,0} dot(f32[128,512]{1,0} %maximum.1074, f32[512,256]{1,0:T(8,128)} %get-tuple-element.225), lhs_contracting_dims={1}, rhs_contracting_dims={0}, metadata={op_type="MatMul" op_name="while/bottom_mlp_layer_1/MatMul"}
  %transpose.1076 = f32[128,256]{1,0} transpose(f32[128,256]{1,0} %dot.1075), dimensions={0,1}, metadata={op_type="MatMul" op_name="while/bottom_mlp_layer_1/MatMul"}
  %get-tuple-element.224 = f32[256]{0:T(256)} get-tuple-element((s32[], s64[]{:T(256)}, f32[19656,128]{1,0:T(8,128)}, f32[1]{0:T(256)}, f32[1]{0:T(256)}, /*index=5*/f32[1]{0:T(256)}, f32[1]{0:T(256)}, f32[1]{0:T(256)}, f32[1]{0:T(256)}, f32[1]{0:T(256)}, /*index=10*/f32[1]{0:T(256)}, f32[1]{0:T(256)}, f32[1]{0:T(256)}, f32[1]{0:T(256)}, f32[1]{0:T(256)}, /*index=15*/f32[1]{0:T(256)}, f32[512]{0:T(512)}, f32[13,512]{1,0:T(8,128)}, f32[256]{0:T(256)}, f32[512,256]{1,0:T(8,128)}, /*index=20*/f32[128]{0:T(256)}, f32[256,128]{1,0:T(8,128)}, f32[1024]{0:T(1024)}, f32[857,1024]{1,0:T(8,128)}, f32[1024]{0:T(1024)}, /*index=25*/f32[1024,1024]{1,0:T(8,128)}, f32[512]{0:T(512)}, f32[1024,512]{1,0:T(8,128)}, f32[256]{0:T(256)}, f32[512,256]{1,0:T(8,128)}, /*index=30*/f32[1]{0:T(256)}, f32[256,1]{0,1:T(2,128)}) %arg_tuple.205), index=18
  %broadcast.1077 = f32[128,256]{1,0} broadcast(f32[256]{0:T(256)} %get-tuple-element.224), dimensions={1}, metadata={op_type="BiasAdd" op_name="while/bottom_mlp_layer_1/BiasAdd"}
  %add.1078 = f32[128,256]{1,0} add(f32[128,256]{1,0} %transpose.1076, f32[128,256]{1,0} %broadcast.1077), metadata={op_type="BiasAdd" op_name="while/bottom_mlp_layer_1/BiasAdd"}
  %constant.1079 = f32[] constant(0), metadata={op_type="Relu" op_name="while/bottom_mlp_layer_1/Relu"}
  %broadcast.1080 = f32[128,256]{1,0} broadcast(f32[] %constant.1079), dimensions={}, metadata={op_name="while/bottom_mlp_layer_1/Relu"}
  %maximum.1081 = f32[128,256]{1,0} maximum(f32[128,256]{1,0} %add.1078, f32[128,256]{1,0} %broadcast.1080), metadata={op_name="while/bottom_mlp_layer_1/Relu"}
  %get-tuple-element.227 = f32[256,128]{1,0:T(8,128)} get-tuple-element((s32[], s64[]{:T(256)}, f32[19656,128]{1,0:T(8,128)}, f32[1]{0:T(256)}, f32[1]{0:T(256)}, /*index=5*/f32[1]{0:T(256)}, f32[1]{0:T(256)}, f32[1]{0:T(256)}, f32[1]{0:T(256)}, f32[1]{0:T(256)}, /*index=10*/f32[1]{0:T(256)}, f32[1]{0:T(256)}, f32[1]{0:T(256)}, f32[1]{0:T(256)}, f32[1]{0:T(256)}, /*index=15*/f32[1]{0:T(256)}, f32[512]{0:T(512)}, f32[13,512]{1,0:T(8,128)}, f32[256]{0:T(256)}, f32[512,256]{1,0:T(8,128)}, /*index=20*/f32[128]{0:T(256)}, f32[256,128]{1,0:T(8,128)}, f32[1024]{0:T(1024)}, f32[857,1024]{1,0:T(8,128)}, f32[1024]{0:T(1024)}, /*index=25*/f32[1024,1024]{1,0:T(8,128)}, f32[512]{0:T(512)}, f32[1024,512]{1,0:T(8,128)}, f32[256]{0:T(256)}, f32[512,256]{1,0:T(8,128)}, /*index=30*/f32[1]{0:T(256)}, f32[256,1]{0,1:T(2,128)}) %arg_tuple.205), index=21
  %dot.1083 = f32[128,128]{1,0} dot(f32[128,256]{1,0} %maximum.1081, f32[256,128]{1,0:T(8,128)} %get-tuple-element.227), lhs_contracting_dims={1}, rhs_contracting_dims={0}, metadata={op_type="MatMul" op_name="while/bottom_mlp_layer_2/MatMul"}
  %transpose.1084 = f32[128,128]{1,0} transpose(f32[128,128]{1,0} %dot.1083), dimensions={0,1}, metadata={op_type="MatMul" op_name="while/bottom_mlp_layer_2/MatMul"}
  %get-tuple-element.226 = f32[128]{0:T(256)} get-tuple-element((s32[], s64[]{:T(256)}, f32[19656,128]{1,0:T(8,128)}, f32[1]{0:T(256)}, f32[1]{0:T(256)}, /*index=5*/f32[1]{0:T(256)}, f32[1]{0:T(256)}, f32[1]{0:T(256)}, f32[1]{0:T(256)}, f32[1]{0:T(256)}, /*index=10*/f32[1]{0:T(256)}, f32[1]{0:T(256)}, f32[1]{0:T(256)}, f32[1]{0:T(256)}, f32[1]{0:T(256)}, /*index=15*/f32[1]{0:T(256)}, f32[512]{0:T(512)}, f32[13,512]{1,0:T(8,128)}, f32[256]{0:T(256)}, f32[512,256]{1,0:T(8,128)}, /*index=20*/f32[128]{0:T(256)}, f32[256,128]{1,0:T(8,128)}, f32[1024]{0:T(1024)}, f32[857,1024]{1,0:T(8,128)}, f32[1024]{0:T(1024)}, /*index=25*/f32[1024,1024]{1,0:T(8,128)}, f32[512]{0:T(512)}, f32[1024,512]{1,0:T(8,128)}, f32[256]{0:T(256)}, f32[512,256]{1,0:T(8,128)}, /*index=30*/f32[1]{0:T(256)}, f32[256,1]{0,1:T(2,128)}) %arg_tuple.205), index=20
  %broadcast.1085 = f32[128,128]{1,0} broadcast(f32[128]{0:T(256)} %get-tuple-element.226), dimensions={1}, metadata={op_type="BiasAdd" op_name="while/bottom_mlp_layer_2/BiasAdd"}
  %add.1086 = f32[128,128]{1,0} add(f32[128,128]{1,0} %transpose.1084, f32[128,128]{1,0} %broadcast.1085), metadata={op_type="BiasAdd" op_name="while/bottom_mlp_layer_2/BiasAdd"}
  %constant.1087 = f32[] constant(0), metadata={op_type="Relu" op_name="while/bottom_mlp_layer_2/Relu"}
  %broadcast.1088 = f32[128,128]{1,0} broadcast(f32[] %constant.1087), dimensions={}, metadata={op_name="while/bottom_mlp_layer_2/Relu"}
  %maximum.1089 = f32[128,128]{1,0} maximum(f32[128,128]{1,0} %add.1086, f32[128,128]{1,0} %broadcast.1088), metadata={op_name="while/bottom_mlp_layer_2/Relu"}
  %constant.1119 = pred[128,27,27]{2,1,0} constant({...}), metadata={op_type="Select" op_name="while/Select"}
  %constant.1120 = f32[] constant(0), metadata={op_type="Select" op_name="while/Select"}
  %broadcast.1121 = f32[128,27,27]{2,1,0} broadcast(f32[] %constant.1120), dimensions={}, metadata={op_type="Select" op_name="while/Select"}
  %after-all.247 = token[] after-all(), sharding={maximal device=0}, metadata={op_type="_RecvTPUEmbeddingActivations" op_name="while/RecvTPUEmbeddingActivations"}
  %infeed.248 = ((f32[816,128]{1,0}, f32[952,128]{1,0}), token[]) infeed(token[] %after-all.247), infeed_config="\n(\n\033\010\210\001\022\002\006\007\030\200\340\035\"\016\n\006\010\001\020\001\030\002\022\000\022\002\030\001\022\t\010\200\370\304\004\030\001 \001\"\007\010=\020\300\361\333\007\"\007\010\t\020\300\361\333\007\"\007\0104\020\300\361\333\007\"\007\010\000\020\300\361\333\007\"\007\010\034\020\300\361\333\007\"\007\010/\020\300\361\333\007\"\007\010;\020\300\361\333\007\"\007\010\027\020\300\361\333\007\"\007\010&\020\300\361\333\007\"\007\0102\020\300\361\333\007\"\007\010\016\020\300\361\333\007\"\007\010\032\020\300\361\333\007\"\007\010-\020\300\361\333\007\"\007\0109\020\300\361\333\007\"\007\010\025\020\300\361\333\007\"\007\010$\020\300\361\333\007\"\007\0100\020\300\361\333\007\"\007\010\014\020\300\361\333\007\"\007\010\030\020\300\361\333\007\"\007\010+\020\300\361\333\007\"\007\010\007\020\300\361\333\007\"\007\010\023\020\300\361\333\007\"\007\010\"\020\300\361\333\007\"\007\010>\020\300\361\333\007\"\007\010\n\020\300\361\333\007\"\007\010)\020\300\361\333\007\"\007\010\005\020\300\361\333\007\"\007\010\021\020\300\361\333\007\"\007\010 \020\300\361\333\007\"\007\010<\020\300\361\333\007\"\007\010\010\020\300\361\333\007\"\007\0107\020\300\361\333\007\"\007\010\003\020\300\361\333\007\"\007\010\037\020\300\361\333\007\"\007\010.\020\300\361\333\007\"\007\010:\020\300\361\333\007\"\007\010\026\020\300\361\333\007\"\007\0105\020\300\361\333\007\"\007\010\001\020\300\361\333\007\"\007\010\035\020\300\361\333\007\"\007\010,\020\300\361\333\007\"\007\0108\020\300\361\333\007\"\007\010\024\020\300\361\333\007\"\007\010\'\020\300\361\333\007\"\007\0103\020\300\361\333\007\"\007\010\017\020\300\361\333\007\"\007\010\033\020\300\361\333\007\"\007\010*\020\300\361\333\007\"\007\010\006\020\300\361\333\007\"\007\010\022\020\300\361\333\007\"\007\010%\020\300\361\333\007\"\007\0101\020\300\361\333\007\"\007\010\r\020\300\361\333\007\"\007\010\031\020\300\361\333\007\"\007\010(\020\300\361\333\007\"\007\010\004\020\300\361\333\007\"\007\010\020\020\300\361\333\007\"\007\010#\020\300\361\333\007\"\007\010?\020\300\361\333\007\"\007\010\013\020\300\361\333\007\"\007\0106\020\300\361\333\007\"\007\010\002\020\300\361\333\007\"\007\010\036\020\300\361\333\007\"\007\010!\020\300\361\333\007", sharding={maximal device=0}, metadata={op_type="_RecvTPUEmbeddingActivations" op_name="while/RecvTPUEmbeddingActivations"}
  %get-tuple-element.249 = (f32[816,128]{1,0}, f32[952,128]{1,0}) get-tuple-element(((f32[816,128]{1,0}, f32[952,128]{1,0}), token[]) %infeed.248), index=0, sharding={maximal device=0}, metadata={op_type="_RecvTPUEmbeddingActivations" op_name="while/RecvTPUEmbeddingActivations"}
  %get-tuple-element.316 = f32[816,128]{1,0} get-tuple-element((f32[816,128]{1,0}, f32[952,128]{1,0}) %get-tuple-element.249), index=0, sharding={maximal device=0}, metadata={op_type="_RecvTPUEmbeddingActivations" op_name="while/RecvTPUEmbeddingActivations"}
  %reshape.317 = f32[136,768]{1,0} reshape(f32[816,128]{1,0} %get-tuple-element.316), sharding={maximal device=0}, metadata={op_type="_RecvTPUEmbeddingActivations" op_name="while/RecvTPUEmbeddingActivations"}
  %slice.320 = f32[136,128]{1,0} slice(f32[136,768]{1,0} %reshape.317), slice={[0:136], [0:128]}, sharding={maximal device=0}, metadata={op_type="_RecvTPUEmbeddingActivations" op_name="while/RecvTPUEmbeddingActivations"}
  %concatenate.321 = f32[136,128]{1,0} concatenate(f32[136,128]{1,0} %slice.320), dimensions={0}, sharding={maximal device=0}, metadata={op_type="_RecvTPUEmbeddingActivations" op_name="while/RecvTPUEmbeddingActivations"}
  %concatenate.322 = f32[136,128]{1,0} concatenate(f32[136,128]{1,0} %concatenate.321), dimensions={1}, sharding={maximal device=0}, metadata={op_type="_RecvTPUEmbeddingActivations" op_name="while/RecvTPUEmbeddingActivations"}
  %slice.323 = f32[128,128]{1,0} slice(f32[136,128]{1,0} %concatenate.322), slice={[0:128], [0:128]}, sharding={maximal device=0}, metadata={op_type="_RecvTPUEmbeddingActivations" op_name="while/RecvTPUEmbeddingActivations"}
  %after-all.238 = token[] after-all(), sharding={maximal device=0}, metadata={op_type="_RecvTPUEmbeddingDeduplicationData" op_name="RecvTPUEmbeddingDeduplicationData_cluster_TPU_REPLICATED_CORE_0"}
  %infeed.239 = (((u32[128]{0}, f32[128]{0}, u32[128]{0}, u32[128]{0}, f32[128]{0}, /*index=5*/u32[128]{0}, u32[128]{0}, f32[128]{0}, u32[128]{0}, u32[128]{0}, /*index=10*/f32[128]{0}, u32[128]{0}, u32[128]{0}, f32[128]{0}, u32[128]{0}, /*index=15*/u32[128]{0}, f32[128]{0}, u32[128]{0}, u32[128]{0}, f32[128]{0}, /*index=20*/u32[128]{0}, u32[128]{0}, f32[128]{0}, u32[128]{0}, u32[128]{0}, /*index=25*/f32[128]{0}, u32[128]{0}, u32[128]{0}, f32[128]{0}, u32[128]{0}, /*index=30*/u32[128]{0}, f32[128]{0}, u32[128]{0}, u32[128]{0}, f32[128]{0}, /*index=35*/u32[128]{0}, u32[128]{0}, f32[128]{0}, u32[128]{0})), token[]) infeed(token[] %after-all.238), infeed_config="\032_\n\007\010\200\010\030\003 \003\020\001\030\200\270\002\"N\200\010\200\010\200\010\200\010\200\010\200\010\200\010\200\010\200\010\200\010\200\010\200\010\200\010\200\010\200\010\200\010\200\010\200\010\200\010\200\010\200\010\200\010\200\010\200\010\200\010\200\010\200\010\200\010\200\010\200\010\200\010\200\010\200\010\200\010\200\010\200\010\200\010\200\010\200\010\"\007\010\r\020\300\361\333\007\"\007\0109\020\300\361\333\007\"\007\010%\020\300\361\333\007\"\007\010\024\020\300\361\333\007\"\007\010\000\020\300\361\333\007\"\007\010,\020\300\361\333\007\"\007\010\017\020\300\361\333\007\"\007\010;\020\300\361\333\007\"\007\010\'\020\300\361\333\007\"\007\010\026\020\300\361\333\007\"\007\010\002\020\300\361\333\007\"\007\010.\020\300\361\333\007\"\007\010\035\020\300\361\333\007\"\007\010\t\020\300\361\333\007\"\007\0105\020\300\361\333\007\"\007\010!\020\300\361\333\007\"\007\010\020\020\300\361\333\007\"\007\010<\020\300\361\333\007\"\007\010(\020\300\361\333\007\"\007\010\037\020\300\361\333\007\"\007\010\013\020\300\361\333\007\"\007\0107\020\300\361\333\007\"\007\010#\020\300\361\333\007\"\007\010\022\020\300\361\333\007\"\007\010>\020\300\361\333\007\"\007\010*\020\300\361\333\007\"\007\010\031\020\300\361\333\007\"\007\010\005\020\300\361\333\007\"\007\0101\020\300\361\333\007\"\007\010\014\020\300\361\333\007\"\007\0108\020\300\361\333\007\"\007\010$\020\300\361\333\007\"\007\010\033\020\300\361\333\007\"\007\010\007\020\300\361\333\007\"\007\0103\020\300\361\333\007\"\007\010\016\020\300\361\333\007\"\007\010:\020\300\361\333\007\"\007\010&\020\300\361\333\007\"\007\010\025\020\300\361\333\007\"\007\010\001\020\300\361\333\007\"\007\010-\020\300\361\333\007\"\007\010\034\020\300\361\333\007\"\007\010\010\020\300\361\333\007\"\007\0104\020\300\361\333\007\"\007\010 \020\300\361\333\007\"\007\010\027\020\300\361\333\007\"\007\010\003\020\300\361\333\007\"\007\010/\020\300\361\333\007\"\007\010\036\020\300\361\333\007\"\007\010\n\020\300\361\333\007\"\007\0106\020\300\361\333\007\"\007\010\"\020\300\361\333\007\"\007\010\021\020\300\361\333\007\"\007\010=\020\300\361\333\007\"\007\010)\020\300\361\333\007\"\007\010\030\020\300\361\333\007\"\007\010\004\020\300\361\333\007\"\007\0100\020\300\361\333\007\"\007\010\023\020\300\361\333\007\"\007\010?\020\300\361\333\007\"\007\010+\020\300\361\333\007\"\007\010\032\020\300\361\333\007\"\007\010\006\020\300\361\333\007\"\007\0102\020\300\361\333\007", sharding={maximal device=0}, metadata={op_type="_RecvTPUEmbeddingDeduplicationData" op_name="RecvTPUEmbeddingDeduplicationData_cluster_TPU_REPLICATED_CORE_0"}
  %get-tuple-element.240 = ((u32[128]{0}, f32[128]{0}, u32[128]{0}, u32[128]{0}, f32[128]{0}, /*index=5*/u32[128]{0}, u32[128]{0}, f32[128]{0}, u32[128]{0}, u32[128]{0}, /*index=10*/f32[128]{0}, u32[128]{0}, u32[128]{0}, f32[128]{0}, u32[128]{0}, /*index=15*/u32[128]{0}, f32[128]{0}, u32[128]{0}, u32[128]{0}, f32[128]{0}, /*index=20*/u32[128]{0}, u32[128]{0}, f32[128]{0}, u32[128]{0}, u32[128]{0}, /*index=25*/f32[128]{0}, u32[128]{0}, u32[128]{0}, f32[128]{0}, u32[128]{0}, /*index=30*/u32[128]{0}, f32[128]{0}, u32[128]{0}, u32[128]{0}, f32[128]{0}, /*index=35*/u32[128]{0}, u32[128]{0}, f32[128]{0}, u32[128]{0})) get-tuple-element((((u32[128]{0}, f32[128]{0}, u32[128]{0}, u32[128]{0}, f32[128]{0}, /*index=5*/u32[128]{0}, u32[128]{0}, f32[128]{0}, u32[128]{0}, u32[128]{0}, /*index=10*/f32[128]{0}, u32[128]{0}, u32[128]{0}, f32[128]{0}, u32[128]{0}, /*index=15*/u32[128]{0}, f32[128]{0}, u32[128]{0}, u32[128]{0}, f32[128]{0}, /*index=20*/u32[128]{0}, u32[128]{0}, f32[128]{0}, u32[128]{0}, u32[128]{0}, /*index=25*/f32[128]{0}, u32[128]{0}, u32[128]{0}, f32[128]{0}, u32[128]{0}, /*index=30*/u32[128]{0}, f32[128]{0}, u32[128]{0}, u32[128]{0}, f32[128]{0}, /*index=35*/u32[128]{0}, u32[128]{0}, f32[128]{0}, u32[128]{0})), token[]) %infeed.239), index=0, sharding={maximal device=0}, metadata={op_type="_RecvTPUEmbeddingDeduplicationData" op_name="RecvTPUEmbeddingDeduplicationData_cluster_TPU_REPLICATED_CORE_0"}
  %get-tuple-element.250 = (u32[128]{0}, f32[128]{0}, u32[128]{0}, u32[128]{0}, f32[128]{0}, /*index=5*/u32[128]{0}, u32[128]{0}, f32[128]{0}, u32[128]{0}, u32[128]{0}, /*index=10*/f32[128]{0}, u32[128]{0}, u32[128]{0}, f32[128]{0}, u32[128]{0}, /*index=15*/u32[128]{0}, f32[128]{0}, u32[128]{0}, u32[128]{0}, f32[128]{0}, /*index=20*/u32[128]{0}, u32[128]{0}, f32[128]{0}, u32[128]{0}, u32[128]{0}, /*index=25*/f32[128]{0}, u32[128]{0}, u32[128]{0}, f32[128]{0}, u32[128]{0}, /*index=30*/u32[128]{0}, f32[128]{0}, u32[128]{0}, u32[128]{0}, f32[128]{0}, /*index=35*/u32[128]{0}, u32[128]{0}, f32[128]{0}, u32[128]{0}) get-tuple-element(((u32[128]{0}, f32[128]{0}, u32[128]{0}, u32[128]{0}, f32[128]{0}, /*index=5*/u32[128]{0}, u32[128]{0}, f32[128]{0}, u32[128]{0}, u32[128]{0}, /*index=10*/f32[128]{0}, u32[128]{0}, u32[128]{0}, f32[128]{0}, u32[128]{0}, /*index=15*/u32[128]{0}, f32[128]{0}, u32[128]{0}, u32[128]{0}, f32[128]{0}, /*index=20*/u32[128]{0}, u32[128]{0}, f32[128]{0}, u32[128]{0}, u32[128]{0}, /*index=25*/f32[128]{0}, u32[128]{0}, u32[128]{0}, f32[128]{0}, u32[128]{0}, /*index=30*/u32[128]{0}, f32[128]{0}, u32[128]{0}, u32[128]{0}, f32[128]{0}, /*index=35*/u32[128]{0}, u32[128]{0}, f32[128]{0}, u32[128]{0})) %get-tuple-element.240), index=0, sharding={maximal device=0}, metadata={op_type="_RecvTPUEmbeddingActivations" op_name="while/RecvTPUEmbeddingActivations"}
  %get-tuple-element.251 = u32[128]{0} get-tuple-element((u32[128]{0}, f32[128]{0}, u32[128]{0}, u32[128]{0}, f32[128]{0}, /*index=5*/u32[128]{0}, u32[128]{0}, f32[128]{0}, u32[128]{0}, u32[128]{0}, /*index=10*/f32[128]{0}, u32[128]{0}, u32[128]{0}, f32[128]{0}, u32[128]{0}, /*index=15*/u32[128]{0}, f32[128]{0}, u32[128]{0}, u32[128]{0}, f32[128]{0}, /*index=20*/u32[128]{0}, u32[128]{0}, f32[128]{0}, u32[128]{0}, u32[128]{0}, /*index=25*/f32[128]{0}, u32[128]{0}, u32[128]{0}, f32[128]{0}, u32[128]{0}, /*index=30*/u32[128]{0}, f32[128]{0}, u32[128]{0}, u32[128]{0}, f32[128]{0}, /*index=35*/u32[128]{0}, u32[128]{0}, f32[128]{0}, u32[128]{0}) %get-tuple-element.250), index=0, sharding={maximal device=0}, metadata={op_type="_RecvTPUEmbeddingActivations" op_name="while/RecvTPUEmbeddingActivations"}
  %get-tuple-element.252 = f32[128]{0} get-tuple-element((u32[128]{0}, f32[128]{0}, u32[128]{0}, u32[128]{0}, f32[128]{0}, /*index=5*/u32[128]{0}, u32[128]{0}, f32[128]{0}, u32[128]{0}, u32[128]{0}, /*index=10*/f32[128]{0}, u32[128]{0}, u32[128]{0}, f32[128]{0}, u32[128]{0}, /*index=15*/u32[128]{0}, f32[128]{0}, u32[128]{0}, u32[128]{0}, f32[128]{0}, /*index=20*/u32[128]{0}, u32[128]{0}, f32[128]{0}, u32[128]{0}, u32[128]{0}, /*index=25*/f32[128]{0}, u32[128]{0}, u32[128]{0}, f32[128]{0}, u32[128]{0}, /*index=30*/u32[128]{0}, f32[128]{0}, u32[128]{0}, u32[128]{0}, f32[128]{0}, /*index=35*/u32[128]{0}, u32[128]{0}, f32[128]{0}, u32[128]{0}) %get-tuple-element.250), index=1, sharding={maximal device=0}, metadata={op_type="_RecvTPUEmbeddingActivations" op_name="while/RecvTPUEmbeddingActivations"}
  %get-tuple-element.253 = u32[128]{0} get-tuple-element((u32[128]{0}, f32[128]{0}, u32[128]{0}, u32[128]{0}, f32[128]{0}, /*index=5*/u32[128]{0}, u32[128]{0}, f32[128]{0}, u32[128]{0}, u32[128]{0}, /*index=10*/f32[128]{0}, u32[128]{0}, u32[128]{0}, f32[128]{0}, u32[128]{0}, /*index=15*/u32[128]{0}, f32[128]{0}, u32[128]{0}, u32[128]{0}, f32[128]{0}, /*index=20*/u32[128]{0}, u32[128]{0}, f32[128]{0}, u32[128]{0}, u32[128]{0}, /*index=25*/f32[128]{0}, u32[128]{0}, u32[128]{0}, f32[128]{0}, u32[128]{0}, /*index=30*/u32[128]{0}, f32[128]{0}, u32[128]{0}, u32[128]{0}, f32[128]{0}, /*index=35*/u32[128]{0}, u32[128]{0}, f32[128]{0}, u32[128]{0}) %get-tuple-element.250), index=2, sharding={maximal device=0}, metadata={op_type="_RecvTPUEmbeddingActivations" op_name="while/RecvTPUEmbeddingActivations"}
  %tuple.254 = (u32[128]{0}, f32[128]{0}, u32[128]{0}) tuple(u32[128]{0} %get-tuple-element.251, f32[128]{0} %get-tuple-element.252, u32[128]{0} %get-tuple-element.253), sharding={maximal device=0}, metadata={op_type="_RecvTPUEmbeddingActivations" op_name="while/RecvTPUEmbeddingActivations"}
  %tuple.255 = ((u32[128]{0}, f32[128]{0}, u32[128]{0})) tuple((u32[128]{0}, f32[128]{0}, u32[128]{0}) %tuple.254), sharding={maximal device=0}, metadata={op_type="_RecvTPUEmbeddingActivations" op_name="while/RecvTPUEmbeddingActivations"}
  %get-tuple-element.325 = (u32[128]{0}, f32[128]{0}, u32[128]{0}) get-tuple-element(((u32[128]{0}, f32[128]{0}, u32[128]{0})) %tuple.255), index=0, sharding={maximal device=0}, metadata={op_type="_RecvTPUEmbeddingActivations" op_name="while/RecvTPUEmbeddingActivations"}
  %get-tuple-element.328 = u32[128]{0} get-tuple-element((u32[128]{0}, f32[128]{0}, u32[128]{0}) %get-tuple-element.325), index=2, sharding={maximal device=0}, metadata={op_type="_RecvTPUEmbeddingActivations" op_name="while/RecvTPUEmbeddingActivations"}
  %broadcast.344 = u32[128,128]{1,0} broadcast(u32[128]{0} %get-tuple-element.328), dimensions={0}, sharding={maximal device=0}, metadata={op_type="_RecvTPUEmbeddingActivations" op_name="while/RecvTPUEmbeddingActivations"}
  %iota.343 = u32[128,128]{1,0} iota(), iota_dimension=1, sharding={maximal device=0}, metadata={op_type="_RecvTPUEmbeddingActivations" op_name="while/RecvTPUEmbeddingActivations"}
  %compare.345 = pred[128,128]{1,0} compare(u32[128,128]{1,0} %broadcast.344, u32[128,128]{1,0} %iota.343), direction=EQ, sharding={maximal device=0}, metadata={op_type="_RecvTPUEmbeddingActivations" op_name="while/RecvTPUEmbeddingActivations"}
  %constant.341 = f32[] constant(1), sharding={maximal device=0}, metadata={op_type="_RecvTPUEmbeddingActivations" op_name="while/RecvTPUEmbeddingActivations"}
  %broadcast.346 = f32[128,128]{1,0} broadcast(f32[] %constant.341), dimensions={}, sharding={maximal device=0}, metadata={op_type="_RecvTPUEmbeddingActivations" op_name="while/RecvTPUEmbeddingActivations"}
  %constant.342 = f32[] constant(0), sharding={maximal device=0}, metadata={op_type="_RecvTPUEmbeddingActivations" op_name="while/RecvTPUEmbeddingActivations"}
  %broadcast.347 = f32[128,128]{1,0} broadcast(f32[] %constant.342), dimensions={}, sharding={maximal device=0}, metadata={op_type="_RecvTPUEmbeddingActivations" op_name="while/RecvTPUEmbeddingActivations"}
  %select.348 = f32[128,128]{1,0} select(pred[128,128]{1,0} %compare.345, f32[128,128]{1,0} %broadcast.346, f32[128,128]{1,0} %broadcast.347), sharding={maximal device=0}, metadata={op_type="_RecvTPUEmbeddingActivations" op_name="while/RecvTPUEmbeddingActivations"}
  %transpose.349 = f32[128,128]{0,1} transpose(f32[128,128]{1,0} %select.348), dimensions={1,0}, sharding={maximal device=0}, metadata={op_type="_RecvTPUEmbeddingActivations" op_name="while/RecvTPUEmbeddingActivations"}
  %get-tuple-element.326 = u32[128]{0} get-tuple-element((u32[128]{0}, f32[128]{0}, u32[128]{0}) %get-tuple-element.325), index=0, sharding={maximal device=0}, metadata={op_type="_RecvTPUEmbeddingActivations" op_name="while/RecvTPUEmbeddingActivations"}
  %broadcast.333 = u32[128,8]{1,0} broadcast(u32[128]{0} %get-tuple-element.326), dimensions={0}, sharding={maximal device=0}, metadata={op_type="_RecvTPUEmbeddingActivations" op_name="while/RecvTPUEmbeddingActivations"}
  %iota.332 = u32[128,8]{1,0} iota(), iota_dimension=1, sharding={maximal device=0}, metadata={op_type="_RecvTPUEmbeddingActivations" op_name="while/RecvTPUEmbeddingActivations"}
  %compare.334 = pred[128,8]{1,0} compare(u32[128,8]{1,0} %broadcast.333, u32[128,8]{1,0} %iota.332), direction=EQ, sharding={maximal device=0}, metadata={op_type="_RecvTPUEmbeddingActivations" op_name="while/RecvTPUEmbeddingActivations"}
  %constant.330 = f32[] constant(1), sharding={maximal device=0}, metadata={op_type="_RecvTPUEmbeddingActivations" op_name="while/RecvTPUEmbeddingActivations"}
  %broadcast.335 = f32[128,8]{1,0} broadcast(f32[] %constant.330), dimensions={}, sharding={maximal device=0}, metadata={op_type="_RecvTPUEmbeddingActivations" op_name="while/RecvTPUEmbeddingActivations"}
  %constant.331 = f32[] constant(0), sharding={maximal device=0}, metadata={op_type="_RecvTPUEmbeddingActivations" op_name="while/RecvTPUEmbeddingActivations"}
  %broadcast.336 = f32[128,8]{1,0} broadcast(f32[] %constant.331), dimensions={}, sharding={maximal device=0}, metadata={op_type="_RecvTPUEmbeddingActivations" op_name="while/RecvTPUEmbeddingActivations"}
  %select.337 = f32[128,8]{1,0} select(pred[128,8]{1,0} %compare.334, f32[128,8]{1,0} %broadcast.335, f32[128,8]{1,0} %broadcast.336), sharding={maximal device=0}, metadata={op_type="_RecvTPUEmbeddingActivations" op_name="while/RecvTPUEmbeddingActivations"}
  %slice.324 = f32[8,128]{1,0} slice(f32[136,128]{1,0} %concatenate.322), slice={[128:136], [0:128]}, sharding={maximal device=0}, metadata={op_type="_RecvTPUEmbeddingActivations" op_name="while/RecvTPUEmbeddingActivations"}
  %reshape.329 = f32[8,128]{1,0} reshape(f32[8,128]{1,0} %slice.324), sharding={maximal device=0}, metadata={op_type="_RecvTPUEmbeddingActivations" op_name="while/RecvTPUEmbeddingActivations"}
  %dot.338 = f32[128,128]{1,0} dot(f32[128,8]{1,0} %select.337, f32[8,128]{1,0} %reshape.329), lhs_contracting_dims={1}, rhs_contracting_dims={0}, sharding={maximal device=0}, metadata={op_type="_RecvTPUEmbeddingActivations" op_name="while/RecvTPUEmbeddingActivations"}
  %get-tuple-element.327 = f32[128]{0} get-tuple-element((u32[128]{0}, f32[128]{0}, u32[128]{0}) %get-tuple-element.325), index=1, sharding={maximal device=0}, metadata={op_type="_RecvTPUEmbeddingActivations" op_name="while/RecvTPUEmbeddingActivations"}
  %broadcast.339 = f32[128,128]{1,0} broadcast(f32[128]{0} %get-tuple-element.327), dimensions={0}, sharding={maximal device=0}, metadata={op_type="_RecvTPUEmbeddingActivations" op_name="while/RecvTPUEmbeddingActivations"}
  %multiply.340 = f32[128,128]{1,0} multiply(f32[128,128]{1,0} %dot.338, f32[128,128]{1,0} %broadcast.339), sharding={maximal device=0}, metadata={op_type="_RecvTPUEmbeddingActivations" op_name="while/RecvTPUEmbeddingActivations"}
  %dot.350 = f32[128,128]{1,0} dot(f32[128,128]{0,1} %transpose.349, f32[128,128]{1,0} %multiply.340), lhs_contracting_dims={1}, rhs_contracting_dims={0}, sharding={maximal device=0}, metadata={op_type="_RecvTPUEmbeddingActivations" op_name="while/RecvTPUEmbeddingActivations"}
  %reshape.351 = f32[128,128]{1,0} reshape(f32[128,128]{1,0} %dot.350), sharding={maximal device=0}, metadata={op_type="_RecvTPUEmbeddingActivations" op_name="while/RecvTPUEmbeddingActivations"}
  %add.352 = f32[128,128]{1,0} add(f32[128,128]{1,0} %slice.323, f32[128,128]{1,0} %reshape.351), sharding={maximal device=0}, metadata={op_type="_RecvTPUEmbeddingActivations" op_name="while/RecvTPUEmbeddingActivations"}
  %concatenate.353 = f32[128,128]{1,0} concatenate(f32[128,128]{1,0} %add.352), dimensions={0}, sharding={maximal device=0}, metadata={op_type="_RecvTPUEmbeddingActivations" op_name="while/RecvTPUEmbeddingActivations"}
  %reshape.354 = f32[128,128]{1,0} reshape(f32[128,128]{1,0} %concatenate.353), sharding={maximal device=0}, metadata={op_type="_RecvTPUEmbeddingActivations" op_name="while/RecvTPUEmbeddingActivations"}
  %slice.355 = f32[128,128]{1,0} slice(f32[128,128]{1,0} %reshape.354), slice={[0:128], [0:128]}, sharding={maximal device=0}, metadata={op_type="_RecvTPUEmbeddingActivations" op_name="while/RecvTPUEmbeddingActivations"}
  %reshape.789 = f32[128,1,128]{2,1,0} reshape(f32[128,128]{1,0} %slice.355), sharding={maximal device=0}, metadata={op_type="Reshape" op_name="while/Reshape"}
  %slice.839 = f32[128,1,128]{2,1,0} slice(f32[128,1,128]{2,1,0} %reshape.789), slice={[0:128], [0:1], [0:128]}, sharding={maximal device=0}, metadata={op_type="StridedSlice" op_name="while/strided_slice"}
  %reshape.840 = f32[128,128]{1,0} reshape(f32[128,1,128]{2,1,0} %slice.839), sharding={maximal device=0}, metadata={op_type="StridedSlice" op_name="while/strided_slice"}
  %get-tuple-element.318 = f32[952,128]{1,0} get-tuple-element((f32[816,128]{1,0}, f32[952,128]{1,0}) %get-tuple-element.249), index=1, sharding={maximal device=0}, metadata={op_type="_RecvTPUEmbeddingActivations" op_name="while/RecvTPUEmbeddingActivations"}
  %reshape.319 = f32[136,896]{1,0} reshape(f32[952,128]{1,0} %get-tuple-element.318), sharding={maximal device=0}, metadata={op_type="_RecvTPUEmbeddingActivations" op_name="while/RecvTPUEmbeddingActivations"}
  %slice.356 = f32[136,128]{1,0} slice(f32[136,896]{1,0} %reshape.319), slice={[0:136], [0:128]}, sharding={maximal device=0}, metadata={op_type="_RecvTPUEmbeddingActivations" op_name="while/RecvTPUEmbeddingActivations"}
  %concatenate.357 = f32[136,128]{1,0} concatenate(f32[136,128]{1,0} %slice.356), dimensions={0}, sharding={maximal device=0}, metadata={op_type="_RecvTPUEmbeddingActivations" op_name="while/RecvTPUEmbeddingActivations"}
  %concatenate.358 = f32[136,128]{1,0} concatenate(f32[136,128]{1,0} %concatenate.357), dimensions={1}, sharding={maximal device=0}, metadata={op_type="_RecvTPUEmbeddingActivations" op_name="while/RecvTPUEmbeddingActivations"}
  %slice.359 = f32[128,128]{1,0} slice(f32[136,128]{1,0} %concatenate.358), slice={[0:128], [0:128]}, sharding={maximal device=0}, metadata={op_type="_RecvTPUEmbeddingActivations" op_name="while/RecvTPUEmbeddingActivations"}
  %get-tuple-element.256 = u32[128]{0} get-tuple-element((u32[128]{0}, f32[128]{0}, u32[128]{0}, u32[128]{0}, f32[128]{0}, /*index=5*/u32[128]{0}, u32[128]{0}, f32[128]{0}, u32[128]{0}, u32[128]{0}, /*index=10*/f32[128]{0}, u32[128]{0}, u32[128]{0}, f32[128]{0}, u32[128]{0}, /*index=15*/u32[128]{0}, f32[128]{0}, u32[128]{0}, u32[128]{0}, f32[128]{0}, /*index=20*/u32[128]{0}, u32[128]{0}, f32[128]{0}, u32[128]{0}, u32[128]{0}, /*index=25*/f32[128]{0}, u32[128]{0}, u32[128]{0}, f32[128]{0}, u32[128]{0}, /*index=30*/u32[128]{0}, f32[128]{0}, u32[128]{0}, u32[128]{0}, f32[128]{0}, /*index=35*/u32[128]{0}, u32[128]{0}, f32[128]{0}, u32[128]{0}) %get-tuple-element.250), index=3, sharding={maximal device=0}, metadata={op_type="_RecvTPUEmbeddingActivations" op_name="while/RecvTPUEmbeddingActivations"}
  %get-tuple-element.257 = f32[128]{0} get-tuple-element((u32[128]{0}, f32[128]{0}, u32[128]{0}, u32[128]{0}, f32[128]{0}, /*index=5*/u32[128]{0}, u32[128]{0}, f32[128]{0}, u32[128]{0}, u32[128]{0}, /*index=10*/f32[128]{0}, u32[128]{0}, u32[128]{0}, f32[128]{0}, u32[128]{0}, /*index=15*/u32[128]{0}, f32[128]{0}, u32[128]{0}, u32[128]{0}, f32[128]{0}, /*index=20*/u32[128]{0}, u32[128]{0}, f32[128]{0}, u32[128]{0}, u32[128]{0}, /*index=25*/f32[128]{0}, u32[128]{0}, u32[128]{0}, f32[128]{0}, u32[128]{0}, /*index=30*/u32[128]{0}, f32[128]{0}, u32[128]{0}, u32[128]{0}, f32[128]{0}, /*index=35*/u32[128]{0}, u32[128]{0}, f32[128]{0}, u32[128]{0}) %get-tuple-element.250), index=4, sharding={maximal device=0}, metadata={op_type="_RecvTPUEmbeddingActivations" op_name="while/RecvTPUEmbeddingActivations"}
  %get-tuple-element.258 = u32[128]{0} get-tuple-element((u32[128]{0}, f32[128]{0}, u32[128]{0}, u32[128]{0}, f32[128]{0}, /*index=5*/u32[128]{0}, u32[128]{0}, f32[128]{0}, u32[128]{0}, u32[128]{0}, /*index=10*/f32[128]{0}, u32[128]{0}, u32[128]{0}, f32[128]{0}, u32[128]{0}, /*index=15*/u32[128]{0}, f32[128]{0}, u32[128]{0}, u32[128]{0}, f32[128]{0}, /*index=20*/u32[128]{0}, u32[128]{0}, f32[128]{0}, u32[128]{0}, u32[128]{0}, /*index=25*/f32[128]{0}, u32[128]{0}, u32[128]{0}, f32[128]{0}, u32[128]{0}, /*index=30*/u32[128]{0}, f32[128]{0}, u32[128]{0}, u32[128]{0}, f32[128]{0}, /*index=35*/u32[128]{0}, u32[128]{0}, f32[128]{0}, u32[128]{0}) %get-tuple-element.250), index=5, sharding={maximal device=0}, metadata={op_type="_RecvTPUEmbeddingActivations" op_name="while/RecvTPUEmbeddingActivations"}
  %tuple.259 = (u32[128]{0}, f32[128]{0}, u32[128]{0}) tuple(u32[128]{0} %get-tuple-element.256, f32[128]{0} %get-tuple-element.257, u32[128]{0} %get-tuple-element.258), sharding={maximal device=0}, metadata={op_type="_RecvTPUEmbeddingActivations" op_name="while/RecvTPUEmbeddingActivations"}
  %tuple.260 = ((u32[128]{0}, f32[128]{0}, u32[128]{0})) tuple((u32[128]{0}, f32[128]{0}, u32[128]{0}) %tuple.259), sharding={maximal device=0}, metadata={op_type="_RecvTPUEmbeddingActivations" op_name="while/RecvTPUEmbeddingActivations"}
  %get-tuple-element.361 = (u32[128]{0}, f32[128]{0}, u32[128]{0}) get-tuple-element(((u32[128]{0}, f32[128]{0}, u32[128]{0})) %tuple.260), index=0, sharding={maximal device=0}, metadata={op_type="_RecvTPUEmbeddingActivations" op_name="while/RecvTPUEmbeddingActivations"}
  %get-tuple-element.364 = u32[128]{0} get-tuple-element((u32[128]{0}, f32[128]{0}, u32[128]{0}) %get-tuple-element.361), index=2, sharding={maximal device=0}, metadata={op_type="_RecvTPUEmbeddingActivations" op_name="while/RecvTPUEmbeddingActivations"}
  %broadcast.380 = u32[128,128]{1,0} broadcast(u32[128]{0} %get-tuple-element.364), dimensions={0}, sharding={maximal device=0}, metadata={op_type="_RecvTPUEmbeddingActivations" op_name="while/RecvTPUEmbeddingActivations"}
  %iota.379 = u32[128,128]{1,0} iota(), iota_dimension=1, sharding={maximal device=0}, metadata={op_type="_RecvTPUEmbeddingActivations" op_name="while/RecvTPUEmbeddingActivations"}
  %compare.381 = pred[128,128]{1,0} compare(u32[128,128]{1,0} %broadcast.380, u32[128,128]{1,0} %iota.379), direction=EQ, sharding={maximal device=0}, metadata={op_type="_RecvTPUEmbeddingActivations" op_name="while/RecvTPUEmbeddingActivations"}
  %constant.377 = f32[] constant(1), sharding={maximal device=0}, metadata={op_type="_RecvTPUEmbeddingActivations" op_name="while/RecvTPUEmbeddingActivations"}
  %broadcast.382 = f32[128,128]{1,0} broadcast(f32[] %constant.377), dimensions={}, sharding={maximal device=0}, metadata={op_type="_RecvTPUEmbeddingActivations" op_name="while/RecvTPUEmbeddingActivations"}
  %constant.378 = f32[] constant(0), sharding={maximal device=0}, metadata={op_type="_RecvTPUEmbeddingActivations" op_name="while/RecvTPUEmbeddingActivations"}
  %broadcast.383 = f32[128,128]{1,0} broadcast(f32[] %constant.378), dimensions={}, sharding={maximal device=0}, metadata={op_type="_RecvTPUEmbeddingActivations" op_name="while/RecvTPUEmbeddingActivations"}
  %select.384 = f32[128,128]{1,0} select(pred[128,128]{1,0} %compare.381, f32[128,128]{1,0} %broadcast.382, f32[128,128]{1,0} %broadcast.383), sharding={maximal device=0}, metadata={op_type="_RecvTPUEmbeddingActivations" op_name="while/RecvTPUEmbeddingActivations"}
  %transpose.385 = f32[128,128]{0,1} transpose(f32[128,128]{1,0} %select.384), dimensions={1,0}, sharding={maximal device=0}, metadata={op_type="_RecvTPUEmbeddingActivations" op_name="while/RecvTPUEmbeddingActivations"}
  %get-tuple-element.362 = u32[128]{0} get-tuple-element((u32[128]{0}, f32[128]{0}, u32[128]{0}) %get-tuple-element.361), index=0, sharding={maximal device=0}, metadata={op_type="_RecvTPUEmbeddingActivations" op_name="while/RecvTPUEmbeddingActivations"}
  %broadcast.369 = u32[128,8]{1,0} broadcast(u32[128]{0} %get-tuple-element.362), dimensions={0}, sharding={maximal device=0}, metadata={op_type="_RecvTPUEmbeddingActivations" op_name="while/RecvTPUEmbeddingActivations"}
  %iota.368 = u32[128,8]{1,0} iota(), iota_dimension=1, sharding={maximal device=0}, metadata={op_type="_RecvTPUEmbeddingActivations" op_name="while/RecvTPUEmbeddingActivations"}
  %compare.370 = pred[128,8]{1,0} compare(u32[128,8]{1,0} %broadcast.369, u32[128,8]{1,0} %iota.368), direction=EQ, sharding={maximal device=0}, metadata={op_type="_RecvTPUEmbeddingActivations" op_name="while/RecvTPUEmbeddingActivations"}
  %constant.366 = f32[] constant(1), sharding={maximal device=0}, metadata={op_type="_RecvTPUEmbeddingActivations" op_name="while/RecvTPUEmbeddingActivations"}
  %broadcast.371 = f32[128,8]{1,0} broadcast(f32[] %constant.366), dimensions={}, sharding={maximal device=0}, metadata={op_type="_RecvTPUEmbeddingActivations" op_name="while/RecvTPUEmbeddingActivations"}
  %constant.367 = f32[] constant(0), sharding={maximal device=0}, metadata={op_type="_RecvTPUEmbeddingActivations" op_name="while/RecvTPUEmbeddingActivations"}
  %broadcast.372 = f32[128,8]{1,0} broadcast(f32[] %constant.367), dimensions={}, sharding={maximal device=0}, metadata={op_type="_RecvTPUEmbeddingActivations" op_name="while/RecvTPUEmbeddingActivations"}
  %select.373 = f32[128,8]{1,0} select(pred[128,8]{1,0} %compare.370, f32[128,8]{1,0} %broadcast.371, f32[128,8]{1,0} %broadcast.372), sharding={maximal device=0}, metadata={op_type="_RecvTPUEmbeddingActivations" op_name="while/RecvTPUEmbeddingActivations"}
  %slice.360 = f32[8,128]{1,0} slice(f32[136,128]{1,0} %concatenate.358), slice={[128:136], [0:128]}, sharding={maximal device=0}, metadata={op_type="_RecvTPUEmbeddingActivations" op_name="while/RecvTPUEmbeddingActivations"}
  %reshape.365 = f32[8,128]{1,0} reshape(f32[8,128]{1,0} %slice.360), sharding={maximal device=0}, metadata={op_type="_RecvTPUEmbeddingActivations" op_name="while/RecvTPUEmbeddingActivations"}
  %dot.374 = f32[128,128]{1,0} dot(f32[128,8]{1,0} %select.373, f32[8,128]{1,0} %reshape.365), lhs_contracting_dims={1}, rhs_contracting_dims={0}, sharding={maximal device=0}, metadata={op_type="_RecvTPUEmbeddingActivations" op_name="while/RecvTPUEmbeddingActivations"}
  %get-tuple-element.363 = f32[128]{0} get-tuple-element((u32[128]{0}, f32[128]{0}, u32[128]{0}) %get-tuple-element.361), index=1, sharding={maximal device=0}, metadata={op_type="_RecvTPUEmbeddingActivations" op_name="while/RecvTPUEmbeddingActivations"}
  %broadcast.375 = f32[128,128]{1,0} broadcast(f32[128]{0} %get-tuple-element.363), dimensions={0}, sharding={maximal device=0}, metadata={op_type="_RecvTPUEmbeddingActivations" op_name="while/RecvTPUEmbeddingActivations"}
  %multiply.376 = f32[128,128]{1,0} multiply(f32[128,128]{1,0} %dot.374, f32[128,128]{1,0} %broadcast.375), sharding={maximal device=0}, metadata={op_type="_RecvTPUEmbeddingActivations" op_name="while/RecvTPUEmbeddingActivations"}
  %dot.386 = f32[128,128]{1,0} dot(f32[128,128]{0,1} %transpose.385, f32[128,128]{1,0} %multiply.376), lhs_contracting_dims={1}, rhs_contracting_dims={0}, sharding={maximal device=0}, metadata={op_type="_RecvTPUEmbeddingActivations" op_name="while/RecvTPUEmbeddingActivations"}
  %reshape.387 = f32[128,128]{1,0} reshape(f32[128,128]{1,0} %dot.386), sharding={maximal device=0}, metadata={op_type="_RecvTPUEmbeddingActivations" op_name="while/RecvTPUEmbeddingActivations"}
  %add.388 = f32[128,128]{1,0} add(f32[128,128]{1,0} %slice.359, f32[128,128]{1,0} %reshape.387), sharding={maximal device=0}, metadata={op_type="_RecvTPUEmbeddingActivations" op_name="while/RecvTPUEmbeddingActivations"}
  %concatenate.389 = f32[128,128]{1,0} concatenate(f32[128,128]{1,0} %add.388), dimensions={0}, sharding={maximal device=0}, metadata={op_type="_RecvTPUEmbeddingActivations" op_name="while/RecvTPUEmbeddingActivations"}
  %reshape.390 = f32[128,128]{1,0} reshape(f32[128,128]{1,0} %concatenate.389), sharding={maximal device=0}, metadata={op_type="_RecvTPUEmbeddingActivations" op_name="while/RecvTPUEmbeddingActivations"}
  %slice.391 = f32[128,128]{1,0} slice(f32[128,128]{1,0} %reshape.390), slice={[0:128], [0:128]}, sharding={maximal device=0}, metadata={op_type="_RecvTPUEmbeddingActivations" op_name="while/RecvTPUEmbeddingActivations"}
  %reshape.791 = f32[128,1,128]{2,1,0} reshape(f32[128,128]{1,0} %slice.391), sharding={maximal device=0}, metadata={op_type="Reshape" op_name="while/Reshape_1"}
  %slice.846 = f32[128,1,128]{2,1,0} slice(f32[128,1,128]{2,1,0} %reshape.791), slice={[0:128], [0:1], [0:128]}, sharding={maximal device=0}, metadata={op_type="StridedSlice" op_name="while/strided_slice_1"}
  %reshape.847 = f32[128,128]{1,0} reshape(f32[128,1,128]{2,1,0} %slice.846), sharding={maximal device=0}, metadata={op_type="StridedSlice" op_name="while/strided_slice_1"}
  %slice.392 = f32[136,128]{1,0} slice(f32[136,896]{1,0} %reshape.319), slice={[0:136], [128:256]}, sharding={maximal device=0}, metadata={op_type="_RecvTPUEmbeddingActivations" op_name="while/RecvTPUEmbeddingActivations"}
  %concatenate.393 = f32[136,128]{1,0} concatenate(f32[136,128]{1,0} %slice.392), dimensions={0}, sharding={maximal device=0}, metadata={op_type="_RecvTPUEmbeddingActivations" op_name="while/RecvTPUEmbeddingActivations"}
  %concatenate.394 = f32[136,128]{1,0} concatenate(f32[136,128]{1,0} %concatenate.393), dimensions={1}, sharding={maximal device=0}, metadata={op_type="_RecvTPUEmbeddingActivations" op_name="while/RecvTPUEmbeddingActivations"}
  %slice.395 = f32[128,128]{1,0} slice(f32[136,128]{1,0} %concatenate.394), slice={[0:128], [0:128]}, sharding={maximal device=0}, metadata={op_type="_RecvTPUEmbeddingActivations" op_name="while/RecvTPUEmbeddingActivations"}
  %get-tuple-element.261 = u32[128]{0} get-tuple-element((u32[128]{0}, f32[128]{0}, u32[128]{0}, u32[128]{0}, f32[128]{0}, /*index=5*/u32[128]{0}, u32[128]{0}, f32[128]{0}, u32[128]{0}, u32[128]{0}, /*index=10*/f32[128]{0}, u32[128]{0}, u32[128]{0}, f32[128]{0}, u32[128]{0}, /*index=15*/u32[128]{0}, f32[128]{0}, u32[128]{0}, u32[128]{0}, f32[128]{0}, /*index=20*/u32[128]{0}, u32[128]{0}, f32[128]{0}, u32[128]{0}, u32[128]{0}, /*index=25*/f32[128]{0}, u32[128]{0}, u32[128]{0}, f32[128]{0}, u32[128]{0}, /*index=30*/u32[128]{0}, f32[128]{0}, u32[128]{0}, u32[128]{0}, f32[128]{0}, /*index=35*/u32[128]{0}, u32[128]{0}, f32[128]{0}, u32[128]{0}) %get-tuple-element.250), index=6, sharding={maximal device=0}, metadata={op_type="_RecvTPUEmbeddingActivations" op_name="while/RecvTPUEmbeddingActivations"}
  %get-tuple-element.262 = f32[128]{0} get-tuple-element((u32[128]{0}, f32[128]{0}, u32[128]{0}, u32[128]{0}, f32[128]{0}, /*index=5*/u32[128]{0}, u32[128]{0}, f32[128]{0}, u32[128]{0}, u32[128]{0}, /*index=10*/f32[128]{0}, u32[128]{0}, u32[128]{0}, f32[128]{0}, u32[128]{0}, /*index=15*/u32[128]{0}, f32[128]{0}, u32[128]{0}, u32[128]{0}, f32[128]{0}, /*index=20*/u32[128]{0}, u32[128]{0}, f32[128]{0}, u32[128]{0}, u32[128]{0}, /*index=25*/f32[128]{0}, u32[128]{0}, u32[128]{0}, f32[128]{0}, u32[128]{0}, /*index=30*/u32[128]{0}, f32[128]{0}, u32[128]{0}, u32[128]{0}, f32[128]{0}, /*index=35*/u32[128]{0}, u32[128]{0}, f32[128]{0}, u32[128]{0}) %get-tuple-element.250), index=7, sharding={maximal device=0}, metadata={op_type="_RecvTPUEmbeddingActivations" op_name="while/RecvTPUEmbeddingActivations"}
  %get-tuple-element.263 = u32[128]{0} get-tuple-element((u32[128]{0}, f32[128]{0}, u32[128]{0}, u32[128]{0}, f32[128]{0}, /*index=5*/u32[128]{0}, u32[128]{0}, f32[128]{0}, u32[128]{0}, u32[128]{0}, /*index=10*/f32[128]{0}, u32[128]{0}, u32[128]{0}, f32[128]{0}, u32[128]{0}, /*index=15*/u32[128]{0}, f32[128]{0}, u32[128]{0}, u32[128]{0}, f32[128]{0}, /*index=20*/u32[128]{0}, u32[128]{0}, f32[128]{0}, u32[128]{0}, u32[128]{0}, /*index=25*/f32[128]{0}, u32[128]{0}, u32[128]{0}, f32[128]{0}, u32[128]{0}, /*index=30*/u32[128]{0}, f32[128]{0}, u32[128]{0}, u32[128]{0}, f32[128]{0}, /*index=35*/u32[128]{0}, u32[128]{0}, f32[128]{0}, u32[128]{0}) %get-tuple-element.250), index=8, sharding={maximal device=0}, metadata={op_type="_RecvTPUEmbeddingActivations" op_name="while/RecvTPUEmbeddingActivations"}
  %tuple.264 = (u32[128]{0}, f32[128]{0}, u32[128]{0}) tuple(u32[128]{0} %get-tuple-element.261, f32[128]{0} %get-tuple-element.262, u32[128]{0} %get-tuple-element.263), sharding={maximal device=0}, metadata={op_type="_RecvTPUEmbeddingActivations" op_name="while/RecvTPUEmbeddingActivations"}
  %tuple.265 = ((u32[128]{0}, f32[128]{0}, u32[128]{0})) tuple((u32[128]{0}, f32[128]{0}, u32[128]{0}) %tuple.264), sharding={maximal device=0}, metadata={op_type="_RecvTPUEmbeddingActivations" op_name="while/RecvTPUEmbeddingActivations"}
  %get-tuple-element.397 = (u32[128]{0}, f32[128]{0}, u32[128]{0}) get-tuple-element(((u32[128]{0}, f32[128]{0}, u32[128]{0})) %tuple.265), index=0, sharding={maximal device=0}, metadata={op_type="_RecvTPUEmbeddingActivations" op_name="while/RecvTPUEmbeddingActivations"}
  %get-tuple-element.400 = u32[128]{0} get-tuple-element((u32[128]{0}, f32[128]{0}, u32[128]{0}) %get-tuple-element.397), index=2, sharding={maximal device=0}, metadata={op_type="_RecvTPUEmbeddingActivations" op_name="while/RecvTPUEmbeddingActivations"}
  %broadcast.416 = u32[128,128]{1,0} broadcast(u32[128]{0} %get-tuple-element.400), dimensions={0}, sharding={maximal device=0}, metadata={op_type="_RecvTPUEmbeddingActivations" op_name="while/RecvTPUEmbeddingActivations"}
  %iota.415 = u32[128,128]{1,0} iota(), iota_dimension=1, sharding={maximal device=0}, metadata={op_type="_RecvTPUEmbeddingActivations" op_name="while/RecvTPUEmbeddingActivations"}
  %compare.417 = pred[128,128]{1,0} compare(u32[128,128]{1,0} %broadcast.416, u32[128,128]{1,0} %iota.415), direction=EQ, sharding={maximal device=0}, metadata={op_type="_RecvTPUEmbeddingActivations" op_name="while/RecvTPUEmbeddingActivations"}
  %constant.413 = f32[] constant(1), sharding={maximal device=0}, metadata={op_type="_RecvTPUEmbeddingActivations" op_name="while/RecvTPUEmbeddingActivations"}
  %broadcast.418 = f32[128,128]{1,0} broadcast(f32[] %constant.413), dimensions={}, sharding={maximal device=0}, metadata={op_type="_RecvTPUEmbeddingActivations" op_name="while/RecvTPUEmbeddingActivations"}
  %constant.414 = f32[] constant(0), sharding={maximal device=0}, metadata={op_type="_RecvTPUEmbeddingActivations" op_name="while/RecvTPUEmbeddingActivations"}
  %broadcast.419 = f32[128,128]{1,0} broadcast(f32[] %constant.414), dimensions={}, sharding={maximal device=0}, metadata={op_type="_RecvTPUEmbeddingActivations" op_name="while/RecvTPUEmbeddingActivations"}
  %select.420 = f32[128,128]{1,0} select(pred[128,128]{1,0} %compare.417, f32[128,128]{1,0} %broadcast.418, f32[128,128]{1,0} %broadcast.419), sharding={maximal device=0}, metadata={op_type="_RecvTPUEmbeddingActivations" op_name="while/RecvTPUEmbeddingActivations"}
  %transpose.421 = f32[128,128]{0,1} transpose(f32[128,128]{1,0} %select.420), dimensions={1,0}, sharding={maximal device=0}, metadata={op_type="_RecvTPUEmbeddingActivations" op_name="while/RecvTPUEmbeddingActivations"}
  %get-tuple-element.398 = u32[128]{0} get-tuple-element((u32[128]{0}, f32[128]{0}, u32[128]{0}) %get-tuple-element.397), index=0, sharding={maximal device=0}, metadata={op_type="_RecvTPUEmbeddingActivations" op_name="while/RecvTPUEmbeddingActivations"}
  %broadcast.405 = u32[128,8]{1,0} broadcast(u32[128]{0} %get-tuple-element.398), dimensions={0}, sharding={maximal device=0}, metadata={op_type="_RecvTPUEmbeddingActivations" op_name="while/RecvTPUEmbeddingActivations"}
  %iota.404 = u32[128,8]{1,0} iota(), iota_dimension=1, sharding={maximal device=0}, metadata={op_type="_RecvTPUEmbeddingActivations" op_name="while/RecvTPUEmbeddingActivations"}
  %compare.406 = pred[128,8]{1,0} compare(u32[128,8]{1,0} %broadcast.405, u32[128,8]{1,0} %iota.404), direction=EQ, sharding={maximal device=0}, metadata={op_type="_RecvTPUEmbeddingActivations" op_name="while/RecvTPUEmbeddingActivations"}
  %constant.402 = f32[] constant(1), sharding={maximal device=0}, metadata={op_type="_RecvTPUEmbeddingActivations" op_name="while/RecvTPUEmbeddingActivations"}
  %broadcast.407 = f32[128,8]{1,0} broadcast(f32[] %constant.402), dimensions={}, sharding={maximal device=0}, metadata={op_type="_RecvTPUEmbeddingActivations" op_name="while/RecvTPUEmbeddingActivations"}
  %constant.403 = f32[] constant(0), sharding={maximal device=0}, metadata={op_type="_RecvTPUEmbeddingActivations" op_name="while/RecvTPUEmbeddingActivations"}
  %broadcast.408 = f32[128,8]{1,0} broadcast(f32[] %constant.403), dimensions={}, sharding={maximal device=0}, metadata={op_type="_RecvTPUEmbeddingActivations" op_name="while/RecvTPUEmbeddingActivations"}
  %select.409 = f32[128,8]{1,0} select(pred[128,8]{1,0} %compare.406, f32[128,8]{1,0} %broadcast.407, f32[128,8]{1,0} %broadcast.408), sharding={maximal device=0}, metadata={op_type="_RecvTPUEmbeddingActivations" op_name="while/RecvTPUEmbeddingActivations"}
  %slice.396 = f32[8,128]{1,0} slice(f32[136,128]{1,0} %concatenate.394), slice={[128:136], [0:128]}, sharding={maximal device=0}, metadata={op_type="_RecvTPUEmbeddingActivations" op_name="while/RecvTPUEmbeddingActivations"}
  %reshape.401 = f32[8,128]{1,0} reshape(f32[8,128]{1,0} %slice.396), sharding={maximal device=0}, metadata={op_type="_RecvTPUEmbeddingActivations" op_name="while/RecvTPUEmbeddingActivations"}
  %dot.410 = f32[128,128]{1,0} dot(f32[128,8]{1,0} %select.409, f32[8,128]{1,0} %reshape.401), lhs_contracting_dims={1}, rhs_contracting_dims={0}, sharding={maximal device=0}, metadata={op_type="_RecvTPUEmbeddingActivations" op_name="while/RecvTPUEmbeddingActivations"}
  %get-tuple-element.399 = f32[128]{0} get-tuple-element((u32[128]{0}, f32[128]{0}, u32[128]{0}) %get-tuple-element.397), index=1, sharding={maximal device=0}, metadata={op_type="_RecvTPUEmbeddingActivations" op_name="while/RecvTPUEmbeddingActivations"}
  %broadcast.411 = f32[128,128]{1,0} broadcast(f32[128]{0} %get-tuple-element.399), dimensions={0}, sharding={maximal device=0}, metadata={op_type="_RecvTPUEmbeddingActivations" op_name="while/RecvTPUEmbeddingActivations"}
  %multiply.412 = f32[128,128]{1,0} multiply(f32[128,128]{1,0} %dot.410, f32[128,128]{1,0} %broadcast.411), sharding={maximal device=0}, metadata={op_type="_RecvTPUEmbeddingActivations" op_name="while/RecvTPUEmbeddingActivations"}
  %dot.422 = f32[128,128]{1,0} dot(f32[128,128]{0,1} %transpose.421, f32[128,128]{1,0} %multiply.412), lhs_contracting_dims={1}, rhs_contracting_dims={0}, sharding={maximal device=0}, metadata={op_type="_RecvTPUEmbeddingActivations" op_name="while/RecvTPUEmbeddingActivations"}
  %reshape.423 = f32[128,128]{1,0} reshape(f32[128,128]{1,0} %dot.422), sharding={maximal device=0}, metadata={op_type="_RecvTPUEmbeddingActivations" op_name="while/RecvTPUEmbeddingActivations"}
  %add.424 = f32[128,128]{1,0} add(f32[128,128]{1,0} %slice.395, f32[128,128]{1,0} %reshape.423), sharding={maximal device=0}, metadata={op_type="_RecvTPUEmbeddingActivations" op_name="while/RecvTPUEmbeddingActivations"}
  %concatenate.425 = f32[128,128]{1,0} concatenate(f32[128,128]{1,0} %add.424), dimensions={0}, sharding={maximal device=0}, metadata={op_type="_RecvTPUEmbeddingActivations" op_name="while/RecvTPUEmbeddingActivations"}
  %reshape.426 = f32[128,128]{1,0} reshape(f32[128,128]{1,0} %concatenate.425), sharding={maximal device=0}, metadata={op_type="_RecvTPUEmbeddingActivations" op_name="while/RecvTPUEmbeddingActivations"}
  %slice.427 = f32[128,128]{1,0} slice(f32[128,128]{1,0} %reshape.426), slice={[0:128], [0:128]}, sharding={maximal device=0}, metadata={op_type="_RecvTPUEmbeddingActivations" op_name="while/RecvTPUEmbeddingActivations"}
  %reshape.799 = f32[128,1,128]{2,1,0} reshape(f32[128,128]{1,0} %slice.427), sharding={maximal device=0}, metadata={op_type="Reshape" op_name="while/Reshape_2"}
  %slice.874 = f32[128,1,128]{2,1,0} slice(f32[128,1,128]{2,1,0} %reshape.799), slice={[0:128], [0:1], [0:128]}, sharding={maximal device=0}, metadata={op_type="StridedSlice" op_name="while/strided_slice_2"}
  %reshape.875 = f32[128,128]{1,0} reshape(f32[128,1,128]{2,1,0} %slice.874), sharding={maximal device=0}, metadata={op_type="StridedSlice" op_name="while/strided_slice_2"}
  %slice.428 = f32[136,128]{1,0} slice(f32[136,768]{1,0} %reshape.317), slice={[0:136], [128:256]}, sharding={maximal device=0}, metadata={op_type="_RecvTPUEmbeddingActivations" op_name="while/RecvTPUEmbeddingActivations"}
  %concatenate.429 = f32[136,128]{1,0} concatenate(f32[136,128]{1,0} %slice.428), dimensions={0}, sharding={maximal device=0}, metadata={op_type="_RecvTPUEmbeddingActivations" op_name="while/RecvTPUEmbeddingActivations"}
  %concatenate.430 = f32[136,128]{1,0} concatenate(f32[136,128]{1,0} %concatenate.429), dimensions={1}, sharding={maximal device=0}, metadata={op_type="_RecvTPUEmbeddingActivations" op_name="while/RecvTPUEmbeddingActivations"}
  %slice.431 = f32[128,128]{1,0} slice(f32[136,128]{1,0} %concatenate.430), slice={[0:128], [0:128]}, sharding={maximal device=0}, metadata={op_type="_RecvTPUEmbeddingActivations" op_name="while/RecvTPUEmbeddingActivations"}
  %get-tuple-element.266 = u32[128]{0} get-tuple-element((u32[128]{0}, f32[128]{0}, u32[128]{0}, u32[128]{0}, f32[128]{0}, /*index=5*/u32[128]{0}, u32[128]{0}, f32[128]{0}, u32[128]{0}, u32[128]{0}, /*index=10*/f32[128]{0}, u32[128]{0}, u32[128]{0}, f32[128]{0}, u32[128]{0}, /*index=15*/u32[128]{0}, f32[128]{0}, u32[128]{0}, u32[128]{0}, f32[128]{0}, /*index=20*/u32[128]{0}, u32[128]{0}, f32[128]{0}, u32[128]{0}, u32[128]{0}, /*index=25*/f32[128]{0}, u32[128]{0}, u32[128]{0}, f32[128]{0}, u32[128]{0}, /*index=30*/u32[128]{0}, f32[128]{0}, u32[128]{0}, u32[128]{0}, f32[128]{0}, /*index=35*/u32[128]{0}, u32[128]{0}, f32[128]{0}, u32[128]{0}) %get-tuple-element.250), index=9, sharding={maximal device=0}, metadata={op_type="_RecvTPUEmbeddingActivations" op_name="while/RecvTPUEmbeddingActivations"}
  %get-tuple-element.267 = f32[128]{0} get-tuple-element((u32[128]{0}, f32[128]{0}, u32[128]{0}, u32[128]{0}, f32[128]{0}, /*index=5*/u32[128]{0}, u32[128]{0}, f32[128]{0}, u32[128]{0}, u32[128]{0}, /*index=10*/f32[128]{0}, u32[128]{0}, u32[128]{0}, f32[128]{0}, u32[128]{0}, /*index=15*/u32[128]{0}, f32[128]{0}, u32[128]{0}, u32[128]{0}, f32[128]{0}, /*index=20*/u32[128]{0}, u32[128]{0}, f32[128]{0}, u32[128]{0}, u32[128]{0}, /*index=25*/f32[128]{0}, u32[128]{0}, u32[128]{0}, f32[128]{0}, u32[128]{0}, /*index=30*/u32[128]{0}, f32[128]{0}, u32[128]{0}, u32[128]{0}, f32[128]{0}, /*index=35*/u32[128]{0}, u32[128]{0}, f32[128]{0}, u32[128]{0}) %get-tuple-element.250), index=10, sharding={maximal device=0}, metadata={op_type="_RecvTPUEmbeddingActivations" op_name="while/RecvTPUEmbeddingActivations"}
  %get-tuple-element.268 = u32[128]{0} get-tuple-element((u32[128]{0}, f32[128]{0}, u32[128]{0}, u32[128]{0}, f32[128]{0}, /*index=5*/u32[128]{0}, u32[128]{0}, f32[128]{0}, u32[128]{0}, u32[128]{0}, /*index=10*/f32[128]{0}, u32[128]{0}, u32[128]{0}, f32[128]{0}, u32[128]{0}, /*index=15*/u32[128]{0}, f32[128]{0}, u32[128]{0}, u32[128]{0}, f32[128]{0}, /*index=20*/u32[128]{0}, u32[128]{0}, f32[128]{0}, u32[128]{0}, u32[128]{0}, /*index=25*/f32[128]{0}, u32[128]{0}, u32[128]{0}, f32[128]{0}, u32[128]{0}, /*index=30*/u32[128]{0}, f32[128]{0}, u32[128]{0}, u32[128]{0}, f32[128]{0}, /*index=35*/u32[128]{0}, u32[128]{0}, f32[128]{0}, u32[128]{0}) %get-tuple-element.250), index=11, sharding={maximal device=0}, metadata={op_type="_RecvTPUEmbeddingActivations" op_name="while/RecvTPUEmbeddingActivations"}
  %tuple.269 = (u32[128]{0}, f32[128]{0}, u32[128]{0}) tuple(u32[128]{0} %get-tuple-element.266, f32[128]{0} %get-tuple-element.267, u32[128]{0} %get-tuple-element.268), sharding={maximal device=0}, metadata={op_type="_RecvTPUEmbeddingActivations" op_name="while/RecvTPUEmbeddingActivations"}
  %tuple.270 = ((u32[128]{0}, f32[128]{0}, u32[128]{0})) tuple((u32[128]{0}, f32[128]{0}, u32[128]{0}) %tuple.269), sharding={maximal device=0}, metadata={op_type="_RecvTPUEmbeddingActivations" op_name="while/RecvTPUEmbeddingActivations"}
  %get-tuple-element.433 = (u32[128]{0}, f32[128]{0}, u32[128]{0}) get-tuple-element(((u32[128]{0}, f32[128]{0}, u32[128]{0})) %tuple.270), index=0, sharding={maximal device=0}, metadata={op_type="_RecvTPUEmbeddingActivations" op_name="while/RecvTPUEmbeddingActivations"}
  %get-tuple-element.436 = u32[128]{0} get-tuple-element((u32[128]{0}, f32[128]{0}, u32[128]{0}) %get-tuple-element.433), index=2, sharding={maximal device=0}, metadata={op_type="_RecvTPUEmbeddingActivations" op_name="while/RecvTPUEmbeddingActivations"}
  %broadcast.452 = u32[128,128]{1,0} broadcast(u32[128]{0} %get-tuple-element.436), dimensions={0}, sharding={maximal device=0}, metadata={op_type="_RecvTPUEmbeddingActivations" op_name="while/RecvTPUEmbeddingActivations"}
  %iota.451 = u32[128,128]{1,0} iota(), iota_dimension=1, sharding={maximal device=0}, metadata={op_type="_RecvTPUEmbeddingActivations" op_name="while/RecvTPUEmbeddingActivations"}
  %compare.453 = pred[128,128]{1,0} compare(u32[128,128]{1,0} %broadcast.452, u32[128,128]{1,0} %iota.451), direction=EQ, sharding={maximal device=0}, metadata={op_type="_RecvTPUEmbeddingActivations" op_name="while/RecvTPUEmbeddingActivations"}
  %constant.449 = f32[] constant(1), sharding={maximal device=0}, metadata={op_type="_RecvTPUEmbeddingActivations" op_name="while/RecvTPUEmbeddingActivations"}
  %broadcast.454 = f32[128,128]{1,0} broadcast(f32[] %constant.449), dimensions={}, sharding={maximal device=0}, metadata={op_type="_RecvTPUEmbeddingActivations" op_name="while/RecvTPUEmbeddingActivations"}
  %constant.450 = f32[] constant(0), sharding={maximal device=0}, metadata={op_type="_RecvTPUEmbeddingActivations" op_name="while/RecvTPUEmbeddingActivations"}
  %broadcast.455 = f32[128,128]{1,0} broadcast(f32[] %constant.450), dimensions={}, sharding={maximal device=0}, metadata={op_type="_RecvTPUEmbeddingActivations" op_name="while/RecvTPUEmbeddingActivations"}
  %select.456 = f32[128,128]{1,0} select(pred[128,128]{1,0} %compare.453, f32[128,128]{1,0} %broadcast.454, f32[128,128]{1,0} %broadcast.455), sharding={maximal device=0}, metadata={op_type="_RecvTPUEmbeddingActivations" op_name="while/RecvTPUEmbeddingActivations"}
  %transpose.457 = f32[128,128]{0,1} transpose(f32[128,128]{1,0} %select.456), dimensions={1,0}, sharding={maximal device=0}, metadata={op_type="_RecvTPUEmbeddingActivations" op_name="while/RecvTPUEmbeddingActivations"}
  %get-tuple-element.434 = u32[128]{0} get-tuple-element((u32[128]{0}, f32[128]{0}, u32[128]{0}) %get-tuple-element.433), index=0, sharding={maximal device=0}, metadata={op_type="_RecvTPUEmbeddingActivations" op_name="while/RecvTPUEmbeddingActivations"}
  %broadcast.441 = u32[128,8]{1,0} broadcast(u32[128]{0} %get-tuple-element.434), dimensions={0}, sharding={maximal device=0}, metadata={op_type="_RecvTPUEmbeddingActivations" op_name="while/RecvTPUEmbeddingActivations"}
  %iota.440 = u32[128,8]{1,0} iota(), iota_dimension=1, sharding={maximal device=0}, metadata={op_type="_RecvTPUEmbeddingActivations" op_name="while/RecvTPUEmbeddingActivations"}
  %compare.442 = pred[128,8]{1,0} compare(u32[128,8]{1,0} %broadcast.441, u32[128,8]{1,0} %iota.440), direction=EQ, sharding={maximal device=0}, metadata={op_type="_RecvTPUEmbeddingActivations" op_name="while/RecvTPUEmbeddingActivations"}
  %constant.438 = f32[] constant(1), sharding={maximal device=0}, metadata={op_type="_RecvTPUEmbeddingActivations" op_name="while/RecvTPUEmbeddingActivations"}
  %broadcast.443 = f32[128,8]{1,0} broadcast(f32[] %constant.438), dimensions={}, sharding={maximal device=0}, metadata={op_type="_RecvTPUEmbeddingActivations" op_name="while/RecvTPUEmbeddingActivations"}
  %constant.439 = f32[] constant(0), sharding={maximal device=0}, metadata={op_type="_RecvTPUEmbeddingActivations" op_name="while/RecvTPUEmbeddingActivations"}
  %broadcast.444 = f32[128,8]{1,0} broadcast(f32[] %constant.439), dimensions={}, sharding={maximal device=0}, metadata={op_type="_RecvTPUEmbeddingActivations" op_name="while/RecvTPUEmbeddingActivations"}
  %select.445 = f32[128,8]{1,0} select(pred[128,8]{1,0} %compare.442, f32[128,8]{1,0} %broadcast.443, f32[128,8]{1,0} %broadcast.444), sharding={maximal device=0}, metadata={op_type="_RecvTPUEmbeddingActivations" op_name="while/RecvTPUEmbeddingActivations"}
  %slice.432 = f32[8,128]{1,0} slice(f32[136,128]{1,0} %concatenate.430), slice={[128:136], [0:128]}, sharding={maximal device=0}, metadata={op_type="_RecvTPUEmbeddingActivations" op_name="while/RecvTPUEmbeddingActivations"}
  %reshape.437 = f32[8,128]{1,0} reshape(f32[8,128]{1,0} %slice.432), sharding={maximal device=0}, metadata={op_type="_RecvTPUEmbeddingActivations" op_name="while/RecvTPUEmbeddingActivations"}
  %dot.446 = f32[128,128]{1,0} dot(f32[128,8]{1,0} %select.445, f32[8,128]{1,0} %reshape.437), lhs_contracting_dims={1}, rhs_contracting_dims={0}, sharding={maximal device=0}, metadata={op_type="_RecvTPUEmbeddingActivations" op_name="while/RecvTPUEmbeddingActivations"}
  %get-tuple-element.435 = f32[128]{0} get-tuple-element((u32[128]{0}, f32[128]{0}, u32[128]{0}) %get-tuple-element.433), index=1, sharding={maximal device=0}, metadata={op_type="_RecvTPUEmbeddingActivations" op_name="while/RecvTPUEmbeddingActivations"}
  %broadcast.447 = f32[128,128]{1,0} broadcast(f32[128]{0} %get-tuple-element.435), dimensions={0}, sharding={maximal device=0}, metadata={op_type="_RecvTPUEmbeddingActivations" op_name="while/RecvTPUEmbeddingActivations"}
  %multiply.448 = f32[128,128]{1,0} multiply(f32[128,128]{1,0} %dot.446, f32[128,128]{1,0} %broadcast.447), sharding={maximal device=0}, metadata={op_type="_RecvTPUEmbeddingActivations" op_name="while/RecvTPUEmbeddingActivations"}
  %dot.458 = f32[128,128]{1,0} dot(f32[128,128]{0,1} %transpose.457, f32[128,128]{1,0} %multiply.448), lhs_contracting_dims={1}, rhs_contracting_dims={0}, sharding={maximal device=0}, metadata={op_type="_RecvTPUEmbeddingActivations" op_name="while/RecvTPUEmbeddingActivations"}
  %reshape.459 = f32[128,128]{1,0} reshape(f32[128,128]{1,0} %dot.458), sharding={maximal device=0}, metadata={op_type="_RecvTPUEmbeddingActivations" op_name="while/RecvTPUEmbeddingActivations"}
  %add.460 = f32[128,128]{1,0} add(f32[128,128]{1,0} %slice.431, f32[128,128]{1,0} %reshape.459), sharding={maximal device=0}, metadata={op_type="_RecvTPUEmbeddingActivations" op_name="while/RecvTPUEmbeddingActivations"}
  %concatenate.461 = f32[128,128]{1,0} concatenate(f32[128,128]{1,0} %add.460), dimensions={0}, sharding={maximal device=0}, metadata={op_type="_RecvTPUEmbeddingActivations" op_name="while/RecvTPUEmbeddingActivations"}
  %reshape.462 = f32[128,128]{1,0} reshape(f32[128,128]{1,0} %concatenate.461), sharding={maximal device=0}, metadata={op_type="_RecvTPUEmbeddingActivations" op_name="while/RecvTPUEmbeddingActivations"}
  %slice.463 = f32[128,128]{1,0} slice(f32[128,128]{1,0} %reshape.462), slice={[0:128], [0:128]}, sharding={maximal device=0}, metadata={op_type="_RecvTPUEmbeddingActivations" op_name="while/RecvTPUEmbeddingActivations"}
  %reshape.801 = f32[128,1,128]{2,1,0} reshape(f32[128,128]{1,0} %slice.463), sharding={maximal device=0}, metadata={op_type="Reshape" op_name="while/Reshape_3"}
  %slice.881 = f32[128,1,128]{2,1,0} slice(f32[128,1,128]{2,1,0} %reshape.801), slice={[0:128], [0:1], [0:128]}, sharding={maximal device=0}, metadata={op_type="StridedSlice" op_name="while/strided_slice_3"}
  %reshape.882 = f32[128,128]{1,0} reshape(f32[128,1,128]{2,1,0} %slice.881), sharding={maximal device=0}, metadata={op_type="StridedSlice" op_name="while/strided_slice_3"}
  %slice.464 = f32[136,128]{1,0} slice(f32[136,896]{1,0} %reshape.319), slice={[0:136], [256:384]}, sharding={maximal device=0}, metadata={op_type="_RecvTPUEmbeddingActivations" op_name="while/RecvTPUEmbeddingActivations"}
  %concatenate.465 = f32[136,128]{1,0} concatenate(f32[136,128]{1,0} %slice.464), dimensions={0}, sharding={maximal device=0}, metadata={op_type="_RecvTPUEmbeddingActivations" op_name="while/RecvTPUEmbeddingActivations"}
  %concatenate.466 = f32[136,128]{1,0} concatenate(f32[136,128]{1,0} %concatenate.465), dimensions={1}, sharding={maximal device=0}, metadata={op_type="_RecvTPUEmbeddingActivations" op_name="while/RecvTPUEmbeddingActivations"}
  %slice.467 = f32[128,128]{1,0} slice(f32[136,128]{1,0} %concatenate.466), slice={[0:128], [0:128]}, sharding={maximal device=0}, metadata={op_type="_RecvTPUEmbeddingActivations" op_name="while/RecvTPUEmbeddingActivations"}
  %get-tuple-element.271 = u32[128]{0} get-tuple-element((u32[128]{0}, f32[128]{0}, u32[128]{0}, u32[128]{0}, f32[128]{0}, /*index=5*/u32[128]{0}, u32[128]{0}, f32[128]{0}, u32[128]{0}, u32[128]{0}, /*index=10*/f32[128]{0}, u32[128]{0}, u32[128]{0}, f32[128]{0}, u32[128]{0}, /*index=15*/u32[128]{0}, f32[128]{0}, u32[128]{0}, u32[128]{0}, f32[128]{0}, /*index=20*/u32[128]{0}, u32[128]{0}, f32[128]{0}, u32[128]{0}, u32[128]{0}, /*index=25*/f32[128]{0}, u32[128]{0}, u32[128]{0}, f32[128]{0}, u32[128]{0}, /*index=30*/u32[128]{0}, f32[128]{0}, u32[128]{0}, u32[128]{0}, f32[128]{0}, /*index=35*/u32[128]{0}, u32[128]{0}, f32[128]{0}, u32[128]{0}) %get-tuple-element.250), index=12, sharding={maximal device=0}, metadata={op_type="_RecvTPUEmbeddingActivations" op_name="while/RecvTPUEmbeddingActivations"}
  %get-tuple-element.272 = f32[128]{0} get-tuple-element((u32[128]{0}, f32[128]{0}, u32[128]{0}, u32[128]{0}, f32[128]{0}, /*index=5*/u32[128]{0}, u32[128]{0}, f32[128]{0}, u32[128]{0}, u32[128]{0}, /*index=10*/f32[128]{0}, u32[128]{0}, u32[128]{0}, f32[128]{0}, u32[128]{0}, /*index=15*/u32[128]{0}, f32[128]{0}, u32[128]{0}, u32[128]{0}, f32[128]{0}, /*index=20*/u32[128]{0}, u32[128]{0}, f32[128]{0}, u32[128]{0}, u32[128]{0}, /*index=25*/f32[128]{0}, u32[128]{0}, u32[128]{0}, f32[128]{0}, u32[128]{0}, /*index=30*/u32[128]{0}, f32[128]{0}, u32[128]{0}, u32[128]{0}, f32[128]{0}, /*index=35*/u32[128]{0}, u32[128]{0}, f32[128]{0}, u32[128]{0}) %get-tuple-element.250), index=13, sharding={maximal device=0}, metadata={op_type="_RecvTPUEmbeddingActivations" op_name="while/RecvTPUEmbeddingActivations"}
  %get-tuple-element.273 = u32[128]{0} get-tuple-element((u32[128]{0}, f32[128]{0}, u32[128]{0}, u32[128]{0}, f32[128]{0}, /*index=5*/u32[128]{0}, u32[128]{0}, f32[128]{0}, u32[128]{0}, u32[128]{0}, /*index=10*/f32[128]{0}, u32[128]{0}, u32[128]{0}, f32[128]{0}, u32[128]{0}, /*index=15*/u32[128]{0}, f32[128]{0}, u32[128]{0}, u32[128]{0}, f32[128]{0}, /*index=20*/u32[128]{0}, u32[128]{0}, f32[128]{0}, u32[128]{0}, u32[128]{0}, /*index=25*/f32[128]{0}, u32[128]{0}, u32[128]{0}, f32[128]{0}, u32[128]{0}, /*index=30*/u32[128]{0}, f32[128]{0}, u32[128]{0}, u32[128]{0}, f32[128]{0}, /*index=35*/u32[128]{0}, u32[128]{0}, f32[128]{0}, u32[128]{0}) %get-tuple-element.250), index=14, sharding={maximal device=0}, metadata={op_type="_RecvTPUEmbeddingActivations" op_name="while/RecvTPUEmbeddingActivations"}
  %tuple.274 = (u32[128]{0}, f32[128]{0}, u32[128]{0}) tuple(u32[128]{0} %get-tuple-element.271, f32[128]{0} %get-tuple-element.272, u32[128]{0} %get-tuple-element.273), sharding={maximal device=0}, metadata={op_type="_RecvTPUEmbeddingActivations" op_name="while/RecvTPUEmbeddingActivations"}
  %tuple.275 = ((u32[128]{0}, f32[128]{0}, u32[128]{0})) tuple((u32[128]{0}, f32[128]{0}, u32[128]{0}) %tuple.274), sharding={maximal device=0}, metadata={op_type="_RecvTPUEmbeddingActivations" op_name="while/RecvTPUEmbeddingActivations"}
  %get-tuple-element.469 = (u32[128]{0}, f32[128]{0}, u32[128]{0}) get-tuple-element(((u32[128]{0}, f32[128]{0}, u32[128]{0})) %tuple.275), index=0, sharding={maximal device=0}, metadata={op_type="_RecvTPUEmbeddingActivations" op_name="while/RecvTPUEmbeddingActivations"}
  %get-tuple-element.472 = u32[128]{0} get-tuple-element((u32[128]{0}, f32[128]{0}, u32[128]{0}) %get-tuple-element.469), index=2, sharding={maximal device=0}, metadata={op_type="_RecvTPUEmbeddingActivations" op_name="while/RecvTPUEmbeddingActivations"}
  %broadcast.488 = u32[128,128]{1,0} broadcast(u32[128]{0} %get-tuple-element.472), dimensions={0}, sharding={maximal device=0}, metadata={op_type="_RecvTPUEmbeddingActivations" op_name="while/RecvTPUEmbeddingActivations"}
  %iota.487 = u32[128,128]{1,0} iota(), iota_dimension=1, sharding={maximal device=0}, metadata={op_type="_RecvTPUEmbeddingActivations" op_name="while/RecvTPUEmbeddingActivations"}
  %compare.489 = pred[128,128]{1,0} compare(u32[128,128]{1,0} %broadcast.488, u32[128,128]{1,0} %iota.487), direction=EQ, sharding={maximal device=0}, metadata={op_type="_RecvTPUEmbeddingActivations" op_name="while/RecvTPUEmbeddingActivations"}
  %constant.485 = f32[] constant(1), sharding={maximal device=0}, metadata={op_type="_RecvTPUEmbeddingActivations" op_name="while/RecvTPUEmbeddingActivations"}
  %broadcast.490 = f32[128,128]{1,0} broadcast(f32[] %constant.485), dimensions={}, sharding={maximal device=0}, metadata={op_type="_RecvTPUEmbeddingActivations" op_name="while/RecvTPUEmbeddingActivations"}
  %constant.486 = f32[] constant(0), sharding={maximal device=0}, metadata={op_type="_RecvTPUEmbeddingActivations" op_name="while/RecvTPUEmbeddingActivations"}
  %broadcast.491 = f32[128,128]{1,0} broadcast(f32[] %constant.486), dimensions={}, sharding={maximal device=0}, metadata={op_type="_RecvTPUEmbeddingActivations" op_name="while/RecvTPUEmbeddingActivations"}
  %select.492 = f32[128,128]{1,0} select(pred[128,128]{1,0} %compare.489, f32[128,128]{1,0} %broadcast.490, f32[128,128]{1,0} %broadcast.491), sharding={maximal device=0}, metadata={op_type="_RecvTPUEmbeddingActivations" op_name="while/RecvTPUEmbeddingActivations"}
  %transpose.493 = f32[128,128]{0,1} transpose(f32[128,128]{1,0} %select.492), dimensions={1,0}, sharding={maximal device=0}, metadata={op_type="_RecvTPUEmbeddingActivations" op_name="while/RecvTPUEmbeddingActivations"}
  %get-tuple-element.470 = u32[128]{0} get-tuple-element((u32[128]{0}, f32[128]{0}, u32[128]{0}) %get-tuple-element.469), index=0, sharding={maximal device=0}, metadata={op_type="_RecvTPUEmbeddingActivations" op_name="while/RecvTPUEmbeddingActivations"}
  %broadcast.477 = u32[128,8]{1,0} broadcast(u32[128]{0} %get-tuple-element.470), dimensions={0}, sharding={maximal device=0}, metadata={op_type="_RecvTPUEmbeddingActivations" op_name="while/RecvTPUEmbeddingActivations"}
  %iota.476 = u32[128,8]{1,0} iota(), iota_dimension=1, sharding={maximal device=0}, metadata={op_type="_RecvTPUEmbeddingActivations" op_name="while/RecvTPUEmbeddingActivations"}
  %compare.478 = pred[128,8]{1,0} compare(u32[128,8]{1,0} %broadcast.477, u32[128,8]{1,0} %iota.476), direction=EQ, sharding={maximal device=0}, metadata={op_type="_RecvTPUEmbeddingActivations" op_name="while/RecvTPUEmbeddingActivations"}
  %constant.474 = f32[] constant(1), sharding={maximal device=0}, metadata={op_type="_RecvTPUEmbeddingActivations" op_name="while/RecvTPUEmbeddingActivations"}
  %broadcast.479 = f32[128,8]{1,0} broadcast(f32[] %constant.474), dimensions={}, sharding={maximal device=0}, metadata={op_type="_RecvTPUEmbeddingActivations" op_name="while/RecvTPUEmbeddingActivations"}
  %constant.475 = f32[] constant(0), sharding={maximal device=0}, metadata={op_type="_RecvTPUEmbeddingActivations" op_name="while/RecvTPUEmbeddingActivations"}
  %broadcast.480 = f32[128,8]{1,0} broadcast(f32[] %constant.475), dimensions={}, sharding={maximal device=0}, metadata={op_type="_RecvTPUEmbeddingActivations" op_name="while/RecvTPUEmbeddingActivations"}
  %select.481 = f32[128,8]{1,0} select(pred[128,8]{1,0} %compare.478, f32[128,8]{1,0} %broadcast.479, f32[128,8]{1,0} %broadcast.480), sharding={maximal device=0}, metadata={op_type="_RecvTPUEmbeddingActivations" op_name="while/RecvTPUEmbeddingActivations"}
  %slice.468 = f32[8,128]{1,0} slice(f32[136,128]{1,0} %concatenate.466), slice={[128:136], [0:128]}, sharding={maximal device=0}, metadata={op_type="_RecvTPUEmbeddingActivations" op_name="while/RecvTPUEmbeddingActivations"}
  %reshape.473 = f32[8,128]{1,0} reshape(f32[8,128]{1,0} %slice.468), sharding={maximal device=0}, metadata={op_type="_RecvTPUEmbeddingActivations" op_name="while/RecvTPUEmbeddingActivations"}
  %dot.482 = f32[128,128]{1,0} dot(f32[128,8]{1,0} %select.481, f32[8,128]{1,0} %reshape.473), lhs_contracting_dims={1}, rhs_contracting_dims={0}, sharding={maximal device=0}, metadata={op_type="_RecvTPUEmbeddingActivations" op_name="while/RecvTPUEmbeddingActivations"}
  %get-tuple-element.471 = f32[128]{0} get-tuple-element((u32[128]{0}, f32[128]{0}, u32[128]{0}) %get-tuple-element.469), index=1, sharding={maximal device=0}, metadata={op_type="_RecvTPUEmbeddingActivations" op_name="while/RecvTPUEmbeddingActivations"}
  %broadcast.483 = f32[128,128]{1,0} broadcast(f32[128]{0} %get-tuple-element.471), dimensions={0}, sharding={maximal device=0}, metadata={op_type="_RecvTPUEmbeddingActivations" op_name="while/RecvTPUEmbeddingActivations"}
  %multiply.484 = f32[128,128]{1,0} multiply(f32[128,128]{1,0} %dot.482, f32[128,128]{1,0} %broadcast.483), sharding={maximal device=0}, metadata={op_type="_RecvTPUEmbeddingActivations" op_name="while/RecvTPUEmbeddingActivations"}
  %dot.494 = f32[128,128]{1,0} dot(f32[128,128]{0,1} %transpose.493, f32[128,128]{1,0} %multiply.484), lhs_contracting_dims={1}, rhs_contracting_dims={0}, sharding={maximal device=0}, metadata={op_type="_RecvTPUEmbeddingActivations" op_name="while/RecvTPUEmbeddingActivations"}
  %reshape.495 = f32[128,128]{1,0} reshape(f32[128,128]{1,0} %dot.494), sharding={maximal device=0}, metadata={op_type="_RecvTPUEmbeddingActivations" op_name="while/RecvTPUEmbeddingActivations"}
  %add.496 = f32[128,128]{1,0} add(f32[128,128]{1,0} %slice.467, f32[128,128]{1,0} %reshape.495), sharding={maximal device=0}, metadata={op_type="_RecvTPUEmbeddingActivations" op_name="while/RecvTPUEmbeddingActivations"}
  %concatenate.497 = f32[128,128]{1,0} concatenate(f32[128,128]{1,0} %add.496), dimensions={0}, sharding={maximal device=0}, metadata={op_type="_RecvTPUEmbeddingActivations" op_name="while/RecvTPUEmbeddingActivations"}
  %reshape.498 = f32[128,128]{1,0} reshape(f32[128,128]{1,0} %concatenate.497), sharding={maximal device=0}, metadata={op_type="_RecvTPUEmbeddingActivations" op_name="while/RecvTPUEmbeddingActivations"}
  %slice.499 = f32[128,128]{1,0} slice(f32[128,128]{1,0} %reshape.498), slice={[0:128], [0:128]}, sharding={maximal device=0}, metadata={op_type="_RecvTPUEmbeddingActivations" op_name="while/RecvTPUEmbeddingActivations"}
  %reshape.803 = f32[128,1,128]{2,1,0} reshape(f32[128,128]{1,0} %slice.499), sharding={maximal device=0}, metadata={op_type="Reshape" op_name="while/Reshape_4"}
  %slice.888 = f32[128,1,128]{2,1,0} slice(f32[128,1,128]{2,1,0} %reshape.803), slice={[0:128], [0:1], [0:128]}, sharding={maximal device=0}, metadata={op_type="StridedSlice" op_name="while/strided_slice_4"}
  %reshape.889 = f32[128,128]{1,0} reshape(f32[128,1,128]{2,1,0} %slice.888), sharding={maximal device=0}, metadata={op_type="StridedSlice" op_name="while/strided_slice_4"}
  %slice.500 = f32[136,128]{1,0} slice(f32[136,768]{1,0} %reshape.317), slice={[0:136], [256:384]}, sharding={maximal device=0}, metadata={op_type="_RecvTPUEmbeddingActivations" op_name="while/RecvTPUEmbeddingActivations"}
  %concatenate.501 = f32[136,128]{1,0} concatenate(f32[136,128]{1,0} %slice.500), dimensions={0}, sharding={maximal device=0}, metadata={op_type="_RecvTPUEmbeddingActivations" op_name="while/RecvTPUEmbeddingActivations"}
  %concatenate.502 = f32[136,128]{1,0} concatenate(f32[136,128]{1,0} %concatenate.501), dimensions={1}, sharding={maximal device=0}, metadata={op_type="_RecvTPUEmbeddingActivations" op_name="while/RecvTPUEmbeddingActivations"}
  %slice.503 = f32[128,128]{1,0} slice(f32[136,128]{1,0} %concatenate.502), slice={[0:128], [0:128]}, sharding={maximal device=0}, metadata={op_type="_RecvTPUEmbeddingActivations" op_name="while/RecvTPUEmbeddingActivations"}
  %get-tuple-element.276 = u32[128]{0} get-tuple-element((u32[128]{0}, f32[128]{0}, u32[128]{0}, u32[128]{0}, f32[128]{0}, /*index=5*/u32[128]{0}, u32[128]{0}, f32[128]{0}, u32[128]{0}, u32[128]{0}, /*index=10*/f32[128]{0}, u32[128]{0}, u32[128]{0}, f32[128]{0}, u32[128]{0}, /*index=15*/u32[128]{0}, f32[128]{0}, u32[128]{0}, u32[128]{0}, f32[128]{0}, /*index=20*/u32[128]{0}, u32[128]{0}, f32[128]{0}, u32[128]{0}, u32[128]{0}, /*index=25*/f32[128]{0}, u32[128]{0}, u32[128]{0}, f32[128]{0}, u32[128]{0}, /*index=30*/u32[128]{0}, f32[128]{0}, u32[128]{0}, u32[128]{0}, f32[128]{0}, /*index=35*/u32[128]{0}, u32[128]{0}, f32[128]{0}, u32[128]{0}) %get-tuple-element.250), index=15, sharding={maximal device=0}, metadata={op_type="_RecvTPUEmbeddingActivations" op_name="while/RecvTPUEmbeddingActivations"}
  %get-tuple-element.277 = f32[128]{0} get-tuple-element((u32[128]{0}, f32[128]{0}, u32[128]{0}, u32[128]{0}, f32[128]{0}, /*index=5*/u32[128]{0}, u32[128]{0}, f32[128]{0}, u32[128]{0}, u32[128]{0}, /*index=10*/f32[128]{0}, u32[128]{0}, u32[128]{0}, f32[128]{0}, u32[128]{0}, /*index=15*/u32[128]{0}, f32[128]{0}, u32[128]{0}, u32[128]{0}, f32[128]{0}, /*index=20*/u32[128]{0}, u32[128]{0}, f32[128]{0}, u32[128]{0}, u32[128]{0}, /*index=25*/f32[128]{0}, u32[128]{0}, u32[128]{0}, f32[128]{0}, u32[128]{0}, /*index=30*/u32[128]{0}, f32[128]{0}, u32[128]{0}, u32[128]{0}, f32[128]{0}, /*index=35*/u32[128]{0}, u32[128]{0}, f32[128]{0}, u32[128]{0}) %get-tuple-element.250), index=16, sharding={maximal device=0}, metadata={op_type="_RecvTPUEmbeddingActivations" op_name="while/RecvTPUEmbeddingActivations"}
  %get-tuple-element.278 = u32[128]{0} get-tuple-element((u32[128]{0}, f32[128]{0}, u32[128]{0}, u32[128]{0}, f32[128]{0}, /*index=5*/u32[128]{0}, u32[128]{0}, f32[128]{0}, u32[128]{0}, u32[128]{0}, /*index=10*/f32[128]{0}, u32[128]{0}, u32[128]{0}, f32[128]{0}, u32[128]{0}, /*index=15*/u32[128]{0}, f32[128]{0}, u32[128]{0}, u32[128]{0}, f32[128]{0}, /*index=20*/u32[128]{0}, u32[128]{0}, f32[128]{0}, u32[128]{0}, u32[128]{0}, /*index=25*/f32[128]{0}, u32[128]{0}, u32[128]{0}, f32[128]{0}, u32[128]{0}, /*index=30*/u32[128]{0}, f32[128]{0}, u32[128]{0}, u32[128]{0}, f32[128]{0}, /*index=35*/u32[128]{0}, u32[128]{0}, f32[128]{0}, u32[128]{0}) %get-tuple-element.250), index=17, sharding={maximal device=0}, metadata={op_type="_RecvTPUEmbeddingActivations" op_name="while/RecvTPUEmbeddingActivations"}
  %tuple.279 = (u32[128]{0}, f32[128]{0}, u32[128]{0}) tuple(u32[128]{0} %get-tuple-element.276, f32[128]{0} %get-tuple-element.277, u32[128]{0} %get-tuple-element.278), sharding={maximal device=0}, metadata={op_type="_RecvTPUEmbeddingActivations" op_name="while/RecvTPUEmbeddingActivations"}
  %tuple.280 = ((u32[128]{0}, f32[128]{0}, u32[128]{0})) tuple((u32[128]{0}, f32[128]{0}, u32[128]{0}) %tuple.279), sharding={maximal device=0}, metadata={op_type="_RecvTPUEmbeddingActivations" op_name="while/RecvTPUEmbeddingActivations"}
  %get-tuple-element.505 = (u32[128]{0}, f32[128]{0}, u32[128]{0}) get-tuple-element(((u32[128]{0}, f32[128]{0}, u32[128]{0})) %tuple.280), index=0, sharding={maximal device=0}, metadata={op_type="_RecvTPUEmbeddingActivations" op_name="while/RecvTPUEmbeddingActivations"}
  %get-tuple-element.508 = u32[128]{0} get-tuple-element((u32[128]{0}, f32[128]{0}, u32[128]{0}) %get-tuple-element.505), index=2, sharding={maximal device=0}, metadata={op_type="_RecvTPUEmbeddingActivations" op_name="while/RecvTPUEmbeddingActivations"}
  %broadcast.524 = u32[128,128]{1,0} broadcast(u32[128]{0} %get-tuple-element.508), dimensions={0}, sharding={maximal device=0}, metadata={op_type="_RecvTPUEmbeddingActivations" op_name="while/RecvTPUEmbeddingActivations"}
  %iota.523 = u32[128,128]{1,0} iota(), iota_dimension=1, sharding={maximal device=0}, metadata={op_type="_RecvTPUEmbeddingActivations" op_name="while/RecvTPUEmbeddingActivations"}
  %compare.525 = pred[128,128]{1,0} compare(u32[128,128]{1,0} %broadcast.524, u32[128,128]{1,0} %iota.523), direction=EQ, sharding={maximal device=0}, metadata={op_type="_RecvTPUEmbeddingActivations" op_name="while/RecvTPUEmbeddingActivations"}
  %constant.521 = f32[] constant(1), sharding={maximal device=0}, metadata={op_type="_RecvTPUEmbeddingActivations" op_name="while/RecvTPUEmbeddingActivations"}
  %broadcast.526 = f32[128,128]{1,0} broadcast(f32[] %constant.521), dimensions={}, sharding={maximal device=0}, metadata={op_type="_RecvTPUEmbeddingActivations" op_name="while/RecvTPUEmbeddingActivations"}
  %constant.522 = f32[] constant(0), sharding={maximal device=0}, metadata={op_type="_RecvTPUEmbeddingActivations" op_name="while/RecvTPUEmbeddingActivations"}
  %broadcast.527 = f32[128,128]{1,0} broadcast(f32[] %constant.522), dimensions={}, sharding={maximal device=0}, metadata={op_type="_RecvTPUEmbeddingActivations" op_name="while/RecvTPUEmbeddingActivations"}
  %select.528 = f32[128,128]{1,0} select(pred[128,128]{1,0} %compare.525, f32[128,128]{1,0} %broadcast.526, f32[128,128]{1,0} %broadcast.527), sharding={maximal device=0}, metadata={op_type="_RecvTPUEmbeddingActivations" op_name="while/RecvTPUEmbeddingActivations"}
  %transpose.529 = f32[128,128]{0,1} transpose(f32[128,128]{1,0} %select.528), dimensions={1,0}, sharding={maximal device=0}, metadata={op_type="_RecvTPUEmbeddingActivations" op_name="while/RecvTPUEmbeddingActivations"}
  %get-tuple-element.506 = u32[128]{0} get-tuple-element((u32[128]{0}, f32[128]{0}, u32[128]{0}) %get-tuple-element.505), index=0, sharding={maximal device=0}, metadata={op_type="_RecvTPUEmbeddingActivations" op_name="while/RecvTPUEmbeddingActivations"}
  %broadcast.513 = u32[128,8]{1,0} broadcast(u32[128]{0} %get-tuple-element.506), dimensions={0}, sharding={maximal device=0}, metadata={op_type="_RecvTPUEmbeddingActivations" op_name="while/RecvTPUEmbeddingActivations"}
  %iota.512 = u32[128,8]{1,0} iota(), iota_dimension=1, sharding={maximal device=0}, metadata={op_type="_RecvTPUEmbeddingActivations" op_name="while/RecvTPUEmbeddingActivations"}
  %compare.514 = pred[128,8]{1,0} compare(u32[128,8]{1,0} %broadcast.513, u32[128,8]{1,0} %iota.512), direction=EQ, sharding={maximal device=0}, metadata={op_type="_RecvTPUEmbeddingActivations" op_name="while/RecvTPUEmbeddingActivations"}
  %constant.510 = f32[] constant(1), sharding={maximal device=0}, metadata={op_type="_RecvTPUEmbeddingActivations" op_name="while/RecvTPUEmbeddingActivations"}
  %broadcast.515 = f32[128,8]{1,0} broadcast(f32[] %constant.510), dimensions={}, sharding={maximal device=0}, metadata={op_type="_RecvTPUEmbeddingActivations" op_name="while/RecvTPUEmbeddingActivations"}
  %constant.511 = f32[] constant(0), sharding={maximal device=0}, metadata={op_type="_RecvTPUEmbeddingActivations" op_name="while/RecvTPUEmbeddingActivations"}
  %broadcast.516 = f32[128,8]{1,0} broadcast(f32[] %constant.511), dimensions={}, sharding={maximal device=0}, metadata={op_type="_RecvTPUEmbeddingActivations" op_name="while/RecvTPUEmbeddingActivations"}
  %select.517 = f32[128,8]{1,0} select(pred[128,8]{1,0} %compare.514, f32[128,8]{1,0} %broadcast.515, f32[128,8]{1,0} %broadcast.516), sharding={maximal device=0}, metadata={op_type="_RecvTPUEmbeddingActivations" op_name="while/RecvTPUEmbeddingActivations"}
  %slice.504 = f32[8,128]{1,0} slice(f32[136,128]{1,0} %concatenate.502), slice={[128:136], [0:128]}, sharding={maximal device=0}, metadata={op_type="_RecvTPUEmbeddingActivations" op_name="while/RecvTPUEmbeddingActivations"}
  %reshape.509 = f32[8,128]{1,0} reshape(f32[8,128]{1,0} %slice.504), sharding={maximal device=0}, metadata={op_type="_RecvTPUEmbeddingActivations" op_name="while/RecvTPUEmbeddingActivations"}
  %dot.518 = f32[128,128]{1,0} dot(f32[128,8]{1,0} %select.517, f32[8,128]{1,0} %reshape.509), lhs_contracting_dims={1}, rhs_contracting_dims={0}, sharding={maximal device=0}, metadata={op_type="_RecvTPUEmbeddingActivations" op_name="while/RecvTPUEmbeddingActivations"}
  %get-tuple-element.507 = f32[128]{0} get-tuple-element((u32[128]{0}, f32[128]{0}, u32[128]{0}) %get-tuple-element.505), index=1, sharding={maximal device=0}, metadata={op_type="_RecvTPUEmbeddingActivations" op_name="while/RecvTPUEmbeddingActivations"}
  %broadcast.519 = f32[128,128]{1,0} broadcast(f32[128]{0} %get-tuple-element.507), dimensions={0}, sharding={maximal device=0}, metadata={op_type="_RecvTPUEmbeddingActivations" op_name="while/RecvTPUEmbeddingActivations"}
  %multiply.520 = f32[128,128]{1,0} multiply(f32[128,128]{1,0} %dot.518, f32[128,128]{1,0} %broadcast.519), sharding={maximal device=0}, metadata={op_type="_RecvTPUEmbeddingActivations" op_name="while/RecvTPUEmbeddingActivations"}
  %dot.530 = f32[128,128]{1,0} dot(f32[128,128]{0,1} %transpose.529, f32[128,128]{1,0} %multiply.520), lhs_contracting_dims={1}, rhs_contracting_dims={0}, sharding={maximal device=0}, metadata={op_type="_RecvTPUEmbeddingActivations" op_name="while/RecvTPUEmbeddingActivations"}
  %reshape.531 = f32[128,128]{1,0} reshape(f32[128,128]{1,0} %dot.530), sharding={maximal device=0}, metadata={op_type="_RecvTPUEmbeddingActivations" op_name="while/RecvTPUEmbeddingActivations"}
  %add.532 = f32[128,128]{1,0} add(f32[128,128]{1,0} %slice.503, f32[128,128]{1,0} %reshape.531), sharding={maximal device=0}, metadata={op_type="_RecvTPUEmbeddingActivations" op_name="while/RecvTPUEmbeddingActivations"}
  %concatenate.533 = f32[128,128]{1,0} concatenate(f32[128,128]{1,0} %add.532), dimensions={0}, sharding={maximal device=0}, metadata={op_type="_RecvTPUEmbeddingActivations" op_name="while/RecvTPUEmbeddingActivations"}
  %reshape.534 = f32[128,128]{1,0} reshape(f32[128,128]{1,0} %concatenate.533), sharding={maximal device=0}, metadata={op_type="_RecvTPUEmbeddingActivations" op_name="while/RecvTPUEmbeddingActivations"}
  %slice.535 = f32[128,128]{1,0} slice(f32[128,128]{1,0} %reshape.534), slice={[0:128], [0:128]}, sharding={maximal device=0}, metadata={op_type="_RecvTPUEmbeddingActivations" op_name="while/RecvTPUEmbeddingActivations"}
  %reshape.805 = f32[128,1,128]{2,1,0} reshape(f32[128,128]{1,0} %slice.535), sharding={maximal device=0}, metadata={op_type="Reshape" op_name="while/Reshape_5"}
  %slice.895 = f32[128,1,128]{2,1,0} slice(f32[128,1,128]{2,1,0} %reshape.805), slice={[0:128], [0:1], [0:128]}, sharding={maximal device=0}, metadata={op_type="StridedSlice" op_name="while/strided_slice_5"}
  %reshape.896 = f32[128,128]{1,0} reshape(f32[128,1,128]{2,1,0} %slice.895), sharding={maximal device=0}, metadata={op_type="StridedSlice" op_name="while/strided_slice_5"}
  %slice.536 = f32[136,128]{1,0} slice(f32[136,768]{1,0} %reshape.317), slice={[0:136], [384:512]}, sharding={maximal device=0}, metadata={op_type="_RecvTPUEmbeddingActivations" op_name="while/RecvTPUEmbeddingActivations"}
  %concatenate.537 = f32[136,128]{1,0} concatenate(f32[136,128]{1,0} %slice.536), dimensions={0}, sharding={maximal device=0}, metadata={op_type="_RecvTPUEmbeddingActivations" op_name="while/RecvTPUEmbeddingActivations"}
  %concatenate.538 = f32[136,128]{1,0} concatenate(f32[136,128]{1,0} %concatenate.537), dimensions={1}, sharding={maximal device=0}, metadata={op_type="_RecvTPUEmbeddingActivations" op_name="while/RecvTPUEmbeddingActivations"}
  %slice.539 = f32[128,128]{1,0} slice(f32[136,128]{1,0} %concatenate.538), slice={[0:128], [0:128]}, sharding={maximal device=0}, metadata={op_type="_RecvTPUEmbeddingActivations" op_name="while/RecvTPUEmbeddingActivations"}
  %get-tuple-element.281 = u32[128]{0} get-tuple-element((u32[128]{0}, f32[128]{0}, u32[128]{0}, u32[128]{0}, f32[128]{0}, /*index=5*/u32[128]{0}, u32[128]{0}, f32[128]{0}, u32[128]{0}, u32[128]{0}, /*index=10*/f32[128]{0}, u32[128]{0}, u32[128]{0}, f32[128]{0}, u32[128]{0}, /*index=15*/u32[128]{0}, f32[128]{0}, u32[128]{0}, u32[128]{0}, f32[128]{0}, /*index=20*/u32[128]{0}, u32[128]{0}, f32[128]{0}, u32[128]{0}, u32[128]{0}, /*index=25*/f32[128]{0}, u32[128]{0}, u32[128]{0}, f32[128]{0}, u32[128]{0}, /*index=30*/u32[128]{0}, f32[128]{0}, u32[128]{0}, u32[128]{0}, f32[128]{0}, /*index=35*/u32[128]{0}, u32[128]{0}, f32[128]{0}, u32[128]{0}) %get-tuple-element.250), index=18, sharding={maximal device=0}, metadata={op_type="_RecvTPUEmbeddingActivations" op_name="while/RecvTPUEmbeddingActivations"}
  %get-tuple-element.282 = f32[128]{0} get-tuple-element((u32[128]{0}, f32[128]{0}, u32[128]{0}, u32[128]{0}, f32[128]{0}, /*index=5*/u32[128]{0}, u32[128]{0}, f32[128]{0}, u32[128]{0}, u32[128]{0}, /*index=10*/f32[128]{0}, u32[128]{0}, u32[128]{0}, f32[128]{0}, u32[128]{0}, /*index=15*/u32[128]{0}, f32[128]{0}, u32[128]{0}, u32[128]{0}, f32[128]{0}, /*index=20*/u32[128]{0}, u32[128]{0}, f32[128]{0}, u32[128]{0}, u32[128]{0}, /*index=25*/f32[128]{0}, u32[128]{0}, u32[128]{0}, f32[128]{0}, u32[128]{0}, /*index=30*/u32[128]{0}, f32[128]{0}, u32[128]{0}, u32[128]{0}, f32[128]{0}, /*index=35*/u32[128]{0}, u32[128]{0}, f32[128]{0}, u32[128]{0}) %get-tuple-element.250), index=19, sharding={maximal device=0}, metadata={op_type="_RecvTPUEmbeddingActivations" op_name="while/RecvTPUEmbeddingActivations"}
  %get-tuple-element.283 = u32[128]{0} get-tuple-element((u32[128]{0}, f32[128]{0}, u32[128]{0}, u32[128]{0}, f32[128]{0}, /*index=5*/u32[128]{0}, u32[128]{0}, f32[128]{0}, u32[128]{0}, u32[128]{0}, /*index=10*/f32[128]{0}, u32[128]{0}, u32[128]{0}, f32[128]{0}, u32[128]{0}, /*index=15*/u32[128]{0}, f32[128]{0}, u32[128]{0}, u32[128]{0}, f32[128]{0}, /*index=20*/u32[128]{0}, u32[128]{0}, f32[128]{0}, u32[128]{0}, u32[128]{0}, /*index=25*/f32[128]{0}, u32[128]{0}, u32[128]{0}, f32[128]{0}, u32[128]{0}, /*index=30*/u32[128]{0}, f32[128]{0}, u32[128]{0}, u32[128]{0}, f32[128]{0}, /*index=35*/u32[128]{0}, u32[128]{0}, f32[128]{0}, u32[128]{0}) %get-tuple-element.250), index=20, sharding={maximal device=0}, metadata={op_type="_RecvTPUEmbeddingActivations" op_name="while/RecvTPUEmbeddingActivations"}
  %tuple.284 = (u32[128]{0}, f32[128]{0}, u32[128]{0}) tuple(u32[128]{0} %get-tuple-element.281, f32[128]{0} %get-tuple-element.282, u32[128]{0} %get-tuple-element.283), sharding={maximal device=0}, metadata={op_type="_RecvTPUEmbeddingActivations" op_name="while/RecvTPUEmbeddingActivations"}
  %tuple.285 = ((u32[128]{0}, f32[128]{0}, u32[128]{0})) tuple((u32[128]{0}, f32[128]{0}, u32[128]{0}) %tuple.284), sharding={maximal device=0}, metadata={op_type="_RecvTPUEmbeddingActivations" op_name="while/RecvTPUEmbeddingActivations"}
  %get-tuple-element.541 = (u32[128]{0}, f32[128]{0}, u32[128]{0}) get-tuple-element(((u32[128]{0}, f32[128]{0}, u32[128]{0})) %tuple.285), index=0, sharding={maximal device=0}, metadata={op_type="_RecvTPUEmbeddingActivations" op_name="while/RecvTPUEmbeddingActivations"}
  %get-tuple-element.544 = u32[128]{0} get-tuple-element((u32[128]{0}, f32[128]{0}, u32[128]{0}) %get-tuple-element.541), index=2, sharding={maximal device=0}, metadata={op_type="_RecvTPUEmbeddingActivations" op_name="while/RecvTPUEmbeddingActivations"}
  %broadcast.560 = u32[128,128]{1,0} broadcast(u32[128]{0} %get-tuple-element.544), dimensions={0}, sharding={maximal device=0}, metadata={op_type="_RecvTPUEmbeddingActivations" op_name="while/RecvTPUEmbeddingActivations"}
  %iota.559 = u32[128,128]{1,0} iota(), iota_dimension=1, sharding={maximal device=0}, metadata={op_type="_RecvTPUEmbeddingActivations" op_name="while/RecvTPUEmbeddingActivations"}
  %compare.561 = pred[128,128]{1,0} compare(u32[128,128]{1,0} %broadcast.560, u32[128,128]{1,0} %iota.559), direction=EQ, sharding={maximal device=0}, metadata={op_type="_RecvTPUEmbeddingActivations" op_name="while/RecvTPUEmbeddingActivations"}
  %constant.557 = f32[] constant(1), sharding={maximal device=0}, metadata={op_type="_RecvTPUEmbeddingActivations" op_name="while/RecvTPUEmbeddingActivations"}
  %broadcast.562 = f32[128,128]{1,0} broadcast(f32[] %constant.557), dimensions={}, sharding={maximal device=0}, metadata={op_type="_RecvTPUEmbeddingActivations" op_name="while/RecvTPUEmbeddingActivations"}
  %constant.558 = f32[] constant(0), sharding={maximal device=0}, metadata={op_type="_RecvTPUEmbeddingActivations" op_name="while/RecvTPUEmbeddingActivations"}
  %broadcast.563 = f32[128,128]{1,0} broadcast(f32[] %constant.558), dimensions={}, sharding={maximal device=0}, metadata={op_type="_RecvTPUEmbeddingActivations" op_name="while/RecvTPUEmbeddingActivations"}
  %select.564 = f32[128,128]{1,0} select(pred[128,128]{1,0} %compare.561, f32[128,128]{1,0} %broadcast.562, f32[128,128]{1,0} %broadcast.563), sharding={maximal device=0}, metadata={op_type="_RecvTPUEmbeddingActivations" op_name="while/RecvTPUEmbeddingActivations"}
  %transpose.565 = f32[128,128]{0,1} transpose(f32[128,128]{1,0} %select.564), dimensions={1,0}, sharding={maximal device=0}, metadata={op_type="_RecvTPUEmbeddingActivations" op_name="while/RecvTPUEmbeddingActivations"}
  %get-tuple-element.542 = u32[128]{0} get-tuple-element((u32[128]{0}, f32[128]{0}, u32[128]{0}) %get-tuple-element.541), index=0, sharding={maximal device=0}, metadata={op_type="_RecvTPUEmbeddingActivations" op_name="while/RecvTPUEmbeddingActivations"}
  %broadcast.549 = u32[128,8]{1,0} broadcast(u32[128]{0} %get-tuple-element.542), dimensions={0}, sharding={maximal device=0}, metadata={op_type="_RecvTPUEmbeddingActivations" op_name="while/RecvTPUEmbeddingActivations"}
  %iota.548 = u32[128,8]{1,0} iota(), iota_dimension=1, sharding={maximal device=0}, metadata={op_type="_RecvTPUEmbeddingActivations" op_name="while/RecvTPUEmbeddingActivations"}
  %compare.550 = pred[128,8]{1,0} compare(u32[128,8]{1,0} %broadcast.549, u32[128,8]{1,0} %iota.548), direction=EQ, sharding={maximal device=0}, metadata={op_type="_RecvTPUEmbeddingActivations" op_name="while/RecvTPUEmbeddingActivations"}
  %constant.546 = f32[] constant(1), sharding={maximal device=0}, metadata={op_type="_RecvTPUEmbeddingActivations" op_name="while/RecvTPUEmbeddingActivations"}
  %broadcast.551 = f32[128,8]{1,0} broadcast(f32[] %constant.546), dimensions={}, sharding={maximal device=0}, metadata={op_type="_RecvTPUEmbeddingActivations" op_name="while/RecvTPUEmbeddingActivations"}
  %constant.547 = f32[] constant(0), sharding={maximal device=0}, metadata={op_type="_RecvTPUEmbeddingActivations" op_name="while/RecvTPUEmbeddingActivations"}
  %broadcast.552 = f32[128,8]{1,0} broadcast(f32[] %constant.547), dimensions={}, sharding={maximal device=0}, metadata={op_type="_RecvTPUEmbeddingActivations" op_name="while/RecvTPUEmbeddingActivations"}
  %select.553 = f32[128,8]{1,0} select(pred[128,8]{1,0} %compare.550, f32[128,8]{1,0} %broadcast.551, f32[128,8]{1,0} %broadcast.552), sharding={maximal device=0}, metadata={op_type="_RecvTPUEmbeddingActivations" op_name="while/RecvTPUEmbeddingActivations"}
  %slice.540 = f32[8,128]{1,0} slice(f32[136,128]{1,0} %concatenate.538), slice={[128:136], [0:128]}, sharding={maximal device=0}, metadata={op_type="_RecvTPUEmbeddingActivations" op_name="while/RecvTPUEmbeddingActivations"}
  %reshape.545 = f32[8,128]{1,0} reshape(f32[8,128]{1,0} %slice.540), sharding={maximal device=0}, metadata={op_type="_RecvTPUEmbeddingActivations" op_name="while/RecvTPUEmbeddingActivations"}
  %dot.554 = f32[128,128]{1,0} dot(f32[128,8]{1,0} %select.553, f32[8,128]{1,0} %reshape.545), lhs_contracting_dims={1}, rhs_contracting_dims={0}, sharding={maximal device=0}, metadata={op_type="_RecvTPUEmbeddingActivations" op_name="while/RecvTPUEmbeddingActivations"}
  %get-tuple-element.543 = f32[128]{0} get-tuple-element((u32[128]{0}, f32[128]{0}, u32[128]{0}) %get-tuple-element.541), index=1, sharding={maximal device=0}, metadata={op_type="_RecvTPUEmbeddingActivations" op_name="while/RecvTPUEmbeddingActivations"}
  %broadcast.555 = f32[128,128]{1,0} broadcast(f32[128]{0} %get-tuple-element.543), dimensions={0}, sharding={maximal device=0}, metadata={op_type="_RecvTPUEmbeddingActivations" op_name="while/RecvTPUEmbeddingActivations"}
  %multiply.556 = f32[128,128]{1,0} multiply(f32[128,128]{1,0} %dot.554, f32[128,128]{1,0} %broadcast.555), sharding={maximal device=0}, metadata={op_type="_RecvTPUEmbeddingActivations" op_name="while/RecvTPUEmbeddingActivations"}
  %dot.566 = f32[128,128]{1,0} dot(f32[128,128]{0,1} %transpose.565, f32[128,128]{1,0} %multiply.556), lhs_contracting_dims={1}, rhs_contracting_dims={0}, sharding={maximal device=0}, metadata={op_type="_RecvTPUEmbeddingActivations" op_name="while/RecvTPUEmbeddingActivations"}
  %reshape.567 = f32[128,128]{1,0} reshape(f32[128,128]{1,0} %dot.566), sharding={maximal device=0}, metadata={op_type="_RecvTPUEmbeddingActivations" op_name="while/RecvTPUEmbeddingActivations"}
  %add.568 = f32[128,128]{1,0} add(f32[128,128]{1,0} %slice.539, f32[128,128]{1,0} %reshape.567), sharding={maximal device=0}, metadata={op_type="_RecvTPUEmbeddingActivations" op_name="while/RecvTPUEmbeddingActivations"}
  %concatenate.569 = f32[128,128]{1,0} concatenate(f32[128,128]{1,0} %add.568), dimensions={0}, sharding={maximal device=0}, metadata={op_type="_RecvTPUEmbeddingActivations" op_name="while/RecvTPUEmbeddingActivations"}
  %reshape.570 = f32[128,128]{1,0} reshape(f32[128,128]{1,0} %concatenate.569), sharding={maximal device=0}, metadata={op_type="_RecvTPUEmbeddingActivations" op_name="while/RecvTPUEmbeddingActivations"}
  %slice.571 = f32[128,128]{1,0} slice(f32[128,128]{1,0} %reshape.570), slice={[0:128], [0:128]}, sharding={maximal device=0}, metadata={op_type="_RecvTPUEmbeddingActivations" op_name="while/RecvTPUEmbeddingActivations"}
  %reshape.807 = f32[128,1,128]{2,1,0} reshape(f32[128,128]{1,0} %slice.571), sharding={maximal device=0}, metadata={op_type="Reshape" op_name="while/Reshape_6"}
  %slice.902 = f32[128,1,128]{2,1,0} slice(f32[128,1,128]{2,1,0} %reshape.807), slice={[0:128], [0:1], [0:128]}, sharding={maximal device=0}, metadata={op_type="StridedSlice" op_name="while/strided_slice_6"}
  %reshape.903 = f32[128,128]{1,0} reshape(f32[128,1,128]{2,1,0} %slice.902), sharding={maximal device=0}, metadata={op_type="StridedSlice" op_name="while/strided_slice_6"}
  %slice.572 = f32[136,128]{1,0} slice(f32[136,896]{1,0} %reshape.319), slice={[0:136], [384:512]}, sharding={maximal device=0}, metadata={op_type="_RecvTPUEmbeddingActivations" op_name="while/RecvTPUEmbeddingActivations"}
  %concatenate.573 = f32[136,128]{1,0} concatenate(f32[136,128]{1,0} %slice.572), dimensions={0}, sharding={maximal device=0}, metadata={op_type="_RecvTPUEmbeddingActivations" op_name="while/RecvTPUEmbeddingActivations"}
  %concatenate.574 = f32[136,128]{1,0} concatenate(f32[136,128]{1,0} %concatenate.573), dimensions={1}, sharding={maximal device=0}, metadata={op_type="_RecvTPUEmbeddingActivations" op_name="while/RecvTPUEmbeddingActivations"}
  %slice.575 = f32[128,128]{1,0} slice(f32[136,128]{1,0} %concatenate.574), slice={[0:128], [0:128]}, sharding={maximal device=0}, metadata={op_type="_RecvTPUEmbeddingActivations" op_name="while/RecvTPUEmbeddingActivations"}
  %get-tuple-element.286 = u32[128]{0} get-tuple-element((u32[128]{0}, f32[128]{0}, u32[128]{0}, u32[128]{0}, f32[128]{0}, /*index=5*/u32[128]{0}, u32[128]{0}, f32[128]{0}, u32[128]{0}, u32[128]{0}, /*index=10*/f32[128]{0}, u32[128]{0}, u32[128]{0}, f32[128]{0}, u32[128]{0}, /*index=15*/u32[128]{0}, f32[128]{0}, u32[128]{0}, u32[128]{0}, f32[128]{0}, /*index=20*/u32[128]{0}, u32[128]{0}, f32[128]{0}, u32[128]{0}, u32[128]{0}, /*index=25*/f32[128]{0}, u32[128]{0}, u32[128]{0}, f32[128]{0}, u32[128]{0}, /*index=30*/u32[128]{0}, f32[128]{0}, u32[128]{0}, u32[128]{0}, f32[128]{0}, /*index=35*/u32[128]{0}, u32[128]{0}, f32[128]{0}, u32[128]{0}) %get-tuple-element.250), index=21, sharding={maximal device=0}, metadata={op_type="_RecvTPUEmbeddingActivations" op_name="while/RecvTPUEmbeddingActivations"}
  %get-tuple-element.287 = f32[128]{0} get-tuple-element((u32[128]{0}, f32[128]{0}, u32[128]{0}, u32[128]{0}, f32[128]{0}, /*index=5*/u32[128]{0}, u32[128]{0}, f32[128]{0}, u32[128]{0}, u32[128]{0}, /*index=10*/f32[128]{0}, u32[128]{0}, u32[128]{0}, f32[128]{0}, u32[128]{0}, /*index=15*/u32[128]{0}, f32[128]{0}, u32[128]{0}, u32[128]{0}, f32[128]{0}, /*index=20*/u32[128]{0}, u32[128]{0}, f32[128]{0}, u32[128]{0}, u32[128]{0}, /*index=25*/f32[128]{0}, u32[128]{0}, u32[128]{0}, f32[128]{0}, u32[128]{0}, /*index=30*/u32[128]{0}, f32[128]{0}, u32[128]{0}, u32[128]{0}, f32[128]{0}, /*index=35*/u32[128]{0}, u32[128]{0}, f32[128]{0}, u32[128]{0}) %get-tuple-element.250), index=22, sharding={maximal device=0}, metadata={op_type="_RecvTPUEmbeddingActivations" op_name="while/RecvTPUEmbeddingActivations"}
  %get-tuple-element.288 = u32[128]{0} get-tuple-element((u32[128]{0}, f32[128]{0}, u32[128]{0}, u32[128]{0}, f32[128]{0}, /*index=5*/u32[128]{0}, u32[128]{0}, f32[128]{0}, u32[128]{0}, u32[128]{0}, /*index=10*/f32[128]{0}, u32[128]{0}, u32[128]{0}, f32[128]{0}, u32[128]{0}, /*index=15*/u32[128]{0}, f32[128]{0}, u32[128]{0}, u32[128]{0}, f32[128]{0}, /*index=20*/u32[128]{0}, u32[128]{0}, f32[128]{0}, u32[128]{0}, u32[128]{0}, /*index=25*/f32[128]{0}, u32[128]{0}, u32[128]{0}, f32[128]{0}, u32[128]{0}, /*index=30*/u32[128]{0}, f32[128]{0}, u32[128]{0}, u32[128]{0}, f32[128]{0}, /*index=35*/u32[128]{0}, u32[128]{0}, f32[128]{0}, u32[128]{0}) %get-tuple-element.250), index=23, sharding={maximal device=0}, metadata={op_type="_RecvTPUEmbeddingActivations" op_name="while/RecvTPUEmbeddingActivations"}
  %tuple.289 = (u32[128]{0}, f32[128]{0}, u32[128]{0}) tuple(u32[128]{0} %get-tuple-element.286, f32[128]{0} %get-tuple-element.287, u32[128]{0} %get-tuple-element.288), sharding={maximal device=0}, metadata={op_type="_RecvTPUEmbeddingActivations" op_name="while/RecvTPUEmbeddingActivations"}
  %tuple.290 = ((u32[128]{0}, f32[128]{0}, u32[128]{0})) tuple((u32[128]{0}, f32[128]{0}, u32[128]{0}) %tuple.289), sharding={maximal device=0}, metadata={op_type="_RecvTPUEmbeddingActivations" op_name="while/RecvTPUEmbeddingActivations"}
  %get-tuple-element.577 = (u32[128]{0}, f32[128]{0}, u32[128]{0}) get-tuple-element(((u32[128]{0}, f32[128]{0}, u32[128]{0})) %tuple.290), index=0, sharding={maximal device=0}, metadata={op_type="_RecvTPUEmbeddingActivations" op_name="while/RecvTPUEmbeddingActivations"}
  %get-tuple-element.580 = u32[128]{0} get-tuple-element((u32[128]{0}, f32[128]{0}, u32[128]{0}) %get-tuple-element.577), index=2, sharding={maximal device=0}, metadata={op_type="_RecvTPUEmbeddingActivations" op_name="while/RecvTPUEmbeddingActivations"}
  %broadcast.596 = u32[128,128]{1,0} broadcast(u32[128]{0} %get-tuple-element.580), dimensions={0}, sharding={maximal device=0}, metadata={op_type="_RecvTPUEmbeddingActivations" op_name="while/RecvTPUEmbeddingActivations"}
  %iota.595 = u32[128,128]{1,0} iota(), iota_dimension=1, sharding={maximal device=0}, metadata={op_type="_RecvTPUEmbeddingActivations" op_name="while/RecvTPUEmbeddingActivations"}
  %compare.597 = pred[128,128]{1,0} compare(u32[128,128]{1,0} %broadcast.596, u32[128,128]{1,0} %iota.595), direction=EQ, sharding={maximal device=0}, metadata={op_type="_RecvTPUEmbeddingActivations" op_name="while/RecvTPUEmbeddingActivations"}
  %constant.593 = f32[] constant(1), sharding={maximal device=0}, metadata={op_type="_RecvTPUEmbeddingActivations" op_name="while/RecvTPUEmbeddingActivations"}
  %broadcast.598 = f32[128,128]{1,0} broadcast(f32[] %constant.593), dimensions={}, sharding={maximal device=0}, metadata={op_type="_RecvTPUEmbeddingActivations" op_name="while/RecvTPUEmbeddingActivations"}
  %constant.594 = f32[] constant(0), sharding={maximal device=0}, metadata={op_type="_RecvTPUEmbeddingActivations" op_name="while/RecvTPUEmbeddingActivations"}
  %broadcast.599 = f32[128,128]{1,0} broadcast(f32[] %constant.594), dimensions={}, sharding={maximal device=0}, metadata={op_type="_RecvTPUEmbeddingActivations" op_name="while/RecvTPUEmbeddingActivations"}
  %select.600 = f32[128,128]{1,0} select(pred[128,128]{1,0} %compare.597, f32[128,128]{1,0} %broadcast.598, f32[128,128]{1,0} %broadcast.599), sharding={maximal device=0}, metadata={op_type="_RecvTPUEmbeddingActivations" op_name="while/RecvTPUEmbeddingActivations"}
  %transpose.601 = f32[128,128]{0,1} transpose(f32[128,128]{1,0} %select.600), dimensions={1,0}, sharding={maximal device=0}, metadata={op_type="_RecvTPUEmbeddingActivations" op_name="while/RecvTPUEmbeddingActivations"}
  %get-tuple-element.578 = u32[128]{0} get-tuple-element((u32[128]{0}, f32[128]{0}, u32[128]{0}) %get-tuple-element.577), index=0, sharding={maximal device=0}, metadata={op_type="_RecvTPUEmbeddingActivations" op_name="while/RecvTPUEmbeddingActivations"}
  %broadcast.585 = u32[128,8]{1,0} broadcast(u32[128]{0} %get-tuple-element.578), dimensions={0}, sharding={maximal device=0}, metadata={op_type="_RecvTPUEmbeddingActivations" op_name="while/RecvTPUEmbeddingActivations"}
  %iota.584 = u32[128,8]{1,0} iota(), iota_dimension=1, sharding={maximal device=0}, metadata={op_type="_RecvTPUEmbeddingActivations" op_name="while/RecvTPUEmbeddingActivations"}
  %compare.586 = pred[128,8]{1,0} compare(u32[128,8]{1,0} %broadcast.585, u32[128,8]{1,0} %iota.584), direction=EQ, sharding={maximal device=0}, metadata={op_type="_RecvTPUEmbeddingActivations" op_name="while/RecvTPUEmbeddingActivations"}
  %constant.582 = f32[] constant(1), sharding={maximal device=0}, metadata={op_type="_RecvTPUEmbeddingActivations" op_name="while/RecvTPUEmbeddingActivations"}
  %broadcast.587 = f32[128,8]{1,0} broadcast(f32[] %constant.582), dimensions={}, sharding={maximal device=0}, metadata={op_type="_RecvTPUEmbeddingActivations" op_name="while/RecvTPUEmbeddingActivations"}
  %constant.583 = f32[] constant(0), sharding={maximal device=0}, metadata={op_type="_RecvTPUEmbeddingActivations" op_name="while/RecvTPUEmbeddingActivations"}
  %broadcast.588 = f32[128,8]{1,0} broadcast(f32[] %constant.583), dimensions={}, sharding={maximal device=0}, metadata={op_type="_RecvTPUEmbeddingActivations" op_name="while/RecvTPUEmbeddingActivations"}
  %select.589 = f32[128,8]{1,0} select(pred[128,8]{1,0} %compare.586, f32[128,8]{1,0} %broadcast.587, f32[128,8]{1,0} %broadcast.588), sharding={maximal device=0}, metadata={op_type="_RecvTPUEmbeddingActivations" op_name="while/RecvTPUEmbeddingActivations"}
  %slice.576 = f32[8,128]{1,0} slice(f32[136,128]{1,0} %concatenate.574), slice={[128:136], [0:128]}, sharding={maximal device=0}, metadata={op_type="_RecvTPUEmbeddingActivations" op_name="while/RecvTPUEmbeddingActivations"}
  %reshape.581 = f32[8,128]{1,0} reshape(f32[8,128]{1,0} %slice.576), sharding={maximal device=0}, metadata={op_type="_RecvTPUEmbeddingActivations" op_name="while/RecvTPUEmbeddingActivations"}
  %dot.590 = f32[128,128]{1,0} dot(f32[128,8]{1,0} %select.589, f32[8,128]{1,0} %reshape.581), lhs_contracting_dims={1}, rhs_contracting_dims={0}, sharding={maximal device=0}, metadata={op_type="_RecvTPUEmbeddingActivations" op_name="while/RecvTPUEmbeddingActivations"}
  %get-tuple-element.579 = f32[128]{0} get-tuple-element((u32[128]{0}, f32[128]{0}, u32[128]{0}) %get-tuple-element.577), index=1, sharding={maximal device=0}, metadata={op_type="_RecvTPUEmbeddingActivations" op_name="while/RecvTPUEmbeddingActivations"}
  %broadcast.591 = f32[128,128]{1,0} broadcast(f32[128]{0} %get-tuple-element.579), dimensions={0}, sharding={maximal device=0}, metadata={op_type="_RecvTPUEmbeddingActivations" op_name="while/RecvTPUEmbeddingActivations"}
  %multiply.592 = f32[128,128]{1,0} multiply(f32[128,128]{1,0} %dot.590, f32[128,128]{1,0} %broadcast.591), sharding={maximal device=0}, metadata={op_type="_RecvTPUEmbeddingActivations" op_name="while/RecvTPUEmbeddingActivations"}
  %dot.602 = f32[128,128]{1,0} dot(f32[128,128]{0,1} %transpose.601, f32[128,128]{1,0} %multiply.592), lhs_contracting_dims={1}, rhs_contracting_dims={0}, sharding={maximal device=0}, metadata={op_type="_RecvTPUEmbeddingActivations" op_name="while/RecvTPUEmbeddingActivations"}
  %reshape.603 = f32[128,128]{1,0} reshape(f32[128,128]{1,0} %dot.602), sharding={maximal device=0}, metadata={op_type="_RecvTPUEmbeddingActivations" op_name="while/RecvTPUEmbeddingActivations"}
  %add.604 = f32[128,128]{1,0} add(f32[128,128]{1,0} %slice.575, f32[128,128]{1,0} %reshape.603), sharding={maximal device=0}, metadata={op_type="_RecvTPUEmbeddingActivations" op_name="while/RecvTPUEmbeddingActivations"}
  %concatenate.605 = f32[128,128]{1,0} concatenate(f32[128,128]{1,0} %add.604), dimensions={0}, sharding={maximal device=0}, metadata={op_type="_RecvTPUEmbeddingActivations" op_name="while/RecvTPUEmbeddingActivations"}
  %reshape.606 = f32[128,128]{1,0} reshape(f32[128,128]{1,0} %concatenate.605), sharding={maximal device=0}, metadata={op_type="_RecvTPUEmbeddingActivations" op_name="while/RecvTPUEmbeddingActivations"}
  %slice.607 = f32[128,128]{1,0} slice(f32[128,128]{1,0} %reshape.606), slice={[0:128], [0:128]}, sharding={maximal device=0}, metadata={op_type="_RecvTPUEmbeddingActivations" op_name="while/RecvTPUEmbeddingActivations"}
  %reshape.809 = f32[128,1,128]{2,1,0} reshape(f32[128,128]{1,0} %slice.607), sharding={maximal device=0}, metadata={op_type="Reshape" op_name="while/Reshape_7"}
  %slice.909 = f32[128,1,128]{2,1,0} slice(f32[128,1,128]{2,1,0} %reshape.809), slice={[0:128], [0:1], [0:128]}, sharding={maximal device=0}, metadata={op_type="StridedSlice" op_name="while/strided_slice_7"}
  %reshape.910 = f32[128,128]{1,0} reshape(f32[128,1,128]{2,1,0} %slice.909), sharding={maximal device=0}, metadata={op_type="StridedSlice" op_name="while/strided_slice_7"}
  %slice.608 = f32[136,128]{1,0} slice(f32[136,768]{1,0} %reshape.317), slice={[0:136], [512:640]}, sharding={maximal device=0}, metadata={op_type="_RecvTPUEmbeddingActivations" op_name="while/RecvTPUEmbeddingActivations"}
  %concatenate.609 = f32[136,128]{1,0} concatenate(f32[136,128]{1,0} %slice.608), dimensions={0}, sharding={maximal device=0}, metadata={op_type="_RecvTPUEmbeddingActivations" op_name="while/RecvTPUEmbeddingActivations"}
  %concatenate.610 = f32[136,128]{1,0} concatenate(f32[136,128]{1,0} %concatenate.609), dimensions={1}, sharding={maximal device=0}, metadata={op_type="_RecvTPUEmbeddingActivations" op_name="while/RecvTPUEmbeddingActivations"}
  %slice.611 = f32[128,128]{1,0} slice(f32[136,128]{1,0} %concatenate.610), slice={[0:128], [0:128]}, sharding={maximal device=0}, metadata={op_type="_RecvTPUEmbeddingActivations" op_name="while/RecvTPUEmbeddingActivations"}
  %get-tuple-element.291 = u32[128]{0} get-tuple-element((u32[128]{0}, f32[128]{0}, u32[128]{0}, u32[128]{0}, f32[128]{0}, /*index=5*/u32[128]{0}, u32[128]{0}, f32[128]{0}, u32[128]{0}, u32[128]{0}, /*index=10*/f32[128]{0}, u32[128]{0}, u32[128]{0}, f32[128]{0}, u32[128]{0}, /*index=15*/u32[128]{0}, f32[128]{0}, u32[128]{0}, u32[128]{0}, f32[128]{0}, /*index=20*/u32[128]{0}, u32[128]{0}, f32[128]{0}, u32[128]{0}, u32[128]{0}, /*index=25*/f32[128]{0}, u32[128]{0}, u32[128]{0}, f32[128]{0}, u32[128]{0}, /*index=30*/u32[128]{0}, f32[128]{0}, u32[128]{0}, u32[128]{0}, f32[128]{0}, /*index=35*/u32[128]{0}, u32[128]{0}, f32[128]{0}, u32[128]{0}) %get-tuple-element.250), index=24, sharding={maximal device=0}, metadata={op_type="_RecvTPUEmbeddingActivations" op_name="while/RecvTPUEmbeddingActivations"}
  %get-tuple-element.292 = f32[128]{0} get-tuple-element((u32[128]{0}, f32[128]{0}, u32[128]{0}, u32[128]{0}, f32[128]{0}, /*index=5*/u32[128]{0}, u32[128]{0}, f32[128]{0}, u32[128]{0}, u32[128]{0}, /*index=10*/f32[128]{0}, u32[128]{0}, u32[128]{0}, f32[128]{0}, u32[128]{0}, /*index=15*/u32[128]{0}, f32[128]{0}, u32[128]{0}, u32[128]{0}, f32[128]{0}, /*index=20*/u32[128]{0}, u32[128]{0}, f32[128]{0}, u32[128]{0}, u32[128]{0}, /*index=25*/f32[128]{0}, u32[128]{0}, u32[128]{0}, f32[128]{0}, u32[128]{0}, /*index=30*/u32[128]{0}, f32[128]{0}, u32[128]{0}, u32[128]{0}, f32[128]{0}, /*index=35*/u32[128]{0}, u32[128]{0}, f32[128]{0}, u32[128]{0}) %get-tuple-element.250), index=25, sharding={maximal device=0}, metadata={op_type="_RecvTPUEmbeddingActivations" op_name="while/RecvTPUEmbeddingActivations"}
  %get-tuple-element.293 = u32[128]{0} get-tuple-element((u32[128]{0}, f32[128]{0}, u32[128]{0}, u32[128]{0}, f32[128]{0}, /*index=5*/u32[128]{0}, u32[128]{0}, f32[128]{0}, u32[128]{0}, u32[128]{0}, /*index=10*/f32[128]{0}, u32[128]{0}, u32[128]{0}, f32[128]{0}, u32[128]{0}, /*index=15*/u32[128]{0}, f32[128]{0}, u32[128]{0}, u32[128]{0}, f32[128]{0}, /*index=20*/u32[128]{0}, u32[128]{0}, f32[128]{0}, u32[128]{0}, u32[128]{0}, /*index=25*/f32[128]{0}, u32[128]{0}, u32[128]{0}, f32[128]{0}, u32[128]{0}, /*index=30*/u32[128]{0}, f32[128]{0}, u32[128]{0}, u32[128]{0}, f32[128]{0}, /*index=35*/u32[128]{0}, u32[128]{0}, f32[128]{0}, u32[128]{0}) %get-tuple-element.250), index=26, sharding={maximal device=0}, metadata={op_type="_RecvTPUEmbeddingActivations" op_name="while/RecvTPUEmbeddingActivations"}
  %tuple.294 = (u32[128]{0}, f32[128]{0}, u32[128]{0}) tuple(u32[128]{0} %get-tuple-element.291, f32[128]{0} %get-tuple-element.292, u32[128]{0} %get-tuple-element.293), sharding={maximal device=0}, metadata={op_type="_RecvTPUEmbeddingActivations" op_name="while/RecvTPUEmbeddingActivations"}
  %tuple.295 = ((u32[128]{0}, f32[128]{0}, u32[128]{0})) tuple((u32[128]{0}, f32[128]{0}, u32[128]{0}) %tuple.294), sharding={maximal device=0}, metadata={op_type="_RecvTPUEmbeddingActivations" op_name="while/RecvTPUEmbeddingActivations"}
  %get-tuple-element.613 = (u32[128]{0}, f32[128]{0}, u32[128]{0}) get-tuple-element(((u32[128]{0}, f32[128]{0}, u32[128]{0})) %tuple.295), index=0, sharding={maximal device=0}, metadata={op_type="_RecvTPUEmbeddingActivations" op_name="while/RecvTPUEmbeddingActivations"}
  %get-tuple-element.616 = u32[128]{0} get-tuple-element((u32[128]{0}, f32[128]{0}, u32[128]{0}) %get-tuple-element.613), index=2, sharding={maximal device=0}, metadata={op_type="_RecvTPUEmbeddingActivations" op_name="while/RecvTPUEmbeddingActivations"}
  %broadcast.632 = u32[128,128]{1,0} broadcast(u32[128]{0} %get-tuple-element.616), dimensions={0}, sharding={maximal device=0}, metadata={op_type="_RecvTPUEmbeddingActivations" op_name="while/RecvTPUEmbeddingActivations"}
  %iota.631 = u32[128,128]{1,0} iota(), iota_dimension=1, sharding={maximal device=0}, metadata={op_type="_RecvTPUEmbeddingActivations" op_name="while/RecvTPUEmbeddingActivations"}
  %compare.633 = pred[128,128]{1,0} compare(u32[128,128]{1,0} %broadcast.632, u32[128,128]{1,0} %iota.631), direction=EQ, sharding={maximal device=0}, metadata={op_type="_RecvTPUEmbeddingActivations" op_name="while/RecvTPUEmbeddingActivations"}
  %constant.629 = f32[] constant(1), sharding={maximal device=0}, metadata={op_type="_RecvTPUEmbeddingActivations" op_name="while/RecvTPUEmbeddingActivations"}
  %broadcast.634 = f32[128,128]{1,0} broadcast(f32[] %constant.629), dimensions={}, sharding={maximal device=0}, metadata={op_type="_RecvTPUEmbeddingActivations" op_name="while/RecvTPUEmbeddingActivations"}
  %constant.630 = f32[] constant(0), sharding={maximal device=0}, metadata={op_type="_RecvTPUEmbeddingActivations" op_name="while/RecvTPUEmbeddingActivations"}
  %broadcast.635 = f32[128,128]{1,0} broadcast(f32[] %constant.630), dimensions={}, sharding={maximal device=0}, metadata={op_type="_RecvTPUEmbeddingActivations" op_name="while/RecvTPUEmbeddingActivations"}
  %select.636 = f32[128,128]{1,0} select(pred[128,128]{1,0} %compare.633, f32[128,128]{1,0} %broadcast.634, f32[128,128]{1,0} %broadcast.635), sharding={maximal device=0}, metadata={op_type="_RecvTPUEmbeddingActivations" op_name="while/RecvTPUEmbeddingActivations"}
  %transpose.637 = f32[128,128]{0,1} transpose(f32[128,128]{1,0} %select.636), dimensions={1,0}, sharding={maximal device=0}, metadata={op_type="_RecvTPUEmbeddingActivations" op_name="while/RecvTPUEmbeddingActivations"}
  %get-tuple-element.614 = u32[128]{0} get-tuple-element((u32[128]{0}, f32[128]{0}, u32[128]{0}) %get-tuple-element.613), index=0, sharding={maximal device=0}, metadata={op_type="_RecvTPUEmbeddingActivations" op_name="while/RecvTPUEmbeddingActivations"}
  %broadcast.621 = u32[128,8]{1,0} broadcast(u32[128]{0} %get-tuple-element.614), dimensions={0}, sharding={maximal device=0}, metadata={op_type="_RecvTPUEmbeddingActivations" op_name="while/RecvTPUEmbeddingActivations"}
  %iota.620 = u32[128,8]{1,0} iota(), iota_dimension=1, sharding={maximal device=0}, metadata={op_type="_RecvTPUEmbeddingActivations" op_name="while/RecvTPUEmbeddingActivations"}
  %compare.622 = pred[128,8]{1,0} compare(u32[128,8]{1,0} %broadcast.621, u32[128,8]{1,0} %iota.620), direction=EQ, sharding={maximal device=0}, metadata={op_type="_RecvTPUEmbeddingActivations" op_name="while/RecvTPUEmbeddingActivations"}
  %constant.618 = f32[] constant(1), sharding={maximal device=0}, metadata={op_type="_RecvTPUEmbeddingActivations" op_name="while/RecvTPUEmbeddingActivations"}
  %broadcast.623 = f32[128,8]{1,0} broadcast(f32[] %constant.618), dimensions={}, sharding={maximal device=0}, metadata={op_type="_RecvTPUEmbeddingActivations" op_name="while/RecvTPUEmbeddingActivations"}
  %constant.619 = f32[] constant(0), sharding={maximal device=0}, metadata={op_type="_RecvTPUEmbeddingActivations" op_name="while/RecvTPUEmbeddingActivations"}
  %broadcast.624 = f32[128,8]{1,0} broadcast(f32[] %constant.619), dimensions={}, sharding={maximal device=0}, metadata={op_type="_RecvTPUEmbeddingActivations" op_name="while/RecvTPUEmbeddingActivations"}
  %select.625 = f32[128,8]{1,0} select(pred[128,8]{1,0} %compare.622, f32[128,8]{1,0} %broadcast.623, f32[128,8]{1,0} %broadcast.624), sharding={maximal device=0}, metadata={op_type="_RecvTPUEmbeddingActivations" op_name="while/RecvTPUEmbeddingActivations"}
  %slice.612 = f32[8,128]{1,0} slice(f32[136,128]{1,0} %concatenate.610), slice={[128:136], [0:128]}, sharding={maximal device=0}, metadata={op_type="_RecvTPUEmbeddingActivations" op_name="while/RecvTPUEmbeddingActivations"}
  %reshape.617 = f32[8,128]{1,0} reshape(f32[8,128]{1,0} %slice.612), sharding={maximal device=0}, metadata={op_type="_RecvTPUEmbeddingActivations" op_name="while/RecvTPUEmbeddingActivations"}
  %dot.626 = f32[128,128]{1,0} dot(f32[128,8]{1,0} %select.625, f32[8,128]{1,0} %reshape.617), lhs_contracting_dims={1}, rhs_contracting_dims={0}, sharding={maximal device=0}, metadata={op_type="_RecvTPUEmbeddingActivations" op_name="while/RecvTPUEmbeddingActivations"}
  %get-tuple-element.615 = f32[128]{0} get-tuple-element((u32[128]{0}, f32[128]{0}, u32[128]{0}) %get-tuple-element.613), index=1, sharding={maximal device=0}, metadata={op_type="_RecvTPUEmbeddingActivations" op_name="while/RecvTPUEmbeddingActivations"}
  %broadcast.627 = f32[128,128]{1,0} broadcast(f32[128]{0} %get-tuple-element.615), dimensions={0}, sharding={maximal device=0}, metadata={op_type="_RecvTPUEmbeddingActivations" op_name="while/RecvTPUEmbeddingActivations"}
  %multiply.628 = f32[128,128]{1,0} multiply(f32[128,128]{1,0} %dot.626, f32[128,128]{1,0} %broadcast.627), sharding={maximal device=0}, metadata={op_type="_RecvTPUEmbeddingActivations" op_name="while/RecvTPUEmbeddingActivations"}
  %dot.638 = f32[128,128]{1,0} dot(f32[128,128]{0,1} %transpose.637, f32[128,128]{1,0} %multiply.628), lhs_contracting_dims={1}, rhs_contracting_dims={0}, sharding={maximal device=0}, metadata={op_type="_RecvTPUEmbeddingActivations" op_name="while/RecvTPUEmbeddingActivations"}
  %reshape.639 = f32[128,128]{1,0} reshape(f32[128,128]{1,0} %dot.638), sharding={maximal device=0}, metadata={op_type="_RecvTPUEmbeddingActivations" op_name="while/RecvTPUEmbeddingActivations"}
  %add.640 = f32[128,128]{1,0} add(f32[128,128]{1,0} %slice.611, f32[128,128]{1,0} %reshape.639), sharding={maximal device=0}, metadata={op_type="_RecvTPUEmbeddingActivations" op_name="while/RecvTPUEmbeddingActivations"}
  %concatenate.641 = f32[128,128]{1,0} concatenate(f32[128,128]{1,0} %add.640), dimensions={0}, sharding={maximal device=0}, metadata={op_type="_RecvTPUEmbeddingActivations" op_name="while/RecvTPUEmbeddingActivations"}
  %reshape.642 = f32[128,128]{1,0} reshape(f32[128,128]{1,0} %concatenate.641), sharding={maximal device=0}, metadata={op_type="_RecvTPUEmbeddingActivations" op_name="while/RecvTPUEmbeddingActivations"}
  %slice.643 = f32[128,128]{1,0} slice(f32[128,128]{1,0} %reshape.642), slice={[0:128], [0:128]}, sharding={maximal device=0}, metadata={op_type="_RecvTPUEmbeddingActivations" op_name="while/RecvTPUEmbeddingActivations"}
  %reshape.811 = f32[128,1,128]{2,1,0} reshape(f32[128,128]{1,0} %slice.643), sharding={maximal device=0}, metadata={op_type="Reshape" op_name="while/Reshape_8"}
…
  %get-tuple-element.3412 = f32[512]{0:T(512)} get-tuple-element((s32[], s64[]{:T(256)}, f32[19656,128]{1,0:T(8,128)}, f32[1]{0:T(256)}, f32[1]{0:T(256)}, /*index=5*/f32[1]{0:T(256)}, f32[1]{0:T(256)}, f32[1]{0:T(256)}, f32[1]{0:T(256)}, f32[1]{0:T(256)}, /*index=10*/f32[1]{0:T(256)}, f32[1]{0:T(256)}, f32[1]{0:T(256)}, f32[1]{0:T(256)}, f32[1]{0:T(256)}, /*index=15*/f32[1]{0:T(256)}, f32[512]{0:T(512)}, f32[13,512]{1,0:T(8,128)}, f32[256]{0:T(256)}, f32[512,256]{1,0:T(8,128)}, /*index=20*/f32[128]{0:T(256)}, f32[256,128]{1,0:T(8,128)}, f32[1024]{0:T(1024)}, f32[857,1024]{1,0:T(8,128)}, f32[1024]{0:T(1024)}, /*index=25*/f32[1024,1024]{1,0:T(8,128)}, f32[512]{0:T(512)}, f32[1024,512]{1,0:T(8,128)}, f32[256]{0:T(256)}, f32[512,256]{1,0:T(8,128)}, /*index=30*/f32[1]{0:T(256)}, f32[256,1]{0,1:T(2,128)}) %tuple.3395), index=16, metadata={op_type="While" op_name="LoopCond"}
  %reshape.3428 = f32[512]{0:T(512)} reshape(f32[512]{0:T(512)} %get-tuple-element.3412), metadata={op_name="XLA_Retvals"}
  %tuple.3429 = (f32[512]{0:T(512)}) tuple(f32[512]{0:T(512)} %reshape.3428), sharding={maximal device=0 metadata={op_type="_TPUReplicate" op_name="cluster"}}, metadata={op_name="XLA_Retvals"}
  %get-tuple-element.3430 = f32[512]{0:T(512)} get-tuple-element((f32[512]{0:T(512)}) %tuple.3429), index=0, sharding={maximal device=0 metadata={op_type="_TPUReplicate" op_name="cluster"}}, metadata={op_name="XLA_Retvals"}
  %get-tuple-element.3413 = f32[13,512]{1,0:T(8,128)} get-tuple-element((s32[], s64[]{:T(256)}, f32[19656,128]{1,0:T(8,128)}, f32[1]{0:T(256)}, f32[1]{0:T(256)}, /*index=5*/f32[1]{0:T(256)}, f32[1]{0:T(256)}, f32[1]{0:T(256)}, f32[1]{0:T(256)}, f32[1]{0:T(256)}, /*index=10*/f32[1]{0:T(256)}, f32[1]{0:T(256)}, f32[1]{0:T(256)}, f32[1]{0:T(256)}, f32[1]{0:T(256)}, /*index=15*/f32[1]{0:T(256)}, f32[512]{0:T(512)}, f32[13,512]{1,0:T(8,128)}, f32[256]{0:T(256)}, f32[512,256]{1,0:T(8,128)}, /*index=20*/f32[128]{0:T(256)}, f32[256,128]{1,0:T(8,128)}, f32[1024]{0:T(1024)}, f32[857,1024]{1,0:T(8,128)}, f32[1024]{0:T(1024)}, /*index=25*/f32[1024,1024]{1,0:T(8,128)}, f32[512]{0:T(512)}, f32[1024,512]{1,0:T(8,128)}, f32[256]{0:T(256)}, f32[512,256]{1,0:T(8,128)}, /*index=30*/f32[1]{0:T(256)}, f32[256,1]{0,1:T(2,128)}) %tuple.3395), index=17, metadata={op_type="While" op_name="LoopCond"}
  %reshape.3431 = f32[13,512]{1,0:T(8,128)} reshape(f32[13,512]{1,0:T(8,128)} %get-tuple-element.3413), metadata={op_name="XLA_Retvals"}
  %tuple.3432 = (f32[13,512]{1,0:T(8,128)}) tuple(f32[13,512]{1,0:T(8,128)} %reshape.3431), sharding={maximal device=0 metadata={op_type="_TPUReplicate" op_name="cluster"}}, metadata={op_name="XLA_Retvals"}
  %get-tuple-element.3433 = f32[13,512]{1,0:T(8,128)} get-tuple-element((f32[13,512]{1,0:T(8,128)}) %tuple.3432), index=0, sharding={maximal device=0 metadata={op_type="_TPUReplicate" op_name="cluster"}}, metadata={op_name="XLA_Retvals"}
  %get-tuple-element.3414 = f32[256]{0:T(256)} get-tuple-element((s32[], s64[]{:T(256)}, f32[19656,128]{1,0:T(8,128)}, f32[1]{0:T(256)}, f32[1]{0:T(256)}, /*index=5*/f32[1]{0:T(256)}, f32[1]{0:T(256)}, f32[1]{0:T(256)}, f32[1]{0:T(256)}, f32[1]{0:T(256)}, /*index=10*/f32[1]{0:T(256)}, f32[1]{0:T(256)}, f32[1]{0:T(256)}, f32[1]{0:T(256)}, f32[1]{0:T(256)}, /*index=15*/f32[1]{0:T(256)}, f32[512]{0:T(512)}, f32[13,512]{1,0:T(8,128)}, f32[256]{0:T(256)}, f32[512,256]{1,0:T(8,128)}, /*index=20*/f32[128]{0:T(256)}, f32[256,128]{1,0:T(8,128)}, f32[1024]{0:T(1024)}, f32[857,1024]{1,0:T(8,128)}, f32[1024]{0:T(1024)}, /*index=25*/f32[1024,1024]{1,0:T(8,128)}, f32[512]{0:T(512)}, f32[1024,512]{1,0:T(8,128)}, f32[256]{0:T(256)}, f32[512,256]{1,0:T(8,128)}, /*index=30*/f32[1]{0:T(256)}, f32[256,1]{0,1:T(2,128)}) %tuple.3395), index=18, metadata={op_type="While" op_name="LoopCond"}
  %reshape.3434 = f32[256]{0:T(256)} reshape(f32[256]{0:T(256)} %get-tuple-element.3414), metadata={op_name="XLA_Retvals"}
  %tuple.3435 = (f32[256]{0:T(256)}) tuple(f32[256]{0:T(256)} %reshape.3434), sharding={maximal device=0 metadata={op_type="_TPUReplicate" op_name="cluster"}}, metadata={op_name="XLA_Retvals"}
  %get-tuple-element.3436 = f32[256]{0:T(256)} get-tuple-element((f32[256]{0:T(256)}) %tuple.3435), index=0, sharding={maximal device=0 metadata={op_type="_TPUReplicate" op_name="cluster"}}, metadata={op_name="XLA_Retvals"}
  %get-tuple-element.3415 = f32[512,256]{1,0:T(8,128)} get-tuple-element((s32[], s64[]{:T(256)}, f32[19656,128]{1,0:T(8,128)}, f32[1]{0:T(256)}, f32[1]{0:T(256)}, /*index=5*/f32[1]{0:T(256)}, f32[1]{0:T(256)}, f32[1]{0:T(256)}, f32[1]{0:T(256)}, f32[1]{0:T(256)}, /*index=10*/f32[1]{0:T(256)}, f32[1]{0:T(256)}, f32[1]{0:T(256)}, f32[1]{0:T(256)}, f32[1]{0:T(256)}, /*index=15*/f32[1]{0:T(256)}, f32[512]{0:T(512)}, f32[13,512]{1,0:T(8,128)}, f32[256]{0:T(256)}, f32[512,256]{1,0:T(8,128)}, /*index=20*/f32[128]{0:T(256)}, f32[256,128]{1,0:T(8,128)}, f32[1024]{0:T(1024)}, f32[857,1024]{1,0:T(8,128)}, f32[1024]{0:T(1024)}, /*index=25*/f32[1024,1024]{1,0:T(8,128)}, f32[512]{0:T(512)}, f32[1024,512]{1,0:T(8,128)}, f32[256]{0:T(256)}, f32[512,256]{1,0:T(8,128)}, /*index=30*/f32[1]{0:T(256)}, f32[256,1]{0,1:T(2,128)}) %tuple.3395), index=19, metadata={op_type="While" op_name="LoopCond"}
  %reshape.3437 = f32[512,256]{1,0:T(8,128)} reshape(f32[512,256]{1,0:T(8,128)} %get-tuple-element.3415), metadata={op_name="XLA_Retvals"}
  %tuple.3438 = (f32[512,256]{1,0:T(8,128)}) tuple(f32[512,256]{1,0:T(8,128)} %reshape.3437), sharding={maximal device=0 metadata={op_type="_TPUReplicate" op_name="cluster"}}, metadata={op_name="XLA_Retvals"}
  %get-tuple-element.3439 = f32[512,256]{1,0:T(8,128)} get-tuple-element((f32[512,256]{1,0:T(8,128)}) %tuple.3438), index=0, sharding={maximal device=0 metadata={op_type="_TPUReplicate" op_name="cluster"}}, metadata={op_name="XLA_Retvals"}
  %get-tuple-element.3416 = f32[128]{0:T(256)} get-tuple-element((s32[], s64[]{:T(256)}, f32[19656,128]{1,0:T(8,128)}, f32[1]{0:T(256)}, f32[1]{0:T(256)}, /*index=5*/f32[1]{0:T(256)}, f32[1]{0:T(256)}, f32[1]{0:T(256)}, f32[1]{0:T(256)}, f32[1]{0:T(256)}, /*index=10*/f32[1]{0:T(256)}, f32[1]{0:T(256)}, f32[1]{0:T(256)}, f32[1]{0:T(256)}, f32[1]{0:T(256)}, /*index=15*/f32[1]{0:T(256)}, f32[512]{0:T(512)}, f32[13,512]{1,0:T(8,128)}, f32[256]{0:T(256)}, f32[512,256]{1,0:T(8,128)}, /*index=20*/f32[128]{0:T(256)}, f32[256,128]{1,0:T(8,128)}, f32[1024]{0:T(1024)}, f32[857,1024]{1,0:T(8,128)}, f32[1024]{0:T(1024)}, /*index=25*/f32[1024,1024]{1,0:T(8,128)}, f32[512]{0:T(512)}, f32[1024,512]{1,0:T(8,128)}, f32[256]{0:T(256)}, f32[512,256]{1,0:T(8,128)}, /*index=30*/f32[1]{0:T(256)}, f32[256,1]{0,1:T(2,128)}) %tuple.3395), index=20, metadata={op_type="While" op_name="LoopCond"}
  %reshape.3440 = f32[128]{0:T(256)} reshape(f32[128]{0:T(256)} %get-tuple-element.3416), metadata={op_name="XLA_Retvals"}
  %tuple.3441 = (f32[128]{0:T(256)}) tuple(f32[128]{0:T(256)} %reshape.3440), sharding={maximal device=0 metadata={op_type="_TPUReplicate" op_name="cluster"}}, metadata={op_name="XLA_Retvals"}
  %get-tuple-element.3442 = f32[128]{0:T(256)} get-tuple-element((f32[128]{0:T(256)}) %tuple.3441), index=0, sharding={maximal device=0 metadata={op_type="_TPUReplicate" op_name="cluster"}}, metadata={op_name="XLA_Retvals"}
  %get-tuple-element.3417 = f32[256,128]{1,0:T(8,128)} get-tuple-element((s32[], s64[]{:T(256)}, f32[19656,128]{1,0:T(8,128)}, f32[1]{0:T(256)}, f32[1]{0:T(256)}, /*index=5*/f32[1]{0:T(256)}, f32[1]{0:T(256)}, f32[1]{0:T(256)}, f32[1]{0:T(256)}, f32[1]{0:T(256)}, /*index=10*/f32[1]{0:T(256)}, f32[1]{0:T(256)}, f32[1]{0:T(256)}, f32[1]{0:T(256)}, f32[1]{0:T(256)}, /*index=15*/f32[1]{0:T(256)}, f32[512]{0:T(512)}, f32[13,512]{1,0:T(8,128)}, f32[256]{0:T(256)}, f32[512,256]{1,0:T(8,128)}, /*index=20*/f32[128]{0:T(256)}, f32[256,128]{1,0:T(8,128)}, f32[1024]{0:T(1024)}, f32[857,1024]{1,0:T(8,128)}, f32[1024]{0:T(1024)}, /*index=25*/f32[1024,1024]{1,0:T(8,128)}, f32[512]{0:T(512)}, f32[1024,512]{1,0:T(8,128)}, f32[256]{0:T(256)}, f32[512,256]{1,0:T(8,128)}, /*index=30*/f32[1]{0:T(256)}, f32[256,1]{0,1:T(2,128)}) %tuple.3395), index=21, metadata={op_type="While" op_name="LoopCond"}
  %reshape.3443 = f32[256,128]{1,0:T(8,128)} reshape(f32[256,128]{1,0:T(8,128)} %get-tuple-element.3417), metadata={op_name="XLA_Retvals"}
  %tuple.3444 = (f32[256,128]{1,0:T(8,128)}) tuple(f32[256,128]{1,0:T(8,128)} %reshape.3443), sharding={maximal device=0 metadata={op_type="_TPUReplicate" op_name="cluster"}}, metadata={op_name="XLA_Retvals"}
  %get-tuple-element.3445 = f32[256,128]{1,0:T(8,128)} get-tuple-element((f32[256,128]{1,0:T(8,128)}) %tuple.3444), index=0, sharding={maximal device=0 metadata={op_type="_TPUReplicate" op_name="cluster"}}, metadata={op_name="XLA_Retvals"}
  %get-tuple-element.3397 = s64[]{:T(256)} get-tuple-element((s32[], s64[]{:T(256)}, f32[19656,128]{1,0:T(8,128)}, f32[1]{0:T(256)}, f32[1]{0:T(256)}, /*index=5*/f32[1]{0:T(256)}, f32[1]{0:T(256)}, f32[1]{0:T(256)}, f32[1]{0:T(256)}, f32[1]{0:T(256)}, /*index=10*/f32[1]{0:T(256)}, f32[1]{0:T(256)}, f32[1]{0:T(256)}, f32[1]{0:T(256)}, f32[1]{0:T(256)}, /*index=15*/f32[1]{0:T(256)}, f32[512]{0:T(512)}, f32[13,512]{1,0:T(8,128)}, f32[256]{0:T(256)}, f32[512,256]{1,0:T(8,128)}, /*index=20*/f32[128]{0:T(256)}, f32[256,128]{1,0:T(8,128)}, f32[1024]{0:T(1024)}, f32[857,1024]{1,0:T(8,128)}, f32[1024]{0:T(1024)}, /*index=25*/f32[1024,1024]{1,0:T(8,128)}, f32[512]{0:T(512)}, f32[1024,512]{1,0:T(8,128)}, f32[256]{0:T(256)}, f32[512,256]{1,0:T(8,128)}, /*index=30*/f32[1]{0:T(256)}, f32[256,1]{0,1:T(2,128)}) %tuple.3395), index=1, metadata={op_type="While" op_name="LoopCond"}
  %reshape.3446 = s64[]{:T(256)} reshape(s64[]{:T(256)} %get-tuple-element.3397), metadata={op_name="XLA_Retvals"}
  %tuple.3447 = (s64[]{:T(256)}) tuple(s64[]{:T(256)} %reshape.3446), sharding={maximal device=0 metadata={op_type="Cast" op_name="while/Cast_9"}}, metadata={op_name="XLA_Retvals"}
  %get-tuple-element.3448 = s64[]{:T(256)} get-tuple-element((s64[]{:T(256)}) %tuple.3447), index=0, sharding={maximal device=0 metadata={op_type="Cast" op_name="while/Cast_9"}}, metadata={op_name="XLA_Retvals"}
  %get-tuple-element.3398 = f32[19656,128]{1,0:T(8,128)} get-tuple-element((s32[], s64[]{:T(256)}, f32[19656,128]{1,0:T(8,128)}, f32[1]{0:T(256)}, f32[1]{0:T(256)}, /*index=5*/f32[1]{0:T(256)}, f32[1]{0:T(256)}, f32[1]{0:T(256)}, f32[1]{0:T(256)}, f32[1]{0:T(256)}, /*index=10*/f32[1]{0:T(256)}, f32[1]{0:T(256)}, f32[1]{0:T(256)}, f32[1]{0:T(256)}, f32[1]{0:T(256)}, /*index=15*/f32[1]{0:T(256)}, f32[512]{0:T(512)}, f32[13,512]{1,0:T(8,128)}, f32[256]{0:T(256)}, f32[512,256]{1,0:T(8,128)}, /*index=20*/f32[128]{0:T(256)}, f32[256,128]{1,0:T(8,128)}, f32[1024]{0:T(1024)}, f32[857,1024]{1,0:T(8,128)}, f32[1024]{0:T(1024)}, /*index=25*/f32[1024,1024]{1,0:T(8,128)}, f32[512]{0:T(512)}, f32[1024,512]{1,0:T(8,128)}, f32[256]{0:T(256)}, f32[512,256]{1,0:T(8,128)}, /*index=30*/f32[1]{0:T(256)}, f32[256,1]{0,1:T(2,128)}) %tuple.3395), index=2, metadata={op_type="While" op_name="LoopCond"}
  %reshape.3449 = f32[19656,128]{1,0:T(8,128)} reshape(f32[19656,128]{1,0:T(8,128)} %get-tuple-element.3398), metadata={op_name="XLA_Retvals"}
  %tuple.3450 = (f32[19656,128]{1,0:T(8,128)}) tuple(f32[19656,128]{1,0:T(8,128)} %reshape.3449), sharding={maximal device=0 metadata={op_type="_TPUReplicate" op_name="cluster"}}, metadata={op_name="XLA_Retvals"}
  %get-tuple-element.3451 = f32[19656,128]{1,0:T(8,128)} get-tuple-element((f32[19656,128]{1,0:T(8,128)}) %tuple.3450), index=0, sharding={maximal device=0 metadata={op_type="_TPUReplicate" op_name="cluster"}}, metadata={op_name="XLA_Retvals"}
  %get-tuple-element.3418 = f32[1024]{0:T(1024)} get-tuple-element((s32[], s64[]{:T(256)}, f32[19656,128]{1,0:T(8,128)}, f32[1]{0:T(256)}, f32[1]{0:T(256)}, /*index=5*/f32[1]{0:T(256)}, f32[1]{0:T(256)}, f32[1]{0:T(256)}, f32[1]{0:T(256)}, f32[1]{0:T(256)}, /*index=10*/f32[1]{0:T(256)}, f32[1]{0:T(256)}, f32[1]{0:T(256)}, f32[1]{0:T(256)}, f32[1]{0:T(256)}, /*index=15*/f32[1]{0:T(256)}, f32[512]{0:T(512)}, f32[13,512]{1,0:T(8,128)}, f32[256]{0:T(256)}, f32[512,256]{1,0:T(8,128)}, /*index=20*/f32[128]{0:T(256)}, f32[256,128]{1,0:T(8,128)}, f32[1024]{0:T(1024)}, f32[857,1024]{1,0:T(8,128)}, f32[1024]{0:T(1024)}, /*index=25*/f32[1024,1024]{1,0:T(8,128)}, f32[512]{0:T(512)}, f32[1024,512]{1,0:T(8,128)}, f32[256]{0:T(256)}, f32[512,256]{1,0:T(8,128)}, /*index=30*/f32[1]{0:T(256)}, f32[256,1]{0,1:T(2,128)}) %tuple.3395), index=22, metadata={op_type="While" op_name="LoopCond"}
  %reshape.3452 = f32[1024]{0:T(1024)} reshape(f32[1024]{0:T(1024)} %get-tuple-element.3418), metadata={op_name="XLA_Retvals"}
  %tuple.3453 = (f32[1024]{0:T(1024)}) tuple(f32[1024]{0:T(1024)} %reshape.3452), sharding={maximal device=0 metadata={op_type="_TPUReplicate" op_name="cluster"}}, metadata={op_name="XLA_Retvals"}
  %get-tuple-element.3454 = f32[1024]{0:T(1024)} get-tuple-element((f32[1024]{0:T(1024)}) %tuple.3453), index=0, sharding={maximal device=0 metadata={op_type="_TPUReplicate" op_name="cluster"}}, metadata={op_name="XLA_Retvals"}
  %get-tuple-element.3419 = f32[857,1024]{1,0:T(8,128)} get-tuple-element((s32[], s64[]{:T(256)}, f32[19656,128]{1,0:T(8,128)}, f32[1]{0:T(256)}, f32[1]{0:T(256)}, /*index=5*/f32[1]{0:T(256)}, f32[1]{0:T(256)}, f32[1]{0:T(256)}, f32[1]{0:T(256)}, f32[1]{0:T(256)}, /*index=10*/f32[1]{0:T(256)}, f32[1]{0:T(256)}, f32[1]{0:T(256)}, f32[1]{0:T(256)}, f32[1]{0:T(256)}, /*index=15*/f32[1]{0:T(256)}, f32[512]{0:T(512)}, f32[13,512]{1,0:T(8,128)}, f32[256]{0:T(256)}, f32[512,256]{1,0:T(8,128)}, /*index=20*/f32[128]{0:T(256)}, f32[256,128]{1,0:T(8,128)}, f32[1024]{0:T(1024)}, f32[857,1024]{1,0:T(8,128)}, f32[1024]{0:T(1024)}, /*index=25*/f32[1024,1024]{1,0:T(8,128)}, f32[512]{0:T(512)}, f32[1024,512]{1,0:T(8,128)}, f32[256]{0:T(256)}, f32[512,256]{1,0:T(8,128)}, /*index=30*/f32[1]{0:T(256)}, f32[256,1]{0,1:T(2,128)}) %tuple.3395), index=23, metadata={op_type="While" op_name="LoopCond"}
  %reshape.3455 = f32[857,1024]{1,0:T(8,128)} reshape(f32[857,1024]{1,0:T(8,128)} %get-tuple-element.3419), metadata={op_name="XLA_Retvals"}
  %tuple.3456 = (f32[857,1024]{1,0:T(8,128)}) tuple(f32[857,1024]{1,0:T(8,128)} %reshape.3455), sharding={maximal device=0 metadata={op_type="_TPUReplicate" op_name="cluster"}}, metadata={op_name="XLA_Retvals"}
  %get-tuple-element.3457 = f32[857,1024]{1,0:T(8,128)} get-tuple-element((f32[857,1024]{1,0:T(8,128)}) %tuple.3456), index=0, sharding={maximal device=0 metadata={op_type="_TPUReplicate" op_name="cluster"}}, metadata={op_name="XLA_Retvals"}
  %get-tuple-element.3420 = f32[1024]{0:T(1024)} get-tuple-element((s32[], s64[]{:T(256)}, f32[19656,128]{1,0:T(8,128)}, f32[1]{0:T(256)}, f32[1]{0:T(256)}, /*index=5*/f32[1]{0:T(256)}, f32[1]{0:T(256)}, f32[1]{0:T(256)}, f32[1]{0:T(256)}, f32[1]{0:T(256)}, /*index=10*/f32[1]{0:T(256)}, f32[1]{0:T(256)}, f32[1]{0:T(256)}, f32[1]{0:T(256)}, f32[1]{0:T(256)}, /*index=15*/f32[1]{0:T(256)}, f32[512]{0:T(512)}, f32[13,512]{1,0:T(8,128)}, f32[256]{0:T(256)}, f32[512,256]{1,0:T(8,128)}, /*index=20*/f32[128]{0:T(256)}, f32[256,128]{1,0:T(8,128)}, f32[1024]{0:T(1024)}, f32[857,1024]{1,0:T(8,128)}, f32[1024]{0:T(1024)}, /*index=25*/f32[1024,1024]{1,0:T(8,128)}, f32[512]{0:T(512)}, f32[1024,512]{1,0:T(8,128)}, f32[256]{0:T(256)}, f32[512,256]{1,0:T(8,128)}, /*index=30*/f32[1]{0:T(256)}, f32[256,1]{0,1:T(2,128)}) %tuple.3395), index=24, metadata={op_type="While" op_name="LoopCond"}
  %reshape.3458 = f32[1024]{0:T(1024)} reshape(f32[1024]{0:T(1024)} %get-tuple-element.3420), metadata={op_name="XLA_Retvals"}
  %tuple.3459 = (f32[1024]{0:T(1024)}) tuple(f32[1024]{0:T(1024)} %reshape.3458), sharding={maximal device=0 metadata={op_type="_TPUReplicate" op_name="cluster"}}, metadata={op_name="XLA_Retvals"}
  %get-tuple-element.3460 = f32[1024]{0:T(1024)} get-tuple-element((f32[1024]{0:T(1024)}) %tuple.3459), index=0, sharding={maximal device=0 metadata={op_type="_TPUReplicate" op_name="cluster"}}, metadata={op_name="XLA_Retvals"}
  %get-tuple-element.3421 = f32[1024,1024]{1,0:T(8,128)} get-tuple-element((s32[], s64[]{:T(256)}, f32[19656,128]{1,0:T(8,128)}, f32[1]{0:T(256)}, f32[1]{0:T(256)}, /*index=5*/f32[1]{0:T(256)}, f32[1]{0:T(256)}, f32[1]{0:T(256)}, f32[1]{0:T(256)}, f32[1]{0:T(256)}, /*index=10*/f32[1]{0:T(256)}, f32[1]{0:T(256)}, f32[1]{0:T(256)}, f32[1]{0:T(256)}, f32[1]{0:T(256)}, /*index=15*/f32[1]{0:T(256)}, f32[512]{0:T(512)}, f32[13,512]{1,0:T(8,128)}, f32[256]{0:T(256)}, f32[512,256]{1,0:T(8,128)}, /*index=20*/f32[128]{0:T(256)}, f32[256,128]{1,0:T(8,128)}, f32[1024]{0:T(1024)}, f32[857,1024]{1,0:T(8,128)}, f32[1024]{0:T(1024)}, /*index=25*/f32[1024,1024]{1,0:T(8,128)}, f32[512]{0:T(512)}, f32[1024,512]{1,0:T(8,128)}, f32[256]{0:T(256)}, f32[512,256]{1,0:T(8,128)}, /*index=30*/f32[1]{0:T(256)}, f32[256,1]{0,1:T(2,128)}) %tuple.3395), index=25, metadata={op_type="While" op_name="LoopCond"}
  %reshape.3461 = f32[1024,1024]{1,0:T(8,128)} reshape(f32[1024,1024]{1,0:T(8,128)} %get-tuple-element.3421), metadata={op_name="XLA_Retvals"}
  %tuple.3462 = (f32[1024,1024]{1,0:T(8,128)}) tuple(f32[1024,1024]{1,0:T(8,128)} %reshape.3461), sharding={maximal device=0 metadata={op_type="_TPUReplicate" op_name="cluster"}}, metadata={op_name="XLA_Retvals"}
  %get-tuple-element.3463 = f32[1024,1024]{1,0:T(8,128)} get-tuple-element((f32[1024,1024]{1,0:T(8,128)}) %tuple.3462), index=0, sharding={maximal device=0 metadata={op_type="_TPUReplicate" op_name="cluster"}}, metadata={op_name="XLA_Retvals"}
  %get-tuple-element.3422 = f32[512]{0:T(512)} get-tuple-element((s32[], s64[]{:T(256)}, f32[19656,128]{1,0:T(8,128)}, f32[1]{0:T(256)}, f32[1]{0:T(256)}, /*index=5*/f32[1]{0:T(256)}, f32[1]{0:T(256)}, f32[1]{0:T(256)}, f32[1]{0:T(256)}, f32[1]{0:T(256)}, /*index=10*/f32[1]{0:T(256)}, f32[1]{0:T(256)}, f32[1]{0:T(256)}, f32[1]{0:T(256)}, f32[1]{0:T(256)}, /*index=15*/f32[1]{0:T(256)}, f32[512]{0:T(512)}, f32[13,512]{1,0:T(8,128)}, f32[256]{0:T(256)}, f32[512,256]{1,0:T(8,128)}, /*index=20*/f32[128]{0:T(256)}, f32[256,128]{1,0:T(8,128)}, f32[1024]{0:T(1024)}, f32[857,1024]{1,0:T(8,128)}, f32[1024]{0:T(1024)}, /*index=25*/f32[1024,1024]{1,0:T(8,128)}, f32[512]{0:T(512)}, f32[1024,512]{1,0:T(8,128)}, f32[256]{0:T(256)}, f32[512,256]{1,0:T(8,128)}, /*index=30*/f32[1]{0:T(256)}, f32[256,1]{0,1:T(2,128)}) %tuple.3395), index=26, metadata={op_type="While" op_name="LoopCond"}
  %reshape.3464 = f32[512]{0:T(512)} reshape(f32[512]{0:T(512)} %get-tuple-element.3422), metadata={op_name="XLA_Retvals"}
  %tuple.3465 = (f32[512]{0:T(512)}) tuple(f32[512]{0:T(512)} %reshape.3464), sharding={maximal device=0 metadata={op_type="_TPUReplicate" op_name="cluster"}}, metadata={op_name="XLA_Retvals"}
  %get-tuple-element.3466 = f32[512]{0:T(512)} get-tuple-element((f32[512]{0:T(512)}) %tuple.3465), index=0, sharding={maximal device=0 metadata={op_type="_TPUReplicate" op_name="cluster"}}, metadata={op_name="XLA_Retvals"}
  %get-tuple-element.3423 = f32[1024,512]{1,0:T(8,128)} get-tuple-element((s32[], s64[]{:T(256)}, f32[19656,128]{1,0:T(8,128)}, f32[1]{0:T(256)}, f32[1]{0:T(256)}, /*index=5*/f32[1]{0:T(256)}, f32[1]{0:T(256)}, f32[1]{0:T(256)}, f32[1]{0:T(256)}, f32[1]{0:T(256)}, /*index=10*/f32[1]{0:T(256)}, f32[1]{0:T(256)}, f32[1]{0:T(256)}, f32[1]{0:T(256)}, f32[1]{0:T(256)}, /*index=15*/f32[1]{0:T(256)}, f32[512]{0:T(512)}, f32[13,512]{1,0:T(8,128)}, f32[256]{0:T(256)}, f32[512,256]{1,0:T(8,128)}, /*index=20*/f32[128]{0:T(256)}, f32[256,128]{1,0:T(8,128)}, f32[1024]{0:T(1024)}, f32[857,1024]{1,0:T(8,128)}, f32[1024]{0:T(1024)}, /*index=25*/f32[1024,1024]{1,0:T(8,128)}, f32[512]{0:T(512)}, f32[1024,512]{1,0:T(8,128)}, f32[256]{0:T(256)}, f32[512,256]{1,0:T(8,128)}, /*index=30*/f32[1]{0:T(256)}, f32[256,1]{0,1:T(2,128)}) %tuple.3395), index=27, metadata={op_type="While" op_name="LoopCond"}
  %reshape.3467 = f32[1024,512]{1,0:T(8,128)} reshape(f32[1024,512]{1,0:T(8,128)} %get-tuple-element.3423), metadata={op_name="XLA_Retvals"}
  %tuple.3468 = (f32[1024,512]{1,0:T(8,128)}) tuple(f32[1024,512]{1,0:T(8,128)} %reshape.3467), sharding={maximal device=0 metadata={op_type="_TPUReplicate" op_name="cluster"}}, metadata={op_name="XLA_Retvals"}
  %get-tuple-element.3469 = f32[1024,512]{1,0:T(8,128)} get-tuple-element((f32[1024,512]{1,0:T(8,128)}) %tuple.3468), index=0, sharding={maximal device=0 metadata={op_type="_TPUReplicate" op_name="cluster"}}, metadata={op_name="XLA_Retvals"}
  %get-tuple-element.3424 = f32[256]{0:T(256)} get-tuple-element((s32[], s64[]{:T(256)}, f32[19656,128]{1,0:T(8,128)}, f32[1]{0:T(256)}, f32[1]{0:T(256)}, /*index=5*/f32[1]{0:T(256)}, f32[1]{0:T(256)}, f32[1]{0:T(256)}, f32[1]{0:T(256)}, f32[1]{0:T(256)}, /*index=10*/f32[1]{0:T(256)}, f32[1]{0:T(256)}, f32[1]{0:T(256)}, f32[1]{0:T(256)}, f32[1]{0:T(256)}, /*index=15*/f32[1]{0:T(256)}, f32[512]{0:T(512)}, f32[13,512]{1,0:T(8,128)}, f32[256]{0:T(256)}, f32[512,256]{1,0:T(8,128)}, /*index=20*/f32[128]{0:T(256)}, f32[256,128]{1,0:T(8,128)}, f32[1024]{0:T(1024)}, f32[857,1024]{1,0:T(8,128)}, f32[1024]{0:T(1024)}, /*index=25*/f32[1024,1024]{1,0:T(8,128)}, f32[512]{0:T(512)}, f32[1024,512]{1,0:T(8,128)}, f32[256]{0:T(256)}, f32[512,256]{1,0:T(8,128)}, /*index=30*/f32[1]{0:T(256)}, f32[256,1]{0,1:T(2,128)}) %tuple.3395), index=28, metadata={op_type="While" op_name="LoopCond"}
  %reshape.3470 = f32[256]{0:T(256)} reshape(f32[256]{0:T(256)} %get-tuple-element.3424), metadata={op_name="XLA_Retvals"}
  %tuple.3471 = (f32[256]{0:T(256)}) tuple(f32[256]{0:T(256)} %reshape.3470), sharding={maximal device=0 metadata={op_type="_TPUReplicate" op_name="cluster"}}, metadata={op_name="XLA_Retvals"}
  %get-tuple-element.3472 = f32[256]{0:T(256)} get-tuple-element((f32[256]{0:T(256)}) %tuple.3471), index=0, sharding={maximal device=0 metadata={op_type="_TPUReplicate" op_name="cluster"}}, metadata={op_name="XLA_Retvals"}
  %get-tuple-element.3425 = f32[512,256]{1,0:T(8,128)} get-tuple-element((s32[], s64[]{:T(256)}, f32[19656,128]{1,0:T(8,128)}, f32[1]{0:T(256)}, f32[1]{0:T(256)}, /*index=5*/f32[1]{0:T(256)}, f32[1]{0:T(256)}, f32[1]{0:T(256)}, f32[1]{0:T(256)}, f32[1]{0:T(256)}, /*index=10*/f32[1]{0:T(256)}, f32[1]{0:T(256)}, f32[1]{0:T(256)}, f32[1]{0:T(256)}, f32[1]{0:T(256)}, /*index=15*/f32[1]{0:T(256)}, f32[512]{0:T(512)}, f32[13,512]{1,0:T(8,128)}, f32[256]{0:T(256)}, f32[512,256]{1,0:T(8,128)}, /*index=20*/f32[128]{0:T(256)}, f32[256,128]{1,0:T(8,128)}, f32[1024]{0:T(1024)}, f32[857,1024]{1,0:T(8,128)}, f32[1024]{0:T(1024)}, /*index=25*/f32[1024,1024]{1,0:T(8,128)}, f32[512]{0:T(512)}, f32[1024,512]{1,0:T(8,128)}, f32[256]{0:T(256)}, f32[512,256]{1,0:T(8,128)}, /*index=30*/f32[1]{0:T(256)}, f32[256,1]{0,1:T(2,128)}) %tuple.3395), index=29, metadata={op_type="While" op_name="LoopCond"}
  %reshape.3473 = f32[512,256]{1,0:T(8,128)} reshape(f32[512,256]{1,0:T(8,128)} %get-tuple-element.3425), metadata={op_name="XLA_Retvals"}
  %tuple.3474 = (f32[512,256]{1,0:T(8,128)}) tuple(f32[512,256]{1,0:T(8,128)} %reshape.3473), sharding={maximal device=0 metadata={op_type="_TPUReplicate" op_name="cluster"}}, metadata={op_name="XLA_Retvals"}
  %get-tuple-element.3475 = f32[512,256]{1,0:T(8,128)} get-tuple-element((f32[512,256]{1,0:T(8,128)}) %tuple.3474), index=0, sharding={maximal device=0 metadata={op_type="_TPUReplicate" op_name="cluster"}}, metadata={op_name="XLA_Retvals"}
  %get-tuple-element.3426 = f32[1]{0:T(256)} get-tuple-element((s32[], s64[]{:T(256)}, f32[19656,128]{1,0:T(8,128)}, f32[1]{0:T(256)}, f32[1]{0:T(256)}, /*index=5*/f32[1]{0:T(256)}, f32[1]{0:T(256)}, f32[1]{0:T(256)}, f32[1]{0:T(256)}, f32[1]{0:T(256)}, /*index=10*/f32[1]{0:T(256)}, f32[1]{0:T(256)}, f32[1]{0:T(256)}, f32[1]{0:T(256)}, f32[1]{0:T(256)}, /*index=15*/f32[1]{0:T(256)}, f32[512]{0:T(512)}, f32[13,512]{1,0:T(8,128)}, f32[256]{0:T(256)}, f32[512,256]{1,0:T(8,128)}, /*index=20*/f32[128]{0:T(256)}, f32[256,128]{1,0:T(8,128)}, f32[1024]{0:T(1024)}, f32[857,1024]{1,0:T(8,128)}, f32[1024]{0:T(1024)}, /*index=25*/f32[1024,1024]{1,0:T(8,128)}, f32[512]{0:T(512)}, f32[1024,512]{1,0:T(8,128)}, f32[256]{0:T(256)}, f32[512,256]{1,0:T(8,128)}, /*index=30*/f32[1]{0:T(256)}, f32[256,1]{0,1:T(2,128)}) %tuple.3395), index=30, metadata={op_type="While" op_name="LoopCond"}
  %reshape.3476 = f32[1]{0:T(256)} reshape(f32[1]{0:T(256)} %get-tuple-element.3426), metadata={op_name="XLA_Retvals"}
  %tuple.3477 = (f32[1]{0:T(256)}) tuple(f32[1]{0:T(256)} %reshape.3476), sharding={maximal device=0 metadata={op_type="_TPUReplicate" op_name="cluster"}}, metadata={op_name="XLA_Retvals"}
  %get-tuple-element.3478 = f32[1]{0:T(256)} get-tuple-element((f32[1]{0:T(256)}) %tuple.3477), index=0, sharding={maximal device=0 metadata={op_type="_TPUReplicate" op_name="cluster"}}, metadata={op_name="XLA_Retvals"}
  %get-tuple-element.3427 = f32[256,1]{0,1:T(2,128)} get-tuple-element((s32[], s64[]{:T(256)}, f32[19656,128]{1,0:T(8,128)}, f32[1]{0:T(256)}, f32[1]{0:T(256)}, /*index=5*/f32[1]{0:T(256)}, f32[1]{0:T(256)}, f32[1]{0:T(256)}, f32[1]{0:T(256)}, f32[1]{0:T(256)}, /*index=10*/f32[1]{0:T(256)}, f32[1]{0:T(256)}, f32[1]{0:T(256)}, f32[1]{0:T(256)}, f32[1]{0:T(256)}, /*index=15*/f32[1]{0:T(256)}, f32[512]{0:T(512)}, f32[13,512]{1,0:T(8,128)}, f32[256]{0:T(256)}, f32[512,256]{1,0:T(8,128)}, /*index=20*/f32[128]{0:T(256)}, f32[256,128]{1,0:T(8,128)}, f32[1024]{0:T(1024)}, f32[857,1024]{1,0:T(8,128)}, f32[1024]{0:T(1024)}, /*index=25*/f32[1024,1024]{1,0:T(8,128)}, f32[512]{0:T(512)}, f32[1024,512]{1,0:T(8,128)}, f32[256]{0:T(256)}, f32[512,256]{1,0:T(8,128)}, /*index=30*/f32[1]{0:T(256)}, f32[256,1]{0,1:T(2,128)}) %tuple.3395), index=31, metadata={op_type="While" op_name="LoopCond"}
  %reshape.3479 = f32[256,1]{0,1:T(2,128)} reshape(f32[256,1]{0,1:T(2,128)} %get-tuple-element.3427), metadata={op_name="XLA_Retvals"}
  %tuple.3480 = (f32[256,1]{0,1:T(2,128)}) tuple(f32[256,1]{0,1:T(2,128)} %reshape.3479), sharding={maximal device=0 metadata={op_type="_TPUReplicate" op_name="cluster"}}, metadata={op_name="XLA_Retvals"}
  %get-tuple-element.3481 = f32[256,1]{0,1:T(2,128)} get-tuple-element((f32[256,1]{0,1:T(2,128)}) %tuple.3480), index=0, sharding={maximal device=0 metadata={op_type="_TPUReplicate" op_name="cluster"}}, metadata={op_name="XLA_Retvals"}
  %get-tuple-element.3399 = f32[1]{0:T(256)} get-tuple-element((s32[], s64[]{:T(256)}, f32[19656,128]{1,0:T(8,128)}, f32[1]{0:T(256)}, f32[1]{0:T(256)}, /*index=5*/f32[1]{0:T(256)}, f32[1]{0:T(256)}, f32[1]{0:T(256)}, f32[1]{0:T(256)}, f32[1]{0:T(256)}, /*index=10*/f32[1]{0:T(256)}, f32[1]{0:T(256)}, f32[1]{0:T(256)}, f32[1]{0:T(256)}, f32[1]{0:T(256)}, /*index=15*/f32[1]{0:T(256)}, f32[512]{0:T(512)}, f32[13,512]{1,0:T(8,128)}, f32[256]{0:T(256)}, f32[512,256]{1,0:T(8,128)}, /*index=20*/f32[128]{0:T(256)}, f32[256,128]{1,0:T(8,128)}, f32[1024]{0:T(1024)}, f32[857,1024]{1,0:T(8,128)}, f32[1024]{0:T(1024)}, /*index=25*/f32[1024,1024]{1,0:T(8,128)}, f32[512]{0:T(512)}, f32[1024,512]{1,0:T(8,128)}, f32[256]{0:T(256)}, f32[512,256]{1,0:T(8,128)}, /*index=30*/f32[1]{0:T(256)}, f32[256,1]{0,1:T(2,128)}) %tuple.3395), index=3, metadata={op_type="While" op_name="LoopCond"}
  %reshape.3482 = f32[1]{0:T(256)} reshape(f32[1]{0:T(256)} %get-tuple-element.3399), metadata={op_name="XLA_Retvals"}
  %tuple.3483 = (f32[1]{0:T(256)}) tuple(f32[1]{0:T(256)} %reshape.3482), sharding={maximal device=0 metadata={op_type="TPUEmbeddingActivations" op_name="while/TPUEmbeddingActivations"}}, metadata={op_name="XLA_Retvals"}
  %get-tuple-element.3484 = f32[1]{0:T(256)} get-tuple-element((f32[1]{0:T(256)}) %tuple.3483), index=0, sharding={maximal device=0 metadata={op_type="TPUEmbeddingActivations" op_name="while/TPUEmbeddingActivations"}}, metadata={op_name="XLA_Retvals"}
  %get-tuple-element.3400 = f32[1]{0:T(256)} get-tuple-element((s32[], s64[]{:T(256)}, f32[19656,128]{1,0:T(8,128)}, f32[1]{0:T(256)}, f32[1]{0:T(256)}, /*index=5*/f32[1]{0:T(256)}, f32[1]{0:T(256)}, f32[1]{0:T(256)}, f32[1]{0:T(256)}, f32[1]{0:T(256)}, /*index=10*/f32[1]{0:T(256)}, f32[1]{0:T(256)}, f32[1]{0:T(256)}, f32[1]{0:T(256)}, f32[1]{0:T(256)}, /*index=15*/f32[1]{0:T(256)}, f32[512]{0:T(512)}, f32[13,512]{1,0:T(8,128)}, f32[256]{0:T(256)}, f32[512,256]{1,0:T(8,128)}, /*index=20*/f32[128]{0:T(256)}, f32[256,128]{1,0:T(8,128)}, f32[1024]{0:T(1024)}, f32[857,1024]{1,0:T(8,128)}, f32[1024]{0:T(1024)}, /*index=25*/f32[1024,1024]{1,0:T(8,128)}, f32[512]{0:T(512)}, f32[1024,512]{1,0:T(8,128)}, f32[256]{0:T(256)}, f32[512,256]{1,0:T(8,128)}, /*index=30*/f32[1]{0:T(256)}, f32[256,1]{0,1:T(2,128)}) %tuple.3395), index=4, metadata={op_type="While" op_name="LoopCond"}
  %reshape.3485 = f32[1]{0:T(256)} reshape(f32[1]{0:T(256)} %get-tuple-element.3400), metadata={op_name="XLA_Retvals"}
  %tuple.3486 = (f32[1]{0:T(256)}) tuple(f32[1]{0:T(256)} %reshape.3485), sharding={maximal device=0 metadata={op_type="TPUEmbeddingActivations" op_name="while/TPUEmbeddingActivations_1"}}, metadata={op_name="XLA_Retvals"}
  %get-tuple-element.3487 = f32[1]{0:T(256)} get-tuple-element((f32[1]{0:T(256)}) %tuple.3486), index=0, sharding={maximal device=0 metadata={op_type="TPUEmbeddingActivations" op_name="while/TPUEmbeddingActivations_1"}}, metadata={op_name="XLA_Retvals"}
  %get-tuple-element.3404 = f32[1]{0:T(256)} get-tuple-element((s32[], s64[]{:T(256)}, f32[19656,128]{1,0:T(8,128)}, f32[1]{0:T(256)}, f32[1]{0:T(256)}, /*index=5*/f32[1]{0:T(256)}, f32[1]{0:T(256)}, f32[1]{0:T(256)}, f32[1]{0:T(256)}, f32[1]{0:T(256)}, /*index=10*/f32[1]{0:T(256)}, f32[1]{0:T(256)}, f32[1]{0:T(256)}, f32[1]{0:T(256)}, f32[1]{0:T(256)}, /*index=15*/f32[1]{0:T(256)}, f32[512]{0:T(512)}, f32[13,512]{1,0:T(8,128)}, f32[256]{0:T(256)}, f32[512,256]{1,0:T(8,128)}, /*index=20*/f32[128]{0:T(256)}, f32[256,128]{1,0:T(8,128)}, f32[1024]{0:T(1024)}, f32[857,1024]{1,0:T(8,128)}, f32[1024]{0:T(1024)}, /*index=25*/f32[1024,1024]{1,0:T(8,128)}, f32[512]{0:T(512)}, f32[1024,512]{1,0:T(8,128)}, f32[256]{0:T(256)}, f32[512,256]{1,0:T(8,128)}, /*index=30*/f32[1]{0:T(256)}, f32[256,1]{0,1:T(2,128)}) %tuple.3395), index=8, metadata={op_type="While" op_name="LoopCond"}
  %reshape.3488 = f32[1]{0:T(256)} reshape(f32[1]{0:T(256)} %get-tuple-element.3404), metadata={op_name="XLA_Retvals"}
  %tuple.3489 = (f32[1]{0:T(256)}) tuple(f32[1]{0:T(256)} %reshape.3488), sharding={maximal device=0 metadata={op_type="TPUEmbeddingActivations" op_name="while/TPUEmbeddingActivations_2"}}, metadata={op_name="XLA_Retvals"}
  %get-tuple-element.3490 = f32[1]{0:T(256)} get-tuple-element((f32[1]{0:T(256)}) %tuple.3489), index=0, sharding={maximal device=0 metadata={op_type="TPUEmbeddingActivations" op_name="while/TPUEmbeddingActivations_2"}}, metadata={op_name="XLA_Retvals"}
  %get-tuple-element.3405 = f32[1]{0:T(256)} get-tuple-element((s32[], s64[]{:T(256)}, f32[19656,128]{1,0:T(8,128)}, f32[1]{0:T(256)}, f32[1]{0:T(256)}, /*index=5*/f32[1]{0:T(256)}, f32[1]{0:T(256)}, f32[1]{0:T(256)}, f32[1]{0:T(256)}, f32[1]{0:T(256)}, /*index=10*/f32[1]{0:T(256)}, f32[1]{0:T(256)}, f32[1]{0:T(256)}, f32[1]{0:T(256)}, f32[1]{0:T(256)}, /*index=15*/f32[1]{0:T(256)}, f32[512]{0:T(512)}, f32[13,512]{1,0:T(8,128)}, f32[256]{0:T(256)}, f32[512,256]{1,0:T(8,128)}, /*index=20*/f32[128]{0:T(256)}, f32[256,128]{1,0:T(8,128)}, f32[1024]{0:T(1024)}, f32[857,1024]{1,0:T(8,128)}, f32[1024]{0:T(1024)}, /*index=25*/f32[1024,1024]{1,0:T(8,128)}, f32[512]{0:T(512)}, f32[1024,512]{1,0:T(8,128)}, f32[256]{0:T(256)}, f32[512,256]{1,0:T(8,128)}, /*index=30*/f32[1]{0:T(256)}, f32[256,1]{0,1:T(2,128)}) %tuple.3395), index=9, metadata={op_type="While" op_name="LoopCond"}
  %reshape.3491 = f32[1]{0:T(256)} reshape(f32[1]{0:T(256)} %get-tuple-element.3405), metadata={op_name="XLA_Retvals"}
  %tuple.3492 = (f32[1]{0:T(256)}) tuple(f32[1]{0:T(256)} %reshape.3491), sharding={maximal device=0 metadata={op_type="TPUEmbeddingActivations" op_name="while/TPUEmbeddingActivations_3"}}, metadata={op_name="XLA_Retvals"}
  %get-tuple-element.3493 = f32[1]{0:T(256)} get-tuple-element((f32[1]{0:T(256)}) %tuple.3492), index=0, sharding={maximal device=0 metadata={op_type="TPUEmbeddingActivations" op_name="while/TPUEmbeddingActivations_3"}}, metadata={op_name="XLA_Retvals"}
  %get-tuple-element.3406 = f32[1]{0:T(256)} get-tuple-element((s32[], s64[]{:T(256)}, f32[19656,128]{1,0:T(8,128)}, f32[1]{0:T(256)}, f32[1]{0:T(256)}, /*index=5*/f32[1]{0:T(256)}, f32[1]{0:T(256)}, f32[1]{0:T(256)}, f32[1]{0:T(256)}, f32[1]{0:T(256)}, /*index=10*/f32[1]{0:T(256)}, f32[1]{0:T(256)}, f32[1]{0:T(256)}, f32[1]{0:T(256)}, f32[1]{0:T(256)}, /*index=15*/f32[1]{0:T(256)}, f32[512]{0:T(512)}, f32[13,512]{1,0:T(8,128)}, f32[256]{0:T(256)}, f32[512,256]{1,0:T(8,128)}, /*index=20*/f32[128]{0:T(256)}, f32[256,128]{1,0:T(8,128)}, f32[1024]{0:T(1024)}, f32[857,1024]{1,0:T(8,128)}, f32[1024]{0:T(1024)}, /*index=25*/f32[1024,1024]{1,0:T(8,128)}, f32[512]{0:T(512)}, f32[1024,512]{1,0:T(8,128)}, f32[256]{0:T(256)}, f32[512,256]{1,0:T(8,128)}, /*index=30*/f32[1]{0:T(256)}, f32[256,1]{0,1:T(2,128)}) %tuple.3395), index=10, metadata={op_type="While" op_name="LoopCond"}
  %reshape.3494 = f32[1]{0:T(256)} reshape(f32[1]{0:T(256)} %get-tuple-element.3406), metadata={op_name="XLA_Retvals"}
  %tuple.3495 = (f32[1]{0:T(256)}) tuple(f32[1]{0:T(256)} %reshape.3494), sharding={maximal device=0 metadata={op_type="TPUEmbeddingActivations" op_name="while/TPUEmbeddingActivations_4"}}, metadata={op_name="XLA_Retvals"}
  %get-tuple-element.3496 = f32[1]{0:T(256)} get-tuple-element((f32[1]{0:T(256)}) %tuple.3495), index=0, sharding={maximal device=0 metadata={op_type="TPUEmbeddingActivations" op_name="while/TPUEmbeddingActivations_4"}}, metadata={op_name="XLA_Retvals"}
  %get-tuple-element.3407 = f32[1]{0:T(256)} get-tuple-element((s32[], s64[]{:T(256)}, f32[19656,128]{1,0:T(8,128)}, f32[1]{0:T(256)}, f32[1]{0:T(256)}, /*index=5*/f32[1]{0:T(256)}, f32[1]{0:T(256)}, f32[1]{0:T(256)}, f32[1]{0:T(256)}, f32[1]{0:T(256)}, /*index=10*/f32[1]{0:T(256)}, f32[1]{0:T(256)}, f32[1]{0:T(256)}, f32[1]{0:T(256)}, f32[1]{0:T(256)}, /*index=15*/f32[1]{0:T(256)}, f32[512]{0:T(512)}, f32[13,512]{1,0:T(8,128)}, f32[256]{0:T(256)}, f32[512,256]{1,0:T(8,128)}, /*index=20*/f32[128]{0:T(256)}, f32[256,128]{1,0:T(8,128)}, f32[1024]{0:T(1024)}, f32[857,1024]{1,0:T(8,128)}, f32[1024]{0:T(1024)}, /*index=25*/f32[1024,1024]{1,0:T(8,128)}, f32[512]{0:T(512)}, f32[1024,512]{1,0:T(8,128)}, f32[256]{0:T(256)}, f32[512,256]{1,0:T(8,128)}, /*index=30*/f32[1]{0:T(256)}, f32[256,1]{0,1:T(2,128)}) %tuple.3395), index=11, metadata={op_type="While" op_name="LoopCond"}
  %reshape.3497 = f32[1]{0:T(256)} reshape(f32[1]{0:T(256)} %get-tuple-element.3407), metadata={op_name="XLA_Retvals"}
  %tuple.3498 = (f32[1]{0:T(256)}) tuple(f32[1]{0:T(256)} %reshape.3497), sharding={maximal device=0 metadata={op_type="TPUEmbeddingActivations" op_name="while/TPUEmbeddingActivations_5"}}, metadata={op_name="XLA_Retvals"}
  %get-tuple-element.3499 = f32[1]{0:T(256)} get-tuple-element((f32[1]{0:T(256)}) %tuple.3498), index=0, sharding={maximal device=0 metadata={op_type="TPUEmbeddingActivations" op_name="while/TPUEmbeddingActivations_5"}}, metadata={op_name="XLA_Retvals"}
  %get-tuple-element.3408 = f32[1]{0:T(256)} get-tuple-element((s32[], s64[]{:T(256)}, f32[19656,128]{1,0:T(8,128)}, f32[1]{0:T(256)}, f32[1]{0:T(256)}, /*index=5*/f32[1]{0:T(256)}, f32[1]{0:T(256)}, f32[1]{0:T(256)}, f32[1]{0:T(256)}, f32[1]{0:T(256)}, /*index=10*/f32[1]{0:T(256)}, f32[1]{0:T(256)}, f32[1]{0:T(256)}, f32[1]{0:T(256)}, f32[1]{0:T(256)}, /*index=15*/f32[1]{0:T(256)}, f32[512]{0:T(512)}, f32[13,512]{1,0:T(8,128)}, f32[256]{0:T(256)}, f32[512,256]{1,0:T(8,128)}, /*index=20*/f32[128]{0:T(256)}, f32[256,128]{1,0:T(8,128)}, f32[1024]{0:T(1024)}, f32[857,1024]{1,0:T(8,128)}, f32[1024]{0:T(1024)}, /*index=25*/f32[1024,1024]{1,0:T(8,128)}, f32[512]{0:T(512)}, f32[1024,512]{1,0:T(8,128)}, f32[256]{0:T(256)}, f32[512,256]{1,0:T(8,128)}, /*index=30*/f32[1]{0:T(256)}, f32[256,1]{0,1:T(2,128)}) %tuple.3395), index=12, metadata={op_type="While" op_name="LoopCond"}
  %reshape.3500 = f32[1]{0:T(256)} reshape(f32[1]{0:T(256)} %get-tuple-element.3408), metadata={op_name="XLA_Retvals"}
  %tuple.3501 = (f32[1]{0:T(256)}) tuple(f32[1]{0:T(256)} %reshape.3500), sharding={maximal device=0 metadata={op_type="TPUEmbeddingActivations" op_name="while/TPUEmbeddingActivations_6"}}, metadata={op_name="XLA_Retvals"}
  %get-tuple-element.3502 = f32[1]{0:T(256)} get-tuple-element((f32[1]{0:T(256)}) %tuple.3501), index=0, sharding={maximal device=0 metadata={op_type="TPUEmbeddingActivations" op_name="while/TPUEmbeddingActivations_6"}}, metadata={op_name="XLA_Retvals"}
  %get-tuple-element.3409 = f32[1]{0:T(256)} get-tuple-element((s32[], s64[]{:T(256)}, f32[19656,128]{1,0:T(8,128)}, f32[1]{0:T(256)}, f32[1]{0:T(256)}, /*index=5*/f32[1]{0:T(256)}, f32[1]{0:T(256)}, f32[1]{0:T(256)}, f32[1]{0:T(256)}, f32[1]{0:T(256)}, /*index=10*/f32[1]{0:T(256)}, f32[1]{0:T(256)}, f32[1]{0:T(256)}, f32[1]{0:T(256)}, f32[1]{0:T(256)}, /*index=15*/f32[1]{0:T(256)}, f32[512]{0:T(512)}, f32[13,512]{1,0:T(8,128)}, f32[256]{0:T(256)}, f32[512,256]{1,0:T(8,128)}, /*index=20*/f32[128]{0:T(256)}, f32[256,128]{1,0:T(8,128)}, f32[1024]{0:T(1024)}, f32[857,1024]{1,0:T(8,128)}, f32[1024]{0:T(1024)}, /*index=25*/f32[1024,1024]{1,0:T(8,128)}, f32[512]{0:T(512)}, f32[1024,512]{1,0:T(8,128)}, f32[256]{0:T(256)}, f32[512,256]{1,0:T(8,128)}, /*index=30*/f32[1]{0:T(256)}, f32[256,1]{0,1:T(2,128)}) %tuple.3395), index=13, metadata={op_type="While" op_name="LoopCond"}
  %reshape.3503 = f32[1]{0:T(256)} reshape(f32[1]{0:T(256)} %get-tuple-element.3409), metadata={op_name="XLA_Retvals"}
  %tuple.3504 = (f32[1]{0:T(256)}) tuple(f32[1]{0:T(256)} %reshape.3503), sharding={maximal device=0 metadata={op_type="TPUEmbeddingActivations" op_name="while/TPUEmbeddingActivations_7"}}, metadata={op_name="XLA_Retvals"}
  %get-tuple-element.3505 = f32[1]{0:T(256)} get-tuple-element((f32[1]{0:T(256)}) %tuple.3504), index=0, sharding={maximal device=0 metadata={op_type="TPUEmbeddingActivations" op_name="while/TPUEmbeddingActivations_7"}}, metadata={op_name="XLA_Retvals"}
  %get-tuple-element.3410 = f32[1]{0:T(256)} get-tuple-element((s32[], s64[]{:T(256)}, f32[19656,128]{1,0:T(8,128)}, f32[1]{0:T(256)}, f32[1]{0:T(256)}, /*index=5*/f32[1]{0:T(256)}, f32[1]{0:T(256)}, f32[1]{0:T(256)}, f32[1]{0:T(256)}, f32[1]{0:T(256)}, /*index=10*/f32[1]{0:T(256)}, f32[1]{0:T(256)}, f32[1]{0:T(256)}, f32[1]{0:T(256)}, f32[1]{0:T(256)}, /*index=15*/f32[1]{0:T(256)}, f32[512]{0:T(512)}, f32[13,512]{1,0:T(8,128)}, f32[256]{0:T(256)}, f32[512,256]{1,0:T(8,128)}, /*index=20*/f32[128]{0:T(256)}, f32[256,128]{1,0:T(8,128)}, f32[1024]{0:T(1024)}, f32[857,1024]{1,0:T(8,128)}, f32[1024]{0:T(1024)}, /*index=25*/f32[1024,1024]{1,0:T(8,128)}, f32[512]{0:T(512)}, f32[1024,512]{1,0:T(8,128)}, f32[256]{0:T(256)}, f32[512,256]{1,0:T(8,128)}, /*index=30*/f32[1]{0:T(256)}, f32[256,1]{0,1:T(2,128)}) %tuple.3395), index=14, metadata={op_type="While" op_name="LoopCond"}
  %reshape.3506 = f32[1]{0:T(256)} reshape(f32[1]{0:T(256)} %get-tuple-element.3410), metadata={op_name="XLA_Retvals"}
  %tuple.3507 = (f32[1]{0:T(256)}) tuple(f32[1]{0:T(256)} %reshape.3506), sharding={maximal device=0 metadata={op_type="TPUEmbeddingActivations" op_name="while/TPUEmbeddingActivations_8"}}, metadata={op_name="XLA_Retvals"}
  %get-tuple-element.3508 = f32[1]{0:T(256)} get-tuple-element((f32[1]{0:T(256)}) %tuple.3507), index=0, sharding={maximal device=0 metadata={op_type="TPUEmbeddingActivations" op_name="while/TPUEmbeddingActivations_8"}}, metadata={op_name="XLA_Retvals"}
  %get-tuple-element.3411 = f32[1]{0:T(256)} get-tuple-element((s32[], s64[]{:T(256)}, f32[19656,128]{1,0:T(8,128)}, f32[1]{0:T(256)}, f32[1]{0:T(256)}, /*index=5*/f32[1]{0:T(256)}, f32[1]{0:T(256)}, f32[1]{0:T(256)}, f32[1]{0:T(256)}, f32[1]{0:T(256)}, /*index=10*/f32[1]{0:T(256)}, f32[1]{0:T(256)}, f32[1]{0:T(256)}, f32[1]{0:T(256)}, f32[1]{0:T(256)}, /*index=15*/f32[1]{0:T(256)}, f32[512]{0:T(512)}, f32[13,512]{1,0:T(8,128)}, f32[256]{0:T(256)}, f32[512,256]{1,0:T(8,128)}, /*index=20*/f32[128]{0:T(256)}, f32[256,128]{1,0:T(8,128)}, f32[1024]{0:T(1024)}, f32[857,1024]{1,0:T(8,128)}, f32[1024]{0:T(1024)}, /*index=25*/f32[1024,1024]{1,0:T(8,128)}, f32[512]{0:T(512)}, f32[1024,512]{1,0:T(8,128)}, f32[256]{0:T(256)}, f32[512,256]{1,0:T(8,128)}, /*index=30*/f32[1]{0:T(256)}, f32[256,1]{0,1:T(2,128)}) %tuple.3395), index=15, metadata={op_type="While" op_name="LoopCond"}
  %reshape.3509 = f32[1]{0:T(256)} reshape(f32[1]{0:T(256)} %get-tuple-element.3411), metadata={op_name="XLA_Retvals"}
  %tuple.3510 = (f32[1]{0:T(256)}) tuple(f32[1]{0:T(256)} %reshape.3509), sharding={maximal device=0 metadata={op_type="TPUEmbeddingActivations" op_name="while/TPUEmbeddingActivations_9"}}, metadata={op_name="XLA_Retvals"}
  %get-tuple-element.3511 = f32[1]{0:T(256)} get-tuple-element((f32[1]{0:T(256)}) %tuple.3510), index=0, sharding={maximal device=0 metadata={op_type="TPUEmbeddingActivations" op_name="while/TPUEmbeddingActivations_9"}}, metadata={op_name="XLA_Retvals"}
  %get-tuple-element.3401 = f32[1]{0:T(256)} get-tuple-element((s32[], s64[]{:T(256)}, f32[19656,128]{1,0:T(8,128)}, f32[1]{0:T(256)}, f32[1]{0:T(256)}, /*index=5*/f32[1]{0:T(256)}, f32[1]{0:T(256)}, f32[1]{0:T(256)}, f32[1]{0:T(256)}, f32[1]{0:T(256)}, /*index=10*/f32[1]{0:T(256)}, f32[1]{0:T(256)}, f32[1]{0:T(256)}, f32[1]{0:T(256)}, f32[1]{0:T(256)}, /*index=15*/f32[1]{0:T(256)}, f32[512]{0:T(512)}, f32[13,512]{1,0:T(8,128)}, f32[256]{0:T(256)}, f32[512,256]{1,0:T(8,128)}, /*index=20*/f32[128]{0:T(256)}, f32[256,128]{1,0:T(8,128)}, f32[1024]{0:T(1024)}, f32[857,1024]{1,0:T(8,128)}, f32[1024]{0:T(1024)}, /*index=25*/f32[1024,1024]{1,0:T(8,128)}, f32[512]{0:T(512)}, f32[1024,512]{1,0:T(8,128)}, f32[256]{0:T(256)}, f32[512,256]{1,0:T(8,128)}, /*index=30*/f32[1]{0:T(256)}, f32[256,1]{0,1:T(2,128)}) %tuple.3395), index=5, metadata={op_type="While" op_name="LoopCond"}
  %reshape.3512 = f32[1]{0:T(256)} reshape(f32[1]{0:T(256)} %get-tuple-element.3401), metadata={op_name="XLA_Retvals"}
  %tuple.3513 = (f32[1]{0:T(256)}) tuple(f32[1]{0:T(256)} %reshape.3512), sharding={maximal device=0 metadata={op_type="TPUEmbeddingActivations" op_name="while/TPUEmbeddingActivations_10"}}, metadata={op_name="XLA_Retvals"}
  %get-tuple-element.3514 = f32[1]{0:T(256)} get-tuple-element((f32[1]{0:T(256)}) %tuple.3513), index=0, sharding={maximal device=0 metadata={op_type="TPUEmbeddingActivations" op_name="while/TPUEmbeddingActivations_10"}}, metadata={op_name="XLA_Retvals"}
  %get-tuple-element.3402 = f32[1]{0:T(256)} get-tuple-element((s32[], s64[]{:T(256)}, f32[19656,128]{1,0:T(8,128)}, f32[1]{0:T(256)}, f32[1]{0:T(256)}, /*index=5*/f32[1]{0:T(256)}, f32[1]{0:T(256)}, f32[1]{0:T(256)}, f32[1]{0:T(256)}, f32[1]{0:T(256)}, /*index=10*/f32[1]{0:T(256)}, f32[1]{0:T(256)}, f32[1]{0:T(256)}, f32[1]{0:T(256)}, f32[1]{0:T(256)}, /*index=15*/f32[1]{0:T(256)}, f32[512]{0:T(512)}, f32[13,512]{1,0:T(8,128)}, f32[256]{0:T(256)}, f32[512,256]{1,0:T(8,128)}, /*index=20*/f32[128]{0:T(256)}, f32[256,128]{1,0:T(8,128)}, f32[1024]{0:T(1024)}, f32[857,1024]{1,0:T(8,128)}, f32[1024]{0:T(1024)}, /*index=25*/f32[1024,1024]{1,0:T(8,128)}, f32[512]{0:T(512)}, f32[1024,512]{1,0:T(8,128)}, f32[256]{0:T(256)}, f32[512,256]{1,0:T(8,128)}, /*index=30*/f32[1]{0:T(256)}, f32[256,1]{0,1:T(2,128)}) %tuple.3395), index=6, metadata={op_type="While" op_name="LoopCond"}
  %reshape.3515 = f32[1]{0:T(256)} reshape(f32[1]{0:T(256)} %get-tuple-element.3402), metadata={op_name="XLA_Retvals"}
  %tuple.3516 = (f32[1]{0:T(256)}) tuple(f32[1]{0:T(256)} %reshape.3515), sharding={maximal device=0 metadata={op_type="TPUEmbeddingActivations" op_name="while/TPUEmbeddingActivations_11"}}, metadata={op_name="XLA_Retvals"}
  %get-tuple-element.3517 = f32[1]{0:T(256)} get-tuple-element((f32[1]{0:T(256)}) %tuple.3516), index=0, sharding={maximal device=0 metadata={op_type="TPUEmbeddingActivations" op_name="while/TPUEmbeddingActivations_11"}}, metadata={op_name="XLA_Retvals"}
  %get-tuple-element.3403 = f32[1]{0:T(256)} get-tuple-element((s32[], s64[]{:T(256)}, f32[19656,128]{1,0:T(8,128)}, f32[1]{0:T(256)}, f32[1]{0:T(256)}, /*index=5*/f32[1]{0:T(256)}, f32[1]{0:T(256)}, f32[1]{0:T(256)}, f32[1]{0:T(256)}, f32[1]{0:T(256)}, /*index=10*/f32[1]{0:T(256)}, f32[1]{0:T(256)}, f32[1]{0:T(256)}, f32[1]{0:T(256)}, f32[1]{0:T(256)}, /*index=15*/f32[1]{0:T(256)}, f32[512]{0:T(512)}, f32[13,512]{1,0:T(8,128)}, f32[256]{0:T(256)}, f32[512,256]{1,0:T(8,128)}, /*index=20*/f32[128]{0:T(256)}, f32[256,128]{1,0:T(8,128)}, f32[1024]{0:T(1024)}, f32[857,1024]{1,0:T(8,128)}, f32[1024]{0:T(1024)}, /*index=25*/f32[1024,1024]{1,0:T(8,128)}, f32[512]{0:T(512)}, f32[1024,512]{1,0:T(8,128)}, f32[256]{0:T(256)}, f32[512,256]{1,0:T(8,128)}, /*index=30*/f32[1]{0:T(256)}, f32[256,1]{0,1:T(2,128)}) %tuple.3395), index=7, metadata={op_type="While" op_name="LoopCond"}
  %reshape.3518 = f32[1]{0:T(256)} reshape(f32[1]{0:T(256)} %get-tuple-element.3403), metadata={op_name="XLA_Retvals"}
  %tuple.3519 = (f32[1]{0:T(256)}) tuple(f32[1]{0:T(256)} %reshape.3518), sharding={maximal device=0 metadata={op_type="TPUEmbeddingActivations" op_name="while/TPUEmbeddingActivations_12"}}, metadata={op_name="XLA_Retvals"}
  %get-tuple-element.3520 = f32[1]{0:T(256)} get-tuple-element((f32[1]{0:T(256)}) %tuple.3519), index=0, sharding={maximal device=0 metadata={op_type="TPUEmbeddingActivations" op_name="while/TPUEmbeddingActivations_12"}}, metadata={op_name="XLA_Retvals"}
  ROOT %tuple.3521 = (f32[512]{0:T(512)}, f32[13,512]{1,0:T(8,128)}, f32[256]{0:T(256)}, f32[512,256]{1,0:T(8,128)}, f32[128]{0:T(256)}, /*index=5*/f32[256,128]{1,0:T(8,128)}, s64[]{:T(256)}, f32[19656,128]{1,0:T(8,128)}, f32[1024]{0:T(1024)}, f32[857,1024]{1,0:T(8,128)}, /*index=10*/f32[1024]{0:T(1024)}, f32[1024,1024]{1,0:T(8,128)}, f32[512]{0:T(512)}, f32[1024,512]{1,0:T(8,128)}, f32[256]{0:T(256)}, /*index=15*/f32[512,256]{1,0:T(8,128)}, f32[1]{0:T(256)}, f32[256,1]{0,1:T(2,128)}, f32[1]{0:T(256)}, f32[1]{0:T(256)}, /*index=20*/f32[1]{0:T(256)}, f32[1]{0:T(256)}, f32[1]{0:T(256)}, f32[1]{0:T(256)}, f32[1]{0:T(256)}, /*index=25*/f32[1]{0:T(256)}, f32[1]{0:T(256)}, f32[1]{0:T(256)}, f32[1]{0:T(256)}, f32[1]{0:T(256)}, /*index=30*/f32[1]{0:T(256)}) tuple(f32[512]{0:T(512)} %get-tuple-element.3430, f32[13,512]{1,0:T(8,128)} %get-tuple-element.3433, f32[256]{0:T(256)} %get-tuple-element.3436, f32[512,256]{1,0:T(8,128)} %get-tuple-element.3439, f32[128]{0:T(256)} %get-tuple-element.3442, /*index=5*/f32[256,128]{1,0:T(8,128)} %get-tuple-element.3445, s64[]{:T(256)} %get-tuple-element.3448, f32[19656,128]{1,0:T(8,128)} %get-tuple-element.3451, f32[1024]{0:T(1024)} %get-tuple-element.3454, f32[857,1024]{1,0:T(8,128)} %get-tuple-element.3457, /*index=10*/f32[1024]{0:T(1024)} %get-tuple-element.3460, f32[1024,1024]{1,0:T(8,128)} %get-tuple-element.3463, f32[512]{0:T(512)} %get-tuple-element.3466, f32[1024,512]{1,0:T(8,128)} %get-tuple-element.3469, f32[256]{0:T(256)} %get-tuple-element.3472, /*index=15*/f32[512,256]{1,0:T(8,128)} %get-tuple-element.3475, f32[1]{0:T(256)} %get-tuple-element.3478, f32[256,1]{0,1:T(2,128)} %get-tuple-element.3481, f32[1]{0:T(256)} %get-tuple-element.3484, f32[1]{0:T(256)} %get-tuple-element.3487, /*index=20*/f32[1]{0:T(256)} %get-tuple-element.3490, f32[1]{0:T(256)} %get-tuple-element.3493, f32[1]{0:T(256)} %get-tuple-element.3496, f32[1]{0:T(256)} %get-tuple-element.3499, f32[1]{0:T(256)} %get-tuple-element.3502, /*index=25*/f32[1]{0:T(256)} %get-tuple-element.3505, f32[1]{0:T(256)} %get-tuple-element.3508, f32[1]{0:T(256)} %get-tuple-element.3511, f32[1]{0:T(256)} %get-tuple-element.3514, f32[1]{0:T(256)} %get-tuple-element.3517, /*index=30*/f32[1]{0:T(256)} %get-tuple-element.3520), sharding={{maximal device=0 metadata={op_type="_TPUReplicate" op_name="cluster"}}, {maximal device=0 metadata={op_type="_TPUReplicate" op_name="cluster"}}, {maximal device=0 metadata={op_type="_TPUReplicate" op_name="cluster"}}, {maximal device=0 metadata={op_type="_TPUReplicate" op_name="cluster"}}, {maximal device=0 metadata={op_type="_TPUReplicate" op_name="cluster"}}, {maximal device=0 metadata={op_type="_TPUReplicate" op_name="cluster"}}, {maximal device=0 metadata={op_type="Cast" op_name="while/Cast_9"}}, {maximal device=0 metadata={op_type="_TPUReplicate" op_name="cluster"}}, {maximal device=0 metadata={op_type="_TPUReplicate" op_name="cluster"}}, {maximal device=0 metadata={op_type="_TPUReplicate" op_name="cluster"}}, {maximal device=0 metadata={op_type="_TPUReplicate" op_name="cluster"}}, {maximal device=0 metadata={op_type="_TPUReplicate" op_name="cluster"}}, {maximal device=0 metadata={op_type="_TPUReplicate" op_name="cluster"}}, {maximal device=0 metadata={op_type="_TPUReplicate" op_name="cluster"}}, {maximal device=0 metadata={op_type="_TPUReplicate" op_name="cluster"}}, {maximal device=0 metadata={op_type="_TPUReplicate" op_name="cluster"}}, {maximal device=0 metadata={op_type="_TPUReplicate" op_name="cluster"}}, {maximal device=0 metadata={op_type="_TPUReplicate" op_name="cluster"}}, {maximal device=0 metadata={op_type="TPUEmbeddingActivations" op_name="while/TPUEmbeddingActivations"}}, {maximal device=0 metadata={op_type="TPUEmbeddingActivations" op_name="while/TPUEmbeddingActivations_1"}}, {maximal device=0 metadata={op_type="TPUEmbeddingActivations" op_name="while/TPUEmbeddingActivations_2"}}, {maximal device=0 metadata={op_type="TPUEmbeddingActivations" op_name="while/TPUEmbeddingActivations_3"}}, {maximal device=0 metadata={op_type="TPUEmbeddingActivations" op_name="while/TPUEmbeddingActivations_4"}}, {maximal device=0 metadata={op_type="TPUEmbeddingActivations" op_name="while/TPUEmbeddingActivations_5"}}, {maximal device=0 metadata={op_type="TPUEmbeddingActivations" op_name="while/TPUEmbeddingActivations_6"}}, {maximal device=0 metadata={op_type="TPUEmbeddingActivations" op_name="while/TPUEmbeddingActivations_7"}}, {maximal device=0 metadata={op_type="TPUEmbeddingActivations" op_name="while/TPUEmbeddingActivations_8"}}, {maximal device=0 metadata={op_type="TPUEmbeddingActivations" op_name="while/TPUEmbeddingActivations_9"}}, {maximal device=0 metadata={op_type="TPUEmbeddingActivations" op_name="while/TPUEmbeddingActivations_10"}}, {maximal device=0 metadata={op_type="TPUEmbeddingActivations" op_name="while/TPUEmbeddingActivations_11"}}, {maximal device=0 metadata={op_type="TPUEmbeddingActivations" op_name="while/TPUEmbeddingActivations_12"}}}, metadata={op_name="XLA_Retvals"}
}

